model/finetuned_model_weights_PermeateConductivity.pth (torch, 921697 bytes, 14 tensors)

lstm.weight_ih_l0 f4 [512, 10]
000000 35 14 a2 3d 3c 0d 02 3d 7b 2f 29 3e 48 0f 5c 3d
       0.079140104 0.031750903 0.16522019 0.05372551
000010 05 84 09 3e 43 a7 25 3d 49 b5 5b be b9 0c 3c 3e
       0.13429268 0.040442716 -0.21455874 0.18364228
000020 7a 10 cc 3d e1 fe 7c 3d 5b 6b 25 bd 2a 94 d9 3c
       0.0996408 0.06176651 -0.040385585 0.026559908
000030 18 8c 05 3c 86 fd 69 bd 46 18 1a bd c7 f8 3a 3d
       0.008151077 -0.057126544 -0.037620805 0.04564741
000040 23 be 97 3d eb 61 8f bc 3f 76 c7 bd 33 35 cb bd
       0.074093126 -0.017502746 -0.097393505 -0.09922256
000050 5f 40 c4 3d 8c e7 e7 3a dd fe 51 3d 61 82 af 3d
       0.0958259 0.0017692908 0.051268447 0.0856979
000060 43 8b 81 bd 2a 0d d2 3a c2 83 86 3d 88 b9 3b bd
       -0.0632539 0.0016025652 0.065680996 -0.045831233
000070 30 b6 c9 bd df f0 3c bd 93 61 c4 bc 54 b1 94 38
       -0.09849203 -0.04612815 -0.023972308 7.09022e-05
000080 4a e3 7c 3d b4 69 f6 3b 7f a1 1a 3d 5a 42 0c be
       0.061740197 0.007519925 0.03775167 -0.13697186
000090 14 d9 a0 3b 2c 1d 37 3d 9c a9 cd 3d a6 b6 d0 bb
       0.00490869 0.044705555 0.10042116 -0.0063694296
0000a0 d4 38 d5 bd 3b 3c c9 3c 09 70 ba 3b 9a 86 40 3d
       -0.1041123 0.024564853 0.005689625 0.047003366
0000b0 c0 5f 4e bb 68 a4 b6 3d 8a 0e d2 3c 78 55 4c bd
       -0.0031490177 0.08918077 0.025641698 -0.049886197
0000c0 c5 ea 7c bd d5 4b e9 bc 66 61 53 3b cb ea 23 bd
       -0.06174733 -0.028478542 0.00322541 -0.040018838
0000d0 4a d2 13 bd ff 52 4e 3d 2b 99 5f 3c b0 1b 93 bd
       -0.03608922 0.05037212 0.013647358 -0.07183015
0000e0 36 81 e1 3c 77 49 9e 3d 82 3f 1c bd bc 6d 19 bd
       0.027527433 0.07728856 -0.038146503 -0.037458166
0000f0 c8 ce 4e bd ab 40 01 3e 31 4a 52 bc 08 95 14 3e
       -0.05049017 0.12622325 -0.012835071 0.14509976
000100 db 3b 0d 3c dd e6 01 be b2 1b 31 bd 10 3b 80 3c
       0.008620228 -0.12685724 -0.043239303 0.015653163
000110 28 e2 8d 3d 1d 69 02 be 2b 83 5b bd e6 6a 3b 3d
       0.069279015 -0.1273541 -0.05359189 0.045756243
000120 7d dc 5e bb 83 ad e6 3d fa b3 06 bd 74 63 0d bc
       -0.0034005933 0.112635635 -0.032886483 -0.0086296685
000130 cc f7 fe bd 3d 64 9f 3d 1f 52 a1 bc d7 dd 4a bd
       -0.12449607 0.07782791 -0.019692479 -0.04952797
000140 0d 34 62 bd 31 36 e8 3d bd 39 ac 3d a0 0d 02 3d
       -0.05522542 0.11338461 0.0840945 0.031751275
000150 3a 90 90 3d 72 69 c8 bd 9c e5 07 be 5a ac a0 3d
       0.07058759 -0.09785737 -0.13271183 0.078453735
000160 e0 7a 1e 3e 94 92 6b ba 1b 50 7f 3d fb 0b 97 bc
       0.1547656 -0.00089863804 0.062332254 -0.01843833
000170 26 6f 33 bd c3 9e c7 3d 00 c1 03 3e 8f f9 bb bd
       -0.04380717 0.09747078 0.12866592 -0.09178459
000180 d3 be b1 3c d9 98 f6 3b ca b6 03 be f9 19 b4 bd
       0.021697437 0.007525545 -0.12862697 -0.087940164
000190 8d 90 bc bc fe 25 91 bd 23 ab 48 3d 2e a5 09 bd
       -0.023018146 -0.070873246 0.048991334 -0.033604793
0001a0 5b da a2 bd c8 02 84 3d 06 8a 08 bd 8c 64 38 bd
       -0.07951804 0.06445843 -0.033334754 -0.045017764
0001b0 a7 a1 83 3b d1 93 89 3d dd 24 94 3d bc 73 bf 3c
       0.004017073 0.06717647 0.072335936 0.023370616
0001c0 85 ad 8f bd 29 b7 94 3d dc 07 71 bd c7 8b e1 3c
       -0.07015518 0.072614975 -0.058845386 0.027532471
0001d0 19 ec c8 3d 1f 62 db 3d fb f7 d3 bc 04 ca 83 3d
       0.09810657 0.107120745 -0.025875082 0.06435016
0001e0 8b d7 e7 3c 62 fa ac 3c 5f 88 a7 3d 1a 35 88 3d
       0.028301021 0.021115486 0.081803076 0.06650753
0001f0 5d 55 10 bc 05 7e 7c bd 9d 7f 43 3d 66 6e ce bc
       -0.008809415 -0.06164362 0.047729123 -0.025199126
000200 27 4b a6 3c bd f5 90 bc 6d f4 4a bd c1 ad 9b bd
       0.020299507 -0.017695302 -0.04954951 -0.076015
000210 31 b3 ef 3d 96 89 d8 3d fa 60 b5 3d 32 51 28 3d
       0.117041 0.105731174 0.088563874 0.04109306
000220 b8 91 4e 3e ce 45 0a bd 2e 02 37 be 46 84 5d bc
       0.20172775 -0.033757977 -0.17871925 -0.013520306
000230 c9 a6 4d bb 68 f1 90 bd b9 d4 58 bd 65 dc 00 3c
       -0.003137993 -0.070772946 -0.052937243 0.007865046
000240 d4 c5 03 bd 5d 56 af bb c4 ed fb 3c c5 9b 94 3d
       -0.032171085 -0.0053508715 0.030753024 0.07256273
000250 f8 9b 0e be 04 3a 48 bd c8 0c be 3d 5e 36 b3 3d
       -0.13926685 -0.048883453 0.092797816 0.08750604
000260 f7 10 0e bd 20 16 fd bb fe d9 20 3c 85 90 31 3c
       -0.034684148 -0.007723585 0.009817598 0.010837679
000270 be f9 b4 3d 94 d9 13 bd 1a b9 61 be ad 8b 58 3c
       0.08836697 -0.03609617 -0.22043267 0.013216895
000280 3b f2 f1 bd 08 48 17 be e8 88 61 bd 59 0b a4 bb
       -0.1181378 -0.14773571 -0.055062205 -0.0050062356
000290 4c 1d 89 bd d3 76 01 3e 7f bb 16 3e 91 ba 86 bd
       -0.06695041 0.12642984 0.14719962 -0.065785535
0002a0 f2 45 05 be d6 f9 f6 3d 74 40 67 3c 08 d4 a0 3d
       -0.13014963 0.12059371 0.014114488 0.07852942
0002b0 2f cd b3 bd 8d 7e 03 3e 49 97 70 bc f1 9e af bd
       -0.0877937 0.12841244 -0.014684507 -0.085752375
0002c0 2f 05 f9 3c 9e 1f 8d bd 68 a6 d3 bd 1e 06 0e bd
       0.03039798 -0.06890796 -0.10334474 -0.034673803
0002d0 ed 9a fe 3d 17 1d ed 3d 2b 9f a8 3d f7 6a 84 3d
       0.124318935 0.11577814 0.08233484 0.064657144
0002e0 f0 fa a1 3c 13 d1 4a bd 54 9f c7 3a 6e 08 b4 3c
       0.019772977 -0.049515795 0.0015229979 0.021976676
0002f0 69 f9 bb bd 84 43 ee bd bf 4b 56 3c dd e0 62 3d
       -0.091784306 -0.11633971 0.013079583 0.055390228
000300 5f 4c 3d bc 55 47 03 3d 05 bb 75 3d b7 f0 fe 3c
       -0.011553853 0.03205045 0.05999281 0.031120641
000310 04 a8 c2 3d 04 4c 81 3d ee 4a 5f bc c0 9c 2a bd
       0.09504703 0.06313327 -0.0136287045 -0.041653395
000320 32 a7 4b 3d 44 7d 8f 3d 97 e5 8b bd 62 0a 43 bd
       0.049719997 0.070063144 -0.068309 -0.047617324
000330 b8 ad 0f bd 3b 9b 8a bd 3d 0f e3 3d 05 8c cd 3c
       -0.03507778 -0.06767889 0.11086891 0.02509118
000340 e7 da 6b be 4d 3e 21 be 99 63 6c bd 07 37 7b bd
       -0.23032723 -0.15746422 -0.05771217 -0.061331775
000350 4f 7d dc bd 4b 01 06 bd 9f 0c a6 bd c8 d0 09 bd
       -0.10766088 -0.032716077 -0.08107876 -0.033646375
000360 7e 77 67 3d 91 e5 01 bd d2 7b ef bb c2 c1 2a 3d
       0.05651044 -0.031713072 -0.0073084617 0.041688688
000370 fc 7e 17 3d 16 40 7d bd 72 65 41 bd 06 19 4a 3d
       0.036986336 -0.061828695 -0.047215886 0.04934027
000380 60 b2 c1 bc 75 0a 14 3c e6 d0 67 3d 83 25 bd bd
       -0.023644626 0.009035696 0.056595705 -0.092356704
000390 09 34 19 be 47 cf 53 bd 8d 0c 25 bc ed 47 c9 bd
       -0.14961256 -0.051711347 -0.010073793 -0.09828172
0003a0 42 61 70 bb f6 07 3a 3c 04 77 72 bd a4 40 cd bc
       -0.0036679064 0.011354437 -0.059195533 -0.025055237
0003b0 c0 3e 3f 3e 11 8b 72 bd 12 fa d7 bd 43 1a a1 bd
       0.18676281 -0.059214655 -0.10545744 -0.07866337
0003c0 13 63 18 3e 54 5a 1e bd 70 60 6c 3d 46 e5 2a 3d
       0.14881544 -0.038660362 0.057709157 0.04172256
0003d0 86 f2 90 bb 99 3d 86 3d ed 51 b0 3d 0e ec e8 3c
       -0.0044234423 0.065547176 0.08609376 0.028432872
0003e0 b2 be 66 bd d7 6e 50 3d 5c 18 64 3d 66 da 3c 3d
       -0.056334205 0.050886955 0.055687293 0.04610672
0003f0 ce 86 80 3d b8 a9 88 3d ed 4b 6a 3d f3 21 8d bd
       0.06275712 0.06672996 0.057201315 -0.06891241

lstm.weight_hh_l0 f4 [512, 128]
000000 23 6d 5a bc 13 b9 11 be 83 78 7e 3d 82 85 63 3c
       -0.013331684 -0.14230756 0.062126648 0.013886811
000010 a2 1b 52 be b8 0c 9c bd df 2e 97 bd dd 03 eb 3c
       -0.20518354 -0.076196134 -0.07381987 0.028688366
000020 72 57 11 3d f0 d6 89 3c 4d a2 09 be 73 65 b2 3d
       0.035483785 0.016826123 -0.13440819 0.08710756
000030 62 fa f6 3c fd 0a e4 bd a7 c2 e3 3d 0b 8d 5a bd
       0.030148689 -0.11134908 0.11121111 -0.053357165
000040 ff 76 e2 bd 62 20 cb 3d 82 2d 0a 3d d4 61 82 bd
       -0.11057853 0.09918286 0.033734806 -0.063663155
000050 8c e0 b8 3d 1d 3b 1a 3e d8 86 79 3e 4e 40 dd bd
       0.09027204 0.15061612 0.24367845 -0.10803281
000060 24 da 09 bc 93 3b 03 be 67 22 de 3d ba bf b6 3d
       -0.008413825 -0.12815695 0.108464055 0.08923288
000070 1d 3f ba 3d 2a ec b9 bd 13 da 71 bd b8 5c b0 3d
       0.09094069 -0.09078248 -0.059045862 0.08611435
000080 91 63 3f 3d c5 83 05 3e 9b e2 36 3e b4 e1 10 bd
       0.046725813 0.13038547 0.1785988 -0.035371497
000090 8e ef bc 3c 44 8a db bd 9d 9b 5c bd 65 59 3d 3b
       0.023063447 -0.107197315 -0.053859342 0.0028892395
0000a0 d0 8c 8e bc 42 8a 38 be 5c 6c c2 bd 67 30 e7 bd
       -0.017401129 -0.18021491 -0.09493324 -0.11288529
0000b0 b6 f2 86 3d 7b 41 07 3d cb 06 20 be de a5 18 3e
       0.06589262 0.03302143 -0.15627591 0.14907023
0000c0 dc a3 11 3e 98 fd 0c 3e 1b a5 16 3d 98 80 a9 bd
       0.14222664 0.13768613 0.03677855 -0.082764804
0000d0 a1 4c 8b bc 2d 4a b7 bd 48 17 82 3d c9 67 d9 bc
       -0.017004313 -0.08949695 0.06352097 -0.026538746
0000e0 34 fe 1a be c5 9a 7d bd 64 26 db 3d 0d df e0 3c
       -0.15136033 -0.061915178 0.10700682 0.027450109
0000f0 82 ad 55 3d db 6a a3 bd f4 24 18 bd 6f 5c 20 3d
       0.052167423 -0.079793654 -0.037144616 0.03915065
000100 53 5a 08 bc 7b b3 81 bc a7 20 db 3d 96 ef a3 bd
       -0.008322316 -0.015832653 0.10699587 -0.08004682
000110 84 1f ca 3d 0b 43 35 3e 1c aa 0d 3e 43 62 fd 3d
       0.098692924 0.17701356 0.13834423 0.123722576
000120 0a 5c 61 3d 35 c7 61 bd b2 9f 29 be 42 7f 53 bc
       0.055019416 -0.05512162 -0.16564825 -0.012908759
000130 76 87 be 3d 3b 46 09 3e a6 0e 94 bd 4d c7 07 bd
       0.09303181 0.13405697 -0.072293565 -0.033149052
000140 51 2c 39 3d 1b 0f 31 be 3d 7e 8d 3c 57 2b 05 3e
       0.04520828 -0.17290919 0.01727211 0.13004814
000150 54 63 d4 bd 0a 8a eb bc b3 83 88 bd 27 65 2b 3d
       -0.10370508 -0.028752346 -0.06665745 0.041844513
000160 3c 09 a7 3c ed 08 0b be c9 58 8f 3d 04 87 24 be
       0.020390145 -0.13577624 0.06999356 -0.1606713
000170 6d 63 a4 bd cc e4 34 be 9c 45 0d 3d 85 23 4b be
       -0.080267765 -0.17665404 0.034490213 -0.19837768
000180 23 9d 8f bd 2d 44 8e bd 2b 62 cd bd 9a 78 c7 3d
       -0.07012393 -0.06946597 -0.1002849 0.097398
000190 58 0b 83 3c db c0 34 3e a2 74 9e 3d 06 8a 4c bd
       0.01599662 0.17651694 0.0773709 -0.049936317
0001a0 22 df 88 3c e4 e1 7e 3d e3 eb 7c 3d 39 16 a6 bb
       0.01670796 0.062227145 0.061748397 -0.005068567
0001b0 d0 96 0f 3d 17 71 ba 3d c6 26 bc bd fd 4e c0 3d
       0.035055935 0.091036014 -0.09187083 0.09390066
0001c0 09 41 5b 3c 65 5d 88 bd 48 28 5d bc 89 61 f1 3c
       0.013382205 -0.066584386 -0.013498373 0.029465454
0001d0 e5 53 e9 bd 54 bb 0d 3e 55 29 db bc c6 83 86 bd
       -0.11392955 0.13840991 -0.026753107 -0.065681025
0001e0 ea c4 03 3e 2a 6e 68 bd 4b 47 47 be 64 f7 f9 3d
       0.12868086 -0.056745686 -0.1946079 0.12205389
0001f0 08 f0 66 3d 5d c1 05 3e f4 5d b3 bc d2 aa ea 3d
       0.056381255 0.13062043 -0.021895386 0.11458363
000200 8c 7e f1 bd 4e b1 a7 3d 74 08 31 bd 06 6f 02 3e
       -0.11791715 0.08188115 -0.043220952 0.12737665
000210 1a 87 2d bd a3 c4 02 bd 4c 61 01 3e 57 bd 79 bc
       -0.04236517 -0.03192581 0.12634772 -0.015242896
000220 4a e8 9b bd 5a bb 3f bd a7 c8 a1 bd f4 15 8f 3c
       -0.07612665 -0.04680953 -0.078995995 0.017466523
000230 83 8d a0 bd 3b df 22 3d 60 82 23 bd d3 78 2d bd
       -0.07839491 0.03976367 -0.039919257 -0.042351555
000240 a8 26 bb bc 65 39 50 3d 56 f6 c0 bb 35 35 73 3d
       -0.022845581 0.050835986 -0.0058887405 0.059376914
000250 cb 21 a8 bd 3c 6e 02 bd a6 f6 dd 3c 0e a6 66 3d
       -0.082095705 -0.03184341 0.02709515 0.056310706
000260 57 c6 a2 bd 91 bb f0 3d 14 f2 a5 bd ba f3 e6 bd
       -0.079479866 0.117545255 -0.08102813 -0.11276956
000270 2e 7e be bd 2f 3d b7 bd 3e b0 ad 3d 5c 59 e7 3c
       -0.093014106 -0.08947217 0.08480881 0.028240852
000280 5d f9 df 3b f3 e7 8a bd c3 c3 50 3d 0e 99 cc 3d
       0.0068351463 -0.06782522 0.050967943 0.0999013
000290 7b 1b 83 bd 46 60 21 3c 40 7f 91 3d 71 5b 31 bd
       -0.06401726 0.0098496135 0.07104349 -0.043300096
0002a0 0d 5c f5 3c 06 1c 27 3d 36 34 63 bd ef 5a 05 bc
       0.02995112 0.04079821 -0.055469714 -0.008139356
0002b0 05 a3 00 3d 96 cb 7f 3d b4 df e9 3c 51 86 be bd
       0.031405468 0.062450014 0.028549053 -0.093029626
0002c0 f9 9e bb bd c2 64 f2 3b e0 82 4a bd a6 71 43 3d
       -0.09161181 0.007397265 -0.04944122 0.047715805
0002d0 76 ac 21 3d f7 56 cc bb 55 d1 a8 bd 63 84 c4 3b
       0.039471112 -0.006235953 -0.08243052 0.005997227
0002e0 c8 b7 21 bd 45 55 4d 3d d2 54 14 3d 86 5d ec bb
       -0.039481908 0.050130147 0.036213703 -0.0072132973
0002f0 df e1 92 3d 5a c3 38 3d f9 53 ca 3c 35 2d e2 bd
       0.07171988 0.045108177 0.024698244 -0.11043779
000300 02 aa fc bc 7a 45 6b bd d9 4a 5b bd ad bb 81 bd
       -0.030842785 -0.057439305 -0.053538177 -0.063346244
000310 82 f3 34 bd 4f 68 24 3b 8c 06 e5 bd da a8 c5 bd
       -0.04417754 0.0025086587 -0.11182889 -0.096513465
000320 24 12 4d 3d 44 29 56 3d 07 f9 32 bd cb a8 b4 bd
       0.05006613 0.052285448 -0.043694522 -0.08821257
000330 d4 c3 e7 3b 5d d5 9b bd fe d7 f9 bd 8b c1 28 bd
       0.007072905 -0.07609055 -0.121994 -0.041200202
000340 98 77 98 3d 7c 43 d4 3d b2 a4 9e bd 4d 94 44 bd
       0.07444686 0.10364434 -0.07746257 -0.047992993
000350 a2 cb ba bc 41 26 ab 3d ca 85 fb 3b 9b ba b4 3d
       -0.022802178 0.08356906 0.007675861 0.08824655
000360 a7 09 16 bd e5 74 4a 3d 41 2a cd bd c3 d8 8a 3d
       -0.0366303 0.049427886 -0.10017825 0.06779625
000370 1a 28 19 3b a2 4e cd 3d d5 74 99 bd 8c f9 7d bc
       0.002336985 0.10024764 -0.07492987 -0.015501391
000380 84 d5 5e 3d 8a 69 e8 3d d5 3e 70 3d 09 2a 3f 3d
       0.054402843 0.11348255 0.05865367 0.046670947
000390 72 ce f5 bd 0e 9e 52 bd 50 d5 72 bd 20 d9 d8 3d
       -0.12002267 -0.051420264 -0.059285462 0.10588288
0003a0 b6 1b 0f 3d 4e 44 59 3d 6b 1e 3c bd 96 bf a1 bd
       0.034938537 0.053043656 -0.045927446 -0.0789787
0003b0 8a 38 9d bd 23 21 a2 bd af 8c 36 3d b8 58 93 bc
       -0.076767996 -0.079164766 0.04456776 -0.01798664
0003c0 d7 36 2c 3d 37 f1 26 ba 98 e9 e1 3b 06 22 bc bc
       0.042044487 -0.0006368341 0.0068943016 -0.022965442
0003d0 15 bb 0a 3d a8 29 56 bd ac 42 91 bd 70 68 c8 bc
       0.03386982 -0.05228582 -0.07092795 -0.024463862
0003e0 a4 85 bc bb b0 d9 d6 bb 1a 81 75 3c 6c dd 6a bd
       -0.005753236 -0.006556712 0.0149843935 -0.05734007
0003f0 65 16 f7 3c 1f 8a 9e 3c 7d 05 76 3c a0 17 ce bd
       0.030162046 0.01935297 0.015015957 -0.100631

lstm.bias_ih_l0 f4 [512]
000000 ab 48 1a bd 05 79 a5 3d 30 58 04 be a0 37 07 be
       -0.037666958 0.08079723 -0.12924266 -0.13204813
000010 6e 8f 93 bd 73 4a 0f 3c 52 6f 8a be 9c 90 52 be
       -0.072050914 0.008745777 -0.27038056 -0.20562977
000020 cb be 9c bc 03 a4 5b 3d 01 88 ad bd 74 51 42 bd
       -0.019133946 0.05362321 -0.08473206 -0.04744096
000030 57 4c 1c 3d c1 f2 e1 3c 74 77 cf 3d 93 7f 8b bc
       0.03815874 0.027581574 0.10130206 -0.017028606
000040 ba 5c eb bc a1 d9 92 3d 63 15 38 be 1e 35 9a bd
       -0.028730739 0.07170416 -0.17976908 -0.075296625
000050 36 04 c7 3c b0 33 cd bd 31 33 59 bc a0 1a 31 3d
       0.024294 -0.10019624 -0.013256834 0.043238282
000060 db 6b aa bd f9 11 e9 bd 49 32 83 ba 16 0e 5b be
       -0.08321353 -0.11380381 -0.0010009493 -0.21392092
000070 5d 66 a6 bd 48 f4 e7 bd cf f6 2a bd fd 7e 40 bd
       -0.08124993 -0.1132589 -0.04173928 -0.046996105
000080 05 85 1d 3d 0a fa b8 bd 15 c2 12 3d f2 e1 c9 bd
       0.038456935 -0.09032066 0.035829622 -0.09857549
000090 30 46 28 3d 5a 77 cd bd 8c fa 1b 3d 36 b2 61 3c
       0.04108256 -0.1003253 0.038080737 0.013775399
0000a0 7e 06 b3 bd d4 e6 51 bd cf a8 42 bc 7f 65 3b 3c
       -0.08741473 -0.051245525 -0.011881067 0.011437773
0000b0 97 5d b6 bd f0 66 a2 bd cc d0 27 bd 71 73 7e 3c
       -0.089045696 -0.0792979 -0.04097061 0.015530453
0000c0 f8 60 1c 3d 08 32 0b bd c0 96 f9 3c c1 ab bb bd
       0.038178414 -0.03398326 0.030467391 -0.09163619
0000d0 c9 a1 57 bd 5d 9a 0f bd db 87 33 bd 14 6f d5 bd
       -0.052644525 -0.03505932 -0.043830734 -0.10421577
0000e0 e4 91 e0 bd fd 7c 20 bb ae 9d 33 3d 56 68 7b bb
       -0.109653264 -0.0024488561 0.043851547 -0.003836175
0000f0 5c a9 b2 bd a2 d8 32 3d a3 c4 3e bd 25 48 14 bd
       -0.08723709 0.04366363 -0.046574246 -0.036201615
000100 ee 19 66 bd 41 e0 88 bd 3c 36 93 3d 99 b0 21 be
       -0.056177072 -0.06683398 0.07188079 -0.15790023
000110 39 59 90 3d f1 81 6e bc cb 76 3c bd de e1 26 be
       0.07048268 -0.014557348 -0.046011727 -0.16297099
000120 64 48 9f bd b0 8f 24 bd d8 cc a2 bd 05 d3 4f bd
       -0.07777479 -0.040176094 -0.07949227 -0.050738353
000130 93 4f f4 bd 72 01 28 be 33 0d 4a 3d cf 55 f9 bd
       -0.1192924 -0.16406801 0.049328994 -0.1217457
000140 7a e2 4b 3c 48 2d bf bd eb 12 61 bd e9 d7 24 bb
       0.012444133 -0.093348086 -0.054949682 -0.0025153107
000150 3a 8b 03 bd 6c b0 1f 3d 1d fc 27 3d ad e4 d3 bc
       -0.0321152 0.03898661 0.04101192 -0.025865877
000160 dd 2d 22 bd 13 fe 35 bd 62 ae aa bd ea 46 c8 bb
       -0.03959452 -0.044431757 -0.08334042 -0.0061119692
000170 be b3 9e bd c2 ff a2 bd 9d 52 36 3d 13 0d 99 bc
       -0.07749127 -0.07958938 0.04451238 -0.018682992
000180 b5 b8 40 bc c5 e5 53 bd 07 57 08 3d 69 08 99 3d
       -0.011762788 -0.051732797 0.03328612 0.07472307
000190 85 81 70 3d 74 10 b8 3c 44 72 0b 3d 93 59 ac 3d
       0.05871727 0.022468783 0.03404452 0.084155224
0001a0 26 26 fe 3c 88 90 4e 3d 0d 28 bf bd c6 fb 97 3d
       0.03102405 0.050430804 -0.09333811 0.07421069
0001b0 e3 58 6f 3d 85 80 18 3d e2 22 02 3c 84 dc 7c bd
       0.05843438 0.03723194 0.007942887 -0.061733738
0001c0 52 27 59 bc 8f e9 8b bd 83 51 db 3c 27 c4 c5 bd
       -0.013254004 -0.06831657 0.026772266 -0.09656554
0001d0 f6 61 b7 3b 87 7e 86 bd 7e 0c 89 3c 35 50 05 be
       0.0055963947 -0.06567102 0.01672959 -0.13018878
0001e0 eb 74 2a be d3 d5 ee bc 08 f7 13 3c c1 a7 0b bc
       -0.16646163 -0.029154694 0.009031065 -0.008523882
0001f0 bc 1b 85 bd 8d 08 62 bc a4 73 a7 3d 17 dd be b9
       -0.064994305 -0.013795984 0.081763536 -0.0003640435
000200 59 0c fd bc e4 10 04 bd c4 d6 56 bd a4 92 81 bd
       -0.030889677 -0.03224267 -0.05245091 -0.063267976
000210 ad bb af bd b3 e0 0a 3c a8 89 c5 bd 62 77 0f be
       -0.08580718 0.008476424 -0.096453965 -0.14010385
000220 f7 74 72 bd cc 93 09 be 0f ad 02 be 4a 88 8b bd
       -0.059193578 -0.13435286 -0.12761329 -0.068131045
000230 fe bf 8c 3c 62 90 b2 bd b6 a6 7b 3d 70 94 fc bd
       0.017181393 -0.08718945 0.061438285 -0.12333
000240 52 15 ad 3c ec 57 a6 bd 3c 17 a8 bd 30 1a d0 bd
       0.02112833 -0.081222385 -0.082075566 -0.10161245
000250 62 ce dc 3c 23 b8 a7 bd a5 43 b9 bd 02 ce 40 3c
       0.02695388 -0.08189418 -0.09046105 0.011767866
000260 55 b0 c8 bd c2 89 c3 bd 8d 3c 0c bd 45 a6 4a be
       -0.09799258 -0.095477596 -0.034237433 -0.1978999
000270 92 dd c3 bd ef 84 bb bc 1d ed 20 bd 86 1e c7 3b
       -0.095637456 -0.022890536 -0.03928863 0.0060766367
000280 48 ba ea bd 7a 0f 8b 3d c5 6d 85 bb db e6 c8 bc
       -0.114613116 0.06790061 -0.0040719234 -0.024524143
000290 a8 fb 11 be 5d 98 f9 bc d9 f5 13 bd 44 26 ee bd
       -0.14256155 -0.03046816 -0.03612313 -0.11628392
0002a0 5d f8 8d bb 59 af 66 bd bc 91 63 bc 25 d6 ca bd
       -0.0043325857 -0.05631957 -0.013889726 -0.09904126
0002b0 2f a8 6f bd 6c 47 5a bd 84 19 82 3d 90 9d ab bd
       -0.05851 -0.05329077 0.06352523 -0.08379662
0002c0 a4 3a 09 be d8 64 d2 3c c3 05 df bd a0 5f e0 3c
       -0.13401276 0.025682852 -0.10889771 0.027389348
0002d0 08 1b a2 bd ac bf fe bd 18 7b bd bd 02 f9 63 bd
       -0.07915312 -0.12438902 -0.09251994 -0.055657394
0002e0 8b c5 c9 bd f1 c5 6e bd f9 d8 fe bd 1c 8c 3a 3d
       -0.098521315 -0.05829424 -0.12443728 0.045543775
0002f0 b8 f0 0a be ef ae 98 3c 3a 07 9b bd ce 85 d2 bd
       -0.1356839 0.018638102 -0.07569738 -0.102794275
000300 14 4d b1 bd 39 cd 4c bd 48 b2 9f bd 88 b2 79 bd
       -0.086572796 -0.050000403 -0.07797676 -0.060961276
000310 e7 bd d1 bd 4e 21 a6 3c b0 1e bb bd 90 31 31 be
       -0.10241299 0.020279553 -0.091367126 -0.17304063
000320 7a 26 c0 bb f4 1b a5 bd 55 7f f6 bd b8 c1 1e bd
       -0.0058639618 -0.08061972 -0.120360054 -0.038758963
000330 4a ad 6c bd 76 38 05 bd c6 45 5b bc 40 1f e0 bd
       -0.05778245 -0.03252455 -0.0133833345 -0.109434605
000340 89 01 b8 3c f9 99 23 bd 98 af 1e 3d 77 9a 88 bd
       0.02246167 -0.03994176 0.038741678 -0.06670087
000350 0f 2b 43 bd 05 aa c0 bd 95 ff e2 bb 28 d1 8a bd
       -0.047648486 -0.09407429 -0.0069274404 -0.06778175
000360 9c db 34 bd da 51 5b bc d6 69 9b bd b4 af c3 bd
       -0.04415475 -0.013386214 -0.07588546 -0.09554997
000370 ef 22 9e 3c b3 84 95 bd bf bc b9 3d 99 c4 c4 bd
       0.019303767 -0.07300701 0.090692036 -0.096078105
000380 ca 8f 9e bd 81 9b 94 bc 63 39 76 bd db 68 3f 3c
       -0.07742269 -0.018140556 -0.060113322 0.011682714
000390 7e 69 58 bd 22 88 30 bd c4 4c ec 3c 28 fe cd 3a
       -0.05283498 -0.043098576 0.028845198 0.0015716003
0003a0 ae 06 29 3c 93 9b 6c bc 03 d6 a3 bc a7 d0 58 bd
       0.010316534 -0.014441389 -0.01999951 -0.05293336
0003b0 27 9a a1 bd b4 11 c9 bd 1b 1e 1e be fd 98 f9 3c
       -0.0789073 -0.0981783 -0.15441172 0.030468458
0003c0 59 eb bf bd 4f c9 f5 bd 70 ec 9b bd 02 33 5e bd
       -0.09371061 -0.12001287 -0.07613456 -0.054247864
0003d0 ae 09 9c 3d 8f 2d 1e 3d c3 f8 a0 bd 19 85 94 bd
       0.07619034 0.038617667 -0.078599475 -0.07251949
0003e0 54 e1 40 be 72 8b 80 bd 0a 78 ea bc 6d 52 d7 bd
       -0.18835956 -0.06276597 -0.028621692 -0.10513768
0003f0 a5 35 ed bc da b4 03 bd ab 58 56 bc c3 7b fa 3c
       -0.028956244 -0.032154895 -0.0130826635 0.030576592

lstm.bias_hh_l0 f4 [512]
000000 02 fd cd bd 29 bc ce 3b 83 1c 0b 3d 85 4b b3 bd
       -0.10058023 0.0063090515 0.033962738 -0.087546386
000010 be bf 8e 3c 14 83 1e be d1 bc 29 be af 7a 19 be
       0.017425414 -0.1547969 -0.16575934 -0.14988206
000020 73 af c5 bc fc 02 ac bd ba 07 b1 3c 59 75 7a 3d
       -0.024131512 -0.08399007 0.02161013 0.061147068
000030 37 92 22 bd 6e 8d c0 3d cb 83 b9 ba 0f 53 67 ba
       -0.039690223 0.094019756 -0.0014153657 -0.00088243274
000040 d0 29 27 3d c1 44 89 bd de c3 1e be 4c a6 03 3c
       0.04081136 -0.06702567 -0.15504405 0.008035254
000050 9f 45 d5 bd d8 1b 02 3c 42 32 1a bd a2 da 36 bd
       -0.1041367 0.007941209 -0.037645586 -0.0446421
000060 1f 60 8d bd a7 28 fc bd 19 56 6f bc c0 a1 bf bd
       -0.06903099 -0.12312441 -0.01460793 -0.09357023
000070 3e d1 44 3c 9b 88 c2 bd d6 1d 2f be a4 c2 27 bc
       0.012012778 -0.09498712 -0.17101225 -0.010239277
000080 71 47 41 bd 03 3e 80 bd 8a 63 00 be ca 78 49 bd
       -0.047187272 -0.06261828 -0.12537971 -0.04918746
000090 6a 88 80 bd 69 13 23 bd 94 6e 14 3d 4d 49 72 3d
       -0.06276019 -0.039813433 0.036238268 0.059151936
0000a0 40 60 ed 3c ea 66 e2 bd 80 b3 da 3c a1 cb b9 bd
       0.02897656 -0.110547855 0.02669692 -0.09072042
0000b0 b9 be 9b bd ca 25 cd bd ef 9a c4 3d 1b e2 31 3c
       -0.07604737 -0.10016973 0.09599864 0.01085713
0000c0 25 fe ca 3c d2 50 6a 3d 97 5c 6f bb fc d1 f5 bd
       0.024779389 0.057205983 -0.0036523694 -0.12002942
0000d0 61 36 01 3d 52 1f 1c 3a 00 d0 1b be 37 fd 31 bd
       0.031546 0.0005955595 -0.15216064 -0.043454375
0000e0 c9 30 6f bc fe 12 19 bd 01 e1 18 bd ba 84 7f 3d
       -0.014599034 -0.037371628 -0.037323955 0.062382437
0000f0 40 1d 81 3d b1 2e 90 bd 8d 06 1c bc 67 b5 67 3d
       0.06304407 -0.07040156 -0.009523046 0.056569483
000100 67 35 72 3c ab f8 12 3d d5 09 c1 bd c5 d5 ae bd
       0.01478324 0.03588168 -0.094257034 -0.08536867
000110 18 79 1f bd b8 2e ed bd 45 bf 76 bd 9d 14 05 be
       -0.038933843 -0.115811765 -0.060241003 -0.12996145
000120 89 0f b3 3c e1 9d 84 bd 34 5e 0b bd 31 a7 19 bb
       0.021857994 -0.064754255 -0.034025386 -0.00234456
000130 a3 2f 12 3c bb 5b 78 bd 21 f5 fd bc 3d 9f cb bb
       0.00892249 -0.060634356 -0.031000676 -0.006214051
000140 cd 35 df bd ab 57 50 3c 18 98 a1 3d 5b 4b 08 3c
       -0.108989336 0.012716214 0.07890338 0.008318747
000150 4c ae eb bd da a4 fa bb 37 1f 7a bd 39 be 60 bd
       -0.11507854 -0.0076490464 -0.061064925 -0.05486891
000160 1d 32 d2 bd 3e 4d 55 3c 2a 9e ab bd 9a 1d a2 bd
       -0.102634646 0.013018904 -0.08379777 -0.07915802
000170 ad d5 4d bd b8 68 a3 bd 3e f4 cb bb 1d cc c6 bd
       -0.050252605 -0.07978958 -0.0062241843 -0.097069
000180 55 15 b6 bd ce 47 5d 3d c9 ed ed bb ad 85 b7 bc
       -0.088907875 0.054023556 -0.007261012 -0.022402609
000190 64 c5 36 3d 34 56 6b 3d 35 4c 77 bd 43 0b 96 3d
       0.04462184 0.057455257 -0.06037541 0.07326367
0001a0 ea 07 03 be 29 8a 0e 3d a6 93 04 be 68 92 5b bd
       -0.12795988 0.03479973 -0.12946948 -0.05360642
0001b0 2b 3d b7 bd aa 05 83 bd c5 6e 05 3a 6f cb 32 bd
       -0.08947214 -0.06397565 0.00050900533 -0.04365104
0001c0 cf ca 4c bc 73 6a c5 bd 8b 19 43 3d c7 bc f5 3a
       -0.012499525 -0.09639444 0.04763178 0.0018748277
0001d0 a6 18 cf 3d 4f 53 63 bd 85 15 03 bd cc 3b 86 3c
       0.10112123 -0.05549937 -0.032002944 0.016385935
0001e0 4e 10 df bd 66 0c 6e bd b1 8a 41 bd a5 8b ed bd
       -0.10891782 -0.058117293 -0.047251407 -0.11598901
0001f0 5a da 4f bd 1c 60 58 3d 2c e1 25 bd ec 46 99 bd
       -0.050745346 0.052826032 -0.040497944 -0.074842304
000200 ab e3 38 bd 07 53 3f ba 42 1d 5d bd 72 93 c5 3c
       -0.045138996 -0.0007298444 -0.05398298 0.024118159
000210 21 b2 72 bd d8 27 eb bd d9 9f 16 be fd 68 2c be
       -0.05925191 -0.11482209 -0.14709415 -0.16836925
000220 7f 03 95 bd ba 2e 20 be e8 10 95 bd a6 e1 a2 bd
       -0.072760575 -0.15642825 -0.07278615 -0.07953195
000230 d6 92 8d bc f7 a6 10 3c c8 ef 22 bd e1 aa fb bd
       -0.01728193 0.00882887 -0.039779454 -0.12288452
000240 d1 84 12 bd d1 71 4c bd 7c a5 0b be 1f 27 f1 3c
       -0.035771195 -0.04991323 -0.13637346 0.0294376
000250 fd 4c 13 bd 54 35 eb 3b 44 55 79 bd 83 03 6e 3d
       -0.035962094 0.007177988 -0.06087233 0.058108818
000260 61 61 45 3d d7 3e 35 bd 4a fb 5c 3d 13 36 bc bd
       0.04818857 -0.044249382 0.053950585 -0.09190001
000270 42 a4 96 bd 09 f4 64 bd f6 82 24 bd e9 ac 77 3d
       -0.073555484 -0.055896793 -0.040163957 0.060467634
000280 5d 0e 97 bb 3a 71 2d 3d 8f b7 03 be 4e c8 6c 3c
       -0.0046098665 0.04234431 -0.12862991 0.014452053
000290 c5 07 e6 3b cb 90 b2 bd 0f 70 2c 3d 74 6d 8b bd
       0.007019969 -0.08719023 0.042099055 -0.06807986
0002a0 71 6c 56 3c 5c 8c e0 3b 50 34 7a 3d 6a b8 d6 bd
       0.013087378 0.0068526696 0.061085045 -0.10484393
0002b0 6f 45 b4 bd 7b 79 d0 bd 17 b2 5d bd cc fb e2 bd
       -0.08802306 -0.101794206 -0.054124918 -0.11083183
0002c0 a0 18 90 bc 6d bd a2 bd 02 b8 88 bc 7f 67 2f bd
       -0.017589867 -0.07946286 -0.016689304 -0.04282331
0002d0 49 f8 dd bd 3b c1 c0 bc 18 7e d7 bd e2 a7 2b bd
       -0.10838372 -0.02352964 -0.10522097 -0.041908152
0002e0 7c 66 76 3c 72 f8 10 be 56 3b 03 bd af ae a6 bc
       0.015039083 -0.14157274 -0.03203901 -0.020346968
0002f0 0a 9e ed bd e5 4b cf 3c cb 1d 20 be b2 28 c7 bd
       -0.11602409 0.025304744 -0.15636365 -0.09724559
000300 34 0b fb bd 8f f2 6b bd d0 d2 a7 bd 5e c1 cd bd
       -0.12257996 -0.05760437 -0.08194506 -0.100466475
000310 04 8a bf bd 25 7f fd ba 52 e3 1a bd 08 bb 89 bd
       -0.09352496 -0.001934026 -0.037814446 -0.067251265
000320 80 22 12 bb 94 0a ea 3b f4 b2 5a bb af d3 81 bc
       -0.0022298396 0.0071423743 -0.0033370825 -0.015848009
000330 9c 22 63 bd ff 9e 24 be 14 78 b4 bd 47 a2 49 bd
       -0.055452928 -0.16076277 -0.088119656 -0.049227025
000340 29 22 d1 bd c5 57 4f 3c e7 55 c7 bd 8b 23 e4 bb
       -0.10211594 0.012655203 -0.097331814 -0.006962245
000350 93 2c 4b bd 8d c4 9c bd 79 87 36 3d 90 c5 62 bd
       -0.049603056 -0.076546766 0.04456279 -0.05536419
000360 e4 0c cb bd dd 97 d1 bd b3 37 d9 bb 13 df 88 bc
       -0.09914568 -0.10234044 -0.0066289543 -0.016707933
000370 f5 80 c0 3d 65 96 7b bd ce 77 08 3e 42 39 0c bc
       0.093995966 -0.061422724 0.13326952 -0.008558573
000380 cb d8 d7 bd 53 f4 5b 3c 15 ca 0e be ee 79 e2 bd
       -0.10539397 0.013424951 -0.13944276 -0.110584125
000390 c8 d7 41 bd 24 ea d3 bd 48 1e 30 3d c8 4a 51 bc
       -0.047324926 -0.10347393 0.04299763 -0.012774177
0003a0 9d c0 a6 3c 4d 13 b0 3c 3e 27 d7 bb bb 27 35 3d
       0.020355517 0.021493578 -0.0065659573 0.044227343
0003b0 ed 7c 81 3c 57 37 37 bc 15 c7 18 bd 5c c7 23 3d
       0.01580664 -0.011182628 -0.037299234 0.039985046
0003c0 86 c5 13 bd 85 45 8f bd 64 b1 b9 bd 3b 92 ba bd
       -0.036077045 -0.06995682 -0.09067038 -0.091099225
0003d0 58 56 b1 bc 1e ff 36 bc e6 00 75 bd dc f1 94 3c
       -0.021647617 -0.011169223 -0.05981531 0.018181734
0003e0 40 14 45 be 43 0a 01 be 5e 82 46 3d 0d c7 03 bd
       -0.19246006 -0.12601571 0.04846417 -0.03217225
0003f0 30 70 13 bc 2e 36 97 3d 17 13 f2 bd 1d 7e 04 bc
       -0.008998916 0.07383381 -0.11820047 -0.008086708

lstm.weight_ih_l1 f4 [512, 128]
000000 ee 57 86 bd 8f d9 80 3d 7d 5f 0d 3d 0f 2e 5b 3d
       -0.0655974 0.06291496 0.034514893 0.05351072
000010 d1 35 be bd db 26 cb bc bb 2b ca bb b4 6f c0 bd
       -0.092876084 -0.024798801 -0.006169764 -0.09396306
000020 63 4b c8 bc b5 96 c3 3c 14 cc af bd d2 f4 74 bd
       -0.02445001 0.023875574 -0.08583847 -0.05980379
000030 c2 0a 49 bd 43 13 9e bd df 91 93 3d 5f 03 2a bc
       -0.049082525 -0.07718518 0.07205557 -0.01037678
000040 bb 66 ed 3c c2 4a ea bc 9e 1b 61 3d 6d 88 56 bd
       0.02897965 -0.0286001 0.05495798 -0.0523762
000050 d5 13 a9 3d 0d d7 8f 3b 31 12 64 3d bc 79 51 3d
       0.08255736 0.0043896497 0.05568141 0.051141486
000060 81 79 5d bd d2 64 ac 3b 4e bd 97 bd 0a a1 35 3d
       -0.054070953 0.005261042 -0.07409154 0.044343032
000070 33 72 e9 bc da 9f 8f bc b9 aa 28 bd f5 23 7f 3b
       -0.028496837 -0.017532278 -0.04117844 0.0038931344
000080 0b 72 d1 3c d4 16 69 3d ee fc 05 3d 3c 07 e5 3c
       0.025567075 0.056906536 0.032711916 0.027957551
000090 4e c3 96 3d 70 83 26 3d eb 80 be bb 0a 8c 50 bc
       0.0736147 0.040652692 -0.005813708 -0.0127287
0000a0 18 c9 92 3d 6a 1c d6 bd 2d 02 89 bc 75 cd 8e 3d
       0.07167262 -0.10454638 -0.01672467 0.069727816
0000b0 ff da 97 3d fb bb e3 3d a5 c7 6d bc 56 05 46 bd
       0.07414817 0.11119839 -0.014512931 -0.048344932
0000c0 23 58 9f 3d d2 b4 56 3d 83 66 22 3d 1a 7a ed bd
       0.077804826 0.052418537 0.039648544 -0.11595555
0000d0 47 62 80 3c d0 ca d1 bd ca 48 c5 bd 4d f1 90 bc
       0.015671862 -0.102437615 -0.09633024 -0.017693186
0000e0 bc 6b b1 bd 20 ca 9c 3c 27 94 71 bd bb 61 e5 bc
       -0.08663127 0.01913935 -0.05897918 -0.028000703
0000f0 2a 71 f0 bd 90 ff d5 bc cd ad 50 3d 86 21 a5 3d
       -0.11740334 -0.026122838 0.050947 0.08063035
000100 49 0b 30 3d 19 1d 0d bd 3e 33 74 3c 88 6e 0d 3d
       0.042979512 -0.034451578 0.014904795 0.03452924
000110 f0 4f ab bd 27 79 82 3d 6c e8 ae 3d 56 67 4c 3d
       -0.08364856 0.06370764 0.08540425 0.049903236
000120 2c 22 16 bd c5 f0 ea 3b fd 81 cb bc dd f4 58 bc
       -0.036653683 0.0071698152 -0.024842257 -0.013241974
000130 98 b6 2a 3c 41 e0 9e bd f2 db a8 3d 31 63 8c bd
       0.01041951 -0.07757617 0.08245076 -0.06854857
000140 13 11 9e bc f8 d7 9a bd f1 9f 48 bc 0a eb 54 3c
       -0.019295251 -0.07560724 -0.012245164 0.012995491
000150 76 27 d4 bc 68 32 43 3d c8 8d e0 3b 03 ec 8c bd
       -0.025897723 0.047655493 0.006852839 -0.06880953
000160 22 a0 1e bd e4 25 14 bd 06 da 25 3d 90 cd 38 3d
       -0.038726933 -0.036168948 0.040491126 0.045117915
000170 e6 34 a1 bd 13 13 80 3d c5 73 ec bc f5 16 d5 bd
       -0.07871418 0.06253638 -0.028863797 -0.10404769
000180 69 cb 48 bd 07 6a e4 bc a4 a6 d5 bd a4 d6 a2 3d
       -0.049022112 -0.027882589 -0.10432175 0.07951096
000190 10 01 13 3d 53 26 aa 3c a7 f2 f7 3c f2 ad f8 bd
       0.035889685 0.020770228 0.030267073 -0.121425524
0001a0 03 37 ba 3d 81 3d 79 bd 7f 4c c5 3d 5a 02 29 3d
       0.09092524 -0.06084967 0.09633731 0.04126201
0001b0 3d 9e 9f bb 21 b4 7e 3d 16 e7 a5 3d 16 71 96 bd
       -0.0048711584 0.062183503 0.08100717 -0.07345788
0001c0 bf 19 4e 3d b4 28 c6 bd 6c f0 8d 3c e4 4f fe 3d
       0.050317522 -0.09675732 0.017326556 0.12417582
0001d0 b2 ff 4e 3d 15 09 d4 3d fb 7d 13 3d ee 80 46 3d
       0.05053682 0.10353295 0.036008816 0.0484628
0001e0 d1 3a 13 3d 79 6e ab 3d 7e 0e a3 bd 80 64 b9 3d
       0.035944764 0.0837068 -0.079617485 0.09052372
0001f0 e2 03 e0 3d 55 1a 5a bd 59 42 41 3d df 0d b8 bb
       0.109382406 -0.05324777 0.047182415 -0.005616888
000200 d4 e9 44 3d cd 38 11 3d 27 ca 4f bb 76 08 72 bc
       0.04807456 0.03545456 -0.0031706186 -0.014772525
000210 e5 e9 7f bd 75 f9 b7 bc a6 3c c0 ba 55 5c 3b bd
       -0.06247892 -0.022457818 -0.0014666512 -0.04574235
000220 6a 18 b1 bd cf 60 d5 bc 29 9c 2d 3c d4 30 ef 3b
       -0.08647235 -0.026047138 0.0105963135 0.007299522
000230 eb 3d 03 bd 3c b5 94 3d f3 49 49 3d 98 5b fa bd
       -0.03204147 0.0726113 0.04914279 -0.12224501
000240 5b 87 bc bd 19 0f 93 bc 2a 04 0c 3d b5 d3 34 bc
       -0.092055045 -0.017951535 0.03418366 -0.011036803
000250 f1 8c da 3c aa a1 55 3c 2b 60 cd 3c bb 7e 59 bd
       0.026678534 0.013039032 0.02507027 -0.053099375
000260 ae a2 24 bd 87 fb dd 3d 3f 5e 94 bc fb 3a b1 bd
       -0.040194206 0.10838991 -0.018111346 -0.08653828
000270 d5 cc 79 3d 7f e3 8c bc 47 1f d2 bd b9 c3 18 3d
       0.06098636 -0.017198322 -0.10259872 0.03729603
000280 68 df 7c 3b c6 c9 83 bd 04 90 1d 3d 36 3f 05 bd
       0.003858531 -0.064349696 0.038467422 -0.032530986
000290 e9 26 af 3c e8 cb 4f bd 94 70 ca 3c 5f 6e ff bc
       0.021380858 -0.05073157 0.024711885 -0.031180559
0002a0 70 f6 f8 bc 30 6a 73 3d 37 94 b7 bc 9f d8 86 3d
       -0.030390948 0.05942744 -0.022409542 0.06584286
0002b0 5d ca f3 3d 41 0c 06 bc 15 26 3a bd 51 67 cf 3d
       0.11903832 -0.0081816325 -0.045446474 0.10127128
0002c0 b6 8a b7 bd 25 e6 94 bc b6 22 fa bd a2 04 b6 bd
       -0.08962004 -0.018176148 -0.12213652 -0.088876024
0002d0 f3 de 60 bd 8a 14 f8 bd 00 e9 5b 3c e0 24 f3 3b
       -0.05490012 -0.121132925 0.013422251 0.0074201673
0002e0 cb d3 8a bc 8d 1d a5 bb ed eb 83 3d a6 ca 9c bb
       -0.016946694 -0.005038923 0.06441484 -0.0047848998
0002f0 14 59 e2 bc 3b af bc bc ec ff 8a bc d7 eb 43 bd
       -0.027630366 -0.023032775 -0.016967736 -0.047832336
000300 f4 c3 a2 3c bb a8 b7 3a d9 ff 4c 3d 41 ca 32 bc
       0.019868828 0.0014012078 0.050048683 -0.010912479
000310 9e 8d 8a bd 92 9a 0b 3d d0 1f a8 3d 53 b1 f6 3a
       -0.067652926 0.034082957 0.08209193 0.0018821157
000320 88 a7 23 bd 41 a2 5f bd 2f 56 b7 bd b9 c7 2f bc
       -0.039954692 -0.054598097 -0.08951985 -0.01072877
000330 e6 02 62 3d fe c1 9e bb af f9 7d 3d e1 22 d3 bb
       0.055178545 -0.004844903 0.062005695 -0.006443367
000340 1a 1c df bd 7e a6 cb bd 16 fe 15 3c 7a 47 84 3d
       -0.10894032 -0.09943865 0.009154817 0.064589456
000350 fb b4 cd bd 4b da d8 3c 79 aa a2 3d 9e 83 e6 bd
       -0.10044285 0.026471278 0.07942671 -0.11255573
000360 ae 95 84 bd 21 4c 08 be 25 30 3d 3d 0e 41 f9 bd
       -0.06473862 -0.13310291 0.046188492 -0.12170611
000370 57 51 18 3d b6 d3 6f bd 24 79 9e bd fb 18 49 3d
       0.037186947 -0.058551513 -0.077379495 0.04909609
000380 5c 9c 59 3c 79 dc df 3c 83 60 28 bd c5 f6 83 3c
       0.013281908 0.02732681 -0.041107666 0.01610888
000390 92 03 30 3d cc 61 f0 3c 4c 47 c8 3d 76 9b 44 bc
       0.042972155 0.029343508 0.09779224 -0.011999955
0003a0 3f be 69 3d ff 06 a9 3d fe f0 16 bb 1b e2 b1 3b
       0.0570662 0.082532875 -0.0023031826 0.005428565
0003b0 a7 bc 6b 3d 21 73 0d 3e 3b e1 74 bd 6b c7 6b bd
       0.05755296 0.1381345 -0.05978511 -0.057563227
0003c0 08 bb 49 bc 43 c4 3f bd 9a de be bd db eb 8e bc
       -0.012312658 -0.04681803 -0.09319802 -0.017446449
0003d0 5c 3f 11 3d 1d f8 a6 3d 80 fa d2 bd ae 47 9a 3d
       0.035460815 0.081527926 -0.10301685 0.07533203
0003e0 c6 b6 ba 3b 63 fc bd 3c 4a 07 09 bd dc 14 c7 bb
       0.005698058 0.023191636 -0.033454217 -0.0060754847
0003f0 64 71 a7 3c 5f 8c ef 3c 0e 0a 88 bc 72 5b c3 3d
       0.020439811 0.029241739 -0.016606357 0.09538926

lstm.weight_hh_l1 f4 [512, 128]
000000 6f 6a 9c 3b fa 40 96 3c 38 cd 0e be 07 fa 48 bd
       0.00477343 0.01834153 -0.13945472 -0.04906657
000010 7d 8e d2 3b 1a 08 cd 3d 35 33 d4 3c c0 9e 47 3c
       0.0064256773 0.10011311 0.025903324 0.012183845
000020 95 3e c7 3d e1 97 13 bd 23 65 a6 3d 7b a0 4b 3d
       0.097287335 -0.036033515 0.08124759 0.049713593
000030 b0 37 75 bc 63 86 96 3d 95 fa c9 3d d9 99 6b 3b
       -0.01496689 0.07349851 0.09862248 0.0035949855
000040 2f 0a 0c be 43 11 98 bc da 35 03 3e 17 d5 2d 3d
       -0.1367576 -0.018562919 0.12813511 0.042439546
000050 22 4f b4 bd cc f0 d0 bd 00 03 d6 bd 02 fc da bb
       -0.08804156 -0.10202178 -0.10449791 -0.0066828737
000060 d2 88 80 bd 93 ae ac bb 1e d1 b6 bc cc b9 52 bc
       -0.062760964 -0.0052698343 -0.022316512 -0.01286168
000070 1a b6 95 3c 43 4e 17 bd 4c 6a 67 3d ab f1 07 be
       0.01827531 -0.03693987 0.056497857 -0.13275783
000080 7e 77 b5 bd f5 fe 71 3c e2 4b 06 3e 6c ad 8e 3c
       -0.08860682 0.014770259 0.13114884 0.017416678
000090 c3 45 08 3c f7 17 b5 3d a0 d1 cb bc ce 42 f5 3d
       0.008317414 0.088424616 -0.02488023 0.119756326
0000a0 1e 56 b7 bd 81 5a 1a 3d 9a c6 4d 3c 1f 79 00 be
       -0.089519724 0.037683968 0.012559557 -0.12546204
0000b0 16 9b 03 3b e1 9a c8 bc bc ef f1 bc 3a cf 2a bd
       0.0020081452 -0.024487915 -0.02953326 -0.041701533
0000c0 75 27 8b bd fd d9 8a 3d 2e 25 f7 3d c7 c3 b7 bc
       -0.06794635 0.06779859 0.12067638 -0.022432221
0000d0 e3 c2 e5 ba c1 81 c2 b9 7d 84 1a bd d9 7f e8 bc
       -0.0017529394 -0.00037099238 -0.037724007 -0.028381275
0000e0 ad d5 07 3e 44 b2 76 bd 5a c0 50 3d e7 48 f1 bd
       0.13265105 -0.0602286 0.05096469 -0.11781483
0000f0 b8 d2 a3 3d a1 20 1a 3d c9 ce 3c bd e1 f6 c0 3d
       0.07999176 0.037628774 -0.046095643 0.094220884
000100 5f 01 c3 3c 8f 3c b6 3c e3 7f b6 bd 27 b9 5a 3d
       0.023804365 0.022245673 -0.08911111 0.05339923
000110 c3 c1 1c bd c8 84 76 3d 8e 44 97 3d c2 43 89 3c
       -0.038270723 0.060185224 0.07386123 0.016755942
000120 2d 03 9b 3d bf 74 9d bd 52 13 c6 bd a7 09 67 bd
       0.07568965 -0.07688283 -0.09671654 -0.05640569
000130 da 97 41 bd a9 c9 af ba 60 b5 3e bc a2 70 37 bd
       -0.047263958 -0.001341154 -0.011639923 -0.04478515
000140 1e 4e 95 3c 32 bb 64 bd 1d 15 ae 3d 61 b4 18 bc
       0.018225726 -0.055842586 0.08500121 -0.009320349
000150 c8 d5 51 3d 7c 46 2d bd 1e 35 a3 3c c9 a8 3a bd
       0.05122927 -0.042303547 0.01992279 -0.045571122
000160 04 fe 91 3d 83 42 dd 3c 28 b0 26 bd 63 c5 0c bd
       0.07128528 0.027009254 -0.04069534 -0.03436793
000170 81 45 12 bd 5b 5a a4 3d 9c 58 42 3d f5 39 6e bd
       -0.035710815 0.080250464 0.047447786 -0.05816074
000180 21 6d f6 3d 3b 2f 42 bd 0b f1 81 3d 56 29 f3 bc
       0.120325334 -0.047408324 0.063448034 -0.029682796
000190 20 83 c6 bd 3f 2e 6c bd a8 f2 6c 3d bb 4a 4c 3d
       -0.09692979 -0.05766129 0.057848603 0.049875956
0001a0 8e a8 92 bc a7 b4 ac 3d 14 b0 bd bd 81 31 08 bb
       -0.017902639 0.08432894 -0.092621 -0.002078146
0001b0 c2 a8 f3 bd 16 b5 b4 bd e0 90 48 3d 3d e9 ad bd
       -0.118974224 -0.08823602 0.04896629 -0.08491752
0001c0 ad ec 98 bd 8a a1 cc 3d 31 ff 3a 3d 24 35 92 3d
       -0.07467017 0.09991749 0.045653526 0.07139042
0001d0 8b 46 0a bd f8 da 8c 3b 22 04 5b 3d 14 e0 81 3c
       -0.03375868 0.004298564 0.05347074 0.01585392
0001e0 a7 1d 5c bd b7 dc 05 3d d9 b3 65 bb da b1 46 3d
       -0.053739216 0.032681193 -0.0035049825 0.048509456
0001f0 cd 28 e9 3b 35 9c 2e 3c 4d 8b e8 bd 92 e4 92 bd
       0.0071154595 0.01065736 -0.113546945 -0.071725026
000200 93 cb a8 bc 7d 3f 9a 3d 1d 4a a4 bc 6c fc 50 bd
       -0.020604884 0.07531641 -0.020054871 -0.05102198
000210 20 c5 85 bd 08 36 87 bd 3e 78 87 bd 11 54 4e bb
       -0.06531739 -0.066021025 -0.06614731 -0.0031483213
000220 c9 93 58 3d 0c b2 d5 3d 19 6a ea 3d 84 de 7f 3d
       0.052875314 0.1043435 0.11446018 0.062468067
000230 d2 75 97 ba e0 ea cf 3c 33 4e 92 3d 4f c9 0c 3d
       -0.0011555499 0.025380552 0.071438216 0.03437167
000240 bb 17 92 3a aa 6b 8d bd 65 65 3c 3c 21 13 ec 3c
       0.0011145988 -0.06905301 0.011498784 0.028817715
000250 e5 aa 3e 3d 7c 99 d6 bd ee a0 26 bd e0 26 93 bd
       0.046549696 -0.104784936 -0.04068082 -0.07185149
000260 0a 55 1d 3c 4a a9 c9 3c 4a 98 0f 3d e2 ee a4 3c
       0.009602794 0.024616856 0.035057344 0.02013344
000270 84 fa 86 3d b8 ce ff 3d 04 99 e4 3d 92 a7 13 3d
       0.06590751 0.124906 0.11161998 0.03604848
000280 12 8b fa bd 56 bd 7f bd 4f 92 ff 3d 43 6a 10 bc
       -0.12233557 -0.062436424 0.12479078 -0.008814397
000290 e3 17 30 3d 11 4c ff 3c 7b 0a e9 3d 30 14 a8 3d
       0.04299153 0.031164201 0.11378952 0.082069755
0002a0 5d b3 b1 bc db fd 3f 3d 0b 2d c2 bd e9 cd fe bd
       -0.021691972 0.046872955 -0.094812475 -0.12441618
0002b0 45 4d a8 3c 82 a9 ac bd 84 db 4e bd 86 99 84 3d
       0.020544657 -0.084307685 -0.050502315 0.06474595
0002c0 9f 1c 01 bd 5c 01 ff 3c 46 99 29 bd e2 88 a0 bc
       -0.031521436 0.031128578 -0.04140594 -0.01959652
0002d0 fa ae 80 bc e3 97 ae 3c c3 94 e3 bc 35 2d ea bc
       -0.015708435 0.02131266 -0.027780896 -0.02858601
0002e0 a8 d0 9d 3d a8 24 7c 3c 97 02 28 3d 6e ca fe bd
       0.07705814 0.015389599 0.041018095 -0.12440954
0002f0 71 79 e3 3b 36 0e 00 bd 0b 35 6f bc 54 0e 78 3b
       0.006941967 -0.031263553 -0.014600049 0.0037850337
000300 55 8b 77 3b 71 dc ee bc 4d 4f c5 bd d9 04 7c 3d
       0.0037772257 -0.029157849 -0.09634266 0.06152806
000310 80 31 16 bd 5b 5d 81 3d de f6 f7 3d c7 dd 8f 3c
       -0.0366683 0.06316634 0.12107633 0.017561806
000320 03 76 9a 3d 45 0c 35 3d df 87 ac 3d 47 05 d9 bd
       0.0754204 0.044201154 0.08424353 -0.1059671
000330 19 a5 6a bd 75 77 16 bd e7 be ef bd 10 9e 2a 3d
       -0.057286356 -0.036735017 -0.117063336 0.041654646
000340 d4 f6 95 bc db 18 05 be 5f 92 66 bc 69 eb d4 3d
       -0.018306173 -0.12997763 -0.0140729835 0.103964634
000350 6b 8b 2d 3d 5b 07 c3 bc 8d 72 09 3d 04 7e 5c 3c
       0.042369287 -0.023807218 0.03355651 0.013457779
000360 fb bb d5 3c 8f 1d af 3d aa 91 d7 3d 95 56 fd bd
       0.026090613 0.0855056 0.1052583 -0.1237003
000370 bc 5a 1e bc 55 47 9b 3c ef a8 81 3d 0d d3 cc bd
       -0.009665187 0.018954912 0.0633105 -0.10001192
000380 7f d8 c5 3d 0f 8f 19 bd ba 94 69 3d aa 22 02 bd
       0.09660434 -0.037489947 0.057026602 -0.03177134
000390 89 c4 46 3d 99 c4 15 bd c1 ce 7d 3c ac 25 13 3d
       0.048527274 -0.036564443 0.0154911885 0.0359246
0003a0 ad f6 9d 3d 8d 9a 3b 3d 1b 8f c9 bd 63 25 af bc
       0.07713065 0.045801688 -0.09841748 -0.021380132
0003b0 99 5a a4 bd 71 be d0 3c 5c 88 63 bd b5 00 97 3c
       -0.08025093 0.025481435 -0.055549964 0.018432954
0003c0 92 ee 6e 3b d5 3d 25 3d 79 0c cc 3d fa 3a f5 3d
       0.0036458117 0.04034217 0.099633165 0.119741395
0003d0 08 d6 a0 3d b9 55 7b 3d 2c 95 0a bd 3c 04 eb bc
       0.07853323 0.06136105 -0.033833668 -0.028688543
0003e0 57 c7 bb bd 3a bf c0 bd 1f 1c 7b bd f2 66 5c 3c
       -0.091688804 -0.094114736 -0.061306115 0.013452278
0003f0 c5 41 b4 3c 43 a9 e3 3c 00 77 7e bc a3 e8 9d bd
       0.022004018 0.027790671 -0.0155313015 -0.077103876

lstm.bias_ih_l1 f4 [512]
000000 1a cf 39 ba aa 1b 0a be 09 aa 91 bc 83 4d 25 be
       -0.00070880505 -0.13487116 -0.017781274 -0.1614285
000010 79 5c 26 3d 1b 9d 7d bd b6 bb 81 3d 55 6e 75 3d
       0.040615533 -0.061917406 0.06334631 0.059919674
000020 b3 62 e5 3d c6 72 9c 3d 40 d0 8f bd 15 7d af bd
       0.11200466 0.07639079 -0.070221424 -0.085687794
000030 96 34 af 3c d7 58 13 bb 80 55 01 be f6 96 97 3d
       0.02138738 -0.0022483373 -0.12630272 0.074018404
000040 20 41 ec 3d 9a 78 84 bd 4d d7 11 3d 0e 73 d3 bd
       0.11535859 -0.064683154 0.035605717 -0.10324679
000050 98 88 51 bd e2 69 00 bc 7b 8e c4 3d 9d a0 18 be
       -0.051155657 -0.007837744 0.095974885 -0.14905019
000060 fd 31 9f bd 7b bc 15 bd eb c5 7c bd 12 f7 ad 3d
       -0.077732064 -0.036556702 -0.061712187 0.084943905
000070 98 ef de 3d 31 93 c0 bd 9b 9d 1c be 2c 8b 53 3b
       0.10885543 -0.094030745 -0.15294497 0.0032278998
000080 d6 21 13 be 46 16 96 bd 85 c2 9b 3d 0b 25 75 3d
       -0.14368376 -0.07328467 0.07605461 0.05984978
000090 23 8d e0 bd d8 5e 7a 3d 8b 69 52 3c 48 33 c2 bd
       -0.1096442 0.061125606 0.012842546 -0.09482437
0000a0 9c f2 79 3d a3 be a7 bd bd 51 47 be 7b 8b 21 3d
       0.061022386 -0.08190658 -0.19464774 0.03943966
0000b0 1b 2d 98 3d d3 4b 9c bd d6 8c 05 3d 70 39 b9 3d
       0.07430478 -0.0763165 0.032605015 0.090441585
0000c0 91 c6 ab 3d f0 e2 5a bd 0e ba 14 3d 29 df 4e be
       0.08387483 -0.05343908 0.036310248 -0.20202316
0000d0 89 87 47 3d 38 27 ec bd a2 67 69 bd 3b f0 b3 bd
       0.04871324 -0.11530918 -0.056983598 -0.08786055
0000e0 2f fc 0f bd c7 79 38 bd 7e e9 2f bc 40 ff 69 ba
       -0.03515261 -0.04503801 -0.010736821 -0.000892628
0000f0 6e e2 d3 bd da 70 1d 3d 3c e3 26 bd 96 99 6a bd
       -0.103459224 0.0384377 -0.04074405 -0.057275377
000100 8c 91 c2 bd af 4d cb bb 42 bf 32 bd 7a ec 24 bd
       -0.09500417 -0.006204329 -0.04363943 -0.040264584
000110 f1 52 48 3d 21 30 8d bd 79 30 17 3d a1 c7 fa bb
       0.048907224 -0.068939455 0.03691146 -0.007653192
000120 ab 46 95 bd 6b 04 de 3b ee 78 fb 3c 5f 57 e0 bd
       -0.072888695 0.006775429 0.030697312 -0.10954165
000130 08 57 20 be a1 6d 9d 3c 42 5a 93 3d 54 ca c5 bc
       -0.156582 0.019217314 0.0719495 -0.02414433
000140 c6 83 e8 bd ae fb 06 3d 01 f9 87 3d 8d 9f 8d 3d
       -0.11353259 0.032954864 0.066392906 0.069151975
000150 0e 85 30 3c a3 06 01 be 52 1b af 3d f3 ed 43 3c
       0.01077391 -0.12600188 0.08550133 0.011958587
000160 28 64 01 be 76 70 87 bd 81 cf dc 3d be 1c f1 3c
       -0.12635863 -0.06613247 0.10781766 0.02943265
000170 31 64 0b bd 03 52 2f bd 4a e8 94 bd c4 46 6b bd
       -0.034031097 -0.04280282 -0.07270868 -0.057440534
000180 78 76 49 3c ba 6b 18 3d 4e fa 50 3c 3b 9d b6 bd
       0.012296312 0.03721211 0.01275499 -0.08916708
000190 b0 db 47 3d 8f ce 7c bd 07 a9 10 be 99 8a b4 bd
       0.048793495 -0.061720427 -0.14126979 -0.08815498
0001a0 c7 43 13 3d 1e 90 39 bd 1d 53 4d bc cc ed 5e bd
       0.03595331 -0.045303456 -0.012532023 -0.054426
0001b0 a6 58 1c be e3 74 56 3d b5 4b 06 be e9 ac 01 be
       -0.15268192 0.052357566 -0.13114817 -0.12663616
0001c0 1e 75 9a 3c b6 28 c5 bc 9a a7 71 bd 79 c1 c1 3c
       0.018854674 -0.024067264 -0.058997728 0.023651825
0001d0 4d f8 c8 bd 23 56 de bd 6e ce 23 bd 0a 92 04 3d
       -0.098129846 -0.10856273 -0.03999179 0.032365836
0001e0 d7 06 38 bd cc 6c 1e be fb 37 08 be e2 d1 bd bd
       -0.044928398 -0.1547119 -0.13302605 -0.092685476
0001f0 c9 23 d0 bd c2 8f 5c bd 2f c3 9a bd 4a d4 94 bd
       -0.101630755 -0.053848036 -0.075567596 -0.072670534
000200 19 42 f9 bc cd 98 03 be f3 6b 0b bd 93 54 b3 bd
       -0.030427026 -0.12851258 -0.034038495 -0.087563656
000210 22 3a a7 bc 4f 04 95 bd cd df 45 bd 70 16 66 bd
       -0.020413462 -0.072762124 -0.048309136 -0.05617374
000220 00 1c 69 3d 7c ed 94 bc 2d 01 43 bd 47 13 4b bd
       0.05691147 -0.018179648 -0.047608543 -0.04957893
000230 71 c2 e0 3c b2 c0 1e be 3f c3 a3 3c 49 65 87 3c
       0.027436467 -0.15503195 0.019990562 0.016527789
000240 d2 ff 15 3d 60 6e 28 be 79 2f 91 3c 5d a5 73 3d
       0.036620922 -0.16448355 0.017722832 0.059483875
000250 0d a2 8d 3d 18 8e 69 bd d6 b7 59 bd f8 6b ae bc
       0.06915674 -0.057020277 -0.053153835 -0.021291718
000260 32 b1 ea bd 08 4e b9 bc 49 b8 65 bd aa 93 9f bc
       -0.114595786 -0.022620216 -0.05608395 -0.019479591
000270 67 0f 33 3d cb f1 09 be d4 a5 0a be 78 97 aa bc
       0.04371586 -0.13471143 -0.13539821 -0.020824179
000280 e9 28 8e 3c b6 8d c1 bd bc 95 36 bd b9 08 92 bd
       0.017353492 -0.09450857 -0.04457639 -0.0713057
000290 fa 02 3c be bf a3 03 bd b3 a5 7c 3d a5 c5 e4 bb
       -0.1836051 -0.032138582 0.06168146 -0.006981569
0002a0 46 b5 ae 3c 15 72 ff bc 96 a1 a3 bc 8d 79 e5 bc
       0.021326672 -0.031182328 -0.019974511 -0.028012061
0002b0 d4 4c d8 bd 3e 58 4a bd 4c b2 8c bd 11 b6 29 3d
       -0.10561529 -0.04940056 -0.06869945 0.041433398
0002c0 07 6b 4c 3d 81 f0 23 be 63 53 56 bc c3 cd e4 bd
       0.049906757 -0.16009714 -0.013081404 -0.111720584
0002d0 a4 37 10 3b cf f9 86 bd 6b 09 5d 3d c2 9d 19 be
       0.002200582 -0.06590616 0.05396406 -0.15001586
0002e0 dc a6 a7 bd 9d fc ab bc 65 93 a4 bd ab 06 9b 3d
       -0.08186123 -0.020994479 -0.08035926 0.07569631
0002f0 70 38 60 be 72 83 6e bd 63 71 4d bd 31 7a 91 bd
       -0.21896529 -0.058230825 -0.050156962 -0.07103384
000300 91 e5 03 be f6 b9 8b 3d ef f5 16 3d 5f 8d 90 bd
       -0.12880541 0.068225786 0.036855634 -0.070582144
000310 b6 34 8e bd 31 af b0 bc fd 26 2a bd 36 6b 7d 3d
       -0.069436476 -0.021567913 -0.04154109 0.061869822
000320 6c b8 ac 3c 55 d7 81 3d c4 33 e1 bd 17 3b c7 bd
       0.021084033 0.063398995 -0.10996202 -0.09728067
000330 f7 aa d1 bd 85 a2 4f bc 67 18 b5 bd f3 2e 0c bd
       -0.10237687 -0.012673025 -0.08842545 -0.03422446
000340 e0 70 cf bc 86 1a 86 bd 93 29 54 bd 81 2e 7b 3d
       -0.025322378 -0.06548028 -0.05179746 0.061323646
000350 57 ef 93 bc 6a 47 d5 bd 24 85 48 3d c0 5c 32 bd
       -0.018058462 -0.10414012 0.048955098 -0.043545485
000360 0e b5 13 be 08 73 10 be 22 a7 52 3d 40 d0 1e bc
       -0.14424536 -0.14106381 0.05142892 -0.009693205
000370 7a 53 97 bd 8f 54 e2 bd f6 36 18 be fe c8 d6 3b
       -0.07388969 -0.110512845 -0.14864716 0.006554722
000380 5c e3 31 3d a2 6e 96 bd aa f0 2f bd c1 0d 61 bd
       0.043429717 -0.0734532 -0.042954125 -0.054944757
000390 06 2c 88 bc 81 45 31 bc 44 71 ce bd 1f cd f1 bd
       -0.016622555 -0.010819794 -0.100801975 -0.11806702
0003a0 63 3d 5c 3c 7a 31 7f bd c5 8d b7 bd 0a 3f cc 3b
       0.01344237 -0.062303044 -0.08962587 0.006233101
0003b0 90 bb 02 3c b3 3e a4 3a 6c 22 05 3d 66 3d 69 bd
       0.007979289 0.0012530893 0.03250353 -0.05694332
0003c0 ef c0 d7 bd 2f 51 cf bd e7 44 34 3d c0 19 d6 bd
       -0.10534846 -0.101229064 0.044011023 -0.1045413
0003d0 05 02 d6 3b b2 1e a5 bc 70 69 04 be 65 eb d8 bd
       0.0065310025 -0.020156238 -0.12930846 -0.10591773
0003e0 47 c4 ab bc 03 04 19 3d 5b c7 03 be b3 e6 61 bc
       -0.020967616 0.03735734 -0.12869017 -0.013787913
0003f0 a8 f3 cc bd cf 67 87 3d 0f 1e af bd 97 db a3 bd
       -0.10007411 0.06611597 -0.08550655 -0.08000868
