model/finetuned_model_PermeateFlow.pth (torch, 921345 bytes, 14 tensors)

lstm.weight_ih_l0 f4 [512, 10]
000000 ea d5 63 3d 81 16 0a 3e 86 1e f5 3d 47 de 6c bb
       0.055623926 0.13485147 0.119687125 -0.003614323
000010 21 c9 f5 3d d9 a0 b0 3d de 27 9c bd e7 41 65 bb
       0.12001253 0.08624429 -0.076247916 -0.0034981908
000020 42 a8 37 3b 4a 24 08 3e 4d 71 05 3e 2f 52 ee 3c
       0.0028023873 0.13295093 0.13031502 0.029091923
000030 a7 74 28 ba 4a 9b 03 3c 43 bd 13 bc 83 4b e1 3b
       -0.0006426074 0.008032629 -0.0090172915 0.006875457
000040 fd 35 58 3d ef 7f 96 3d 1b 28 30 bb 7b f5 12 bb
       0.052785862 0.0734862 -0.0026879373 -0.002242415
000050 1c db d9 3d 3d da f5 bc 42 fa 1d 3e aa 36 83 3c
       0.10637495 -0.03001129 0.15427497 0.016017277
000060 0a 53 0e 3e 76 83 4a bd 55 52 c0 bd 1b 07 07 bd
       0.13898864 -0.049441777 -0.093907036 -0.03296576
000070 14 91 4b 3d 27 dd ab 3d 9d 49 3c 3d c3 b0 d8 bd
       0.049698904 0.08391791 0.04596864 -0.105805896
000080 b1 10 07 bd c3 6d 94 bd d4 47 d7 bc b4 8b 8c bd
       -0.032974903 -0.07247498 -0.026279368 -0.06862584
000090 04 40 b4 3d 30 8f 2d 3d 9e 6c 64 be 0a 0d ab bc
       0.088012725 0.042372882 -0.22307059 -0.020880241
0000a0 e1 f7 8e bd bc ff 8f bc b8 75 b8 bd e0 dc 75 3d
       -0.06980873 -0.017577998 -0.09006828 0.060025096
0000b0 1a 69 a3 3d 8e 3f 99 bd 71 3a 18 3d 89 c5 6e bd
       0.07979031 -0.07482825 0.03716511 -0.058293853
0000c0 ff 55 60 bd c1 61 35 3d 8d 4a ac bd 0c bd 0c be
       -0.054769512 0.04428268 -0.08412657 -0.1374399
0000d0 82 49 86 bd 9d e3 4c 3d 93 95 56 3d 10 7e 82 3b
       -0.06556989 0.050021756 0.05238874 0.003982313
0000e0 39 c8 89 3c ba a3 15 bd 4d 01 b1 bd 12 ae b9 3d
       0.016819106 -0.036533095 -0.08642826 0.090664044
0000f0 29 6b 6f 3d ae be 06 3d 30 b6 8f 3c 3b be a0 3d
       0.058451805 0.03289669 0.017542928 0.078487836
000100 fb e5 e3 3b d2 f6 63 bc 00 5c 00 3e c5 39 97 3d
       0.006954906 -0.013913827 0.12535095 0.073840655
000110 12 aa 1f be 3e 44 1b be fc 19 49 3e e7 91 a9 bd
       -0.1559222 -0.15162751 0.19638819 -0.08279782
000120 03 90 79 bd b2 82 29 bc 60 f7 f0 3c 81 dd 6f bd
       -0.060928356 -0.010346102 0.029414833 -0.058560852
000130 0c 0a 2a bd 87 f1 82 3d 72 0f dc bd 68 0f 24 3d
       -0.041513488 0.06393724 -0.107451335 0.040053755
000140 10 01 ec bc 9e e5 9e 3d fc 2f 64 3d 00 71 fc 3c
       -0.0288091 0.0775864 0.055709824 0.030815601
000150 e6 6e d3 3d 44 fc d9 3d 7f e7 4b bd a2 4a bd 3d
       0.103238866 0.10643819 -0.04978132 0.09242751
000160 6a 87 3a 3d 74 1c 1d bd 0a b9 5a bd 0b 81 93 bd
       0.045539297 -0.038357213 -0.053399123 -0.07202347
000170 8f c3 f0 3c f8 5e ba bd 2f 28 c2 bc ad 4c 15 3c
       0.029390125 -0.09100145 -0.023700802 0.009112519
000180 8f 56 03 3c ef 7b 8e 3d 43 2c c4 bc db 76 54 bc
       0.008016243 0.06957232 -0.023946887 -0.0129677905
000190 19 66 37 bd 2a 53 d0 bd e2 3b ff bc 09 5c 2d 3d
       -0.044775102 -0.10172112 -0.031156484 0.0423241
0001a0 8e b5 ab bd 30 d9 a5 bd 21 9d 01 3d 87 07 07 bc
       -0.08384238 -0.08098066 0.03164399 -0.008241541
0001b0 ad 23 9c 3d 20 51 1b bd 9f 13 98 3d af ca 30 bd
       0.07623992 -0.037919164 0.074256174 -0.043162044
0001c0 28 93 32 3c 61 ec c0 3c 75 55 48 bd 34 14 93 bc
       0.010899343 0.023550214 -0.048909623 -0.01795397
0001d0 de 79 83 3d c2 04 6c 3d 36 5e d8 3d 14 40 62 bc
       0.06419729 0.057621725 0.10564844 -0.013809223
0001e0 63 b6 b2 3d 22 3c fa bc d9 15 53 bd 16 c8 b4 bc
       0.08726194 -0.030546252 -0.051534507 -0.022068065
0001f0 1b bb 64 3c 44 04 a6 bc c4 a1 b9 bd c3 ed f9 3d
       0.013960625 -0.020265706 -0.090640575 0.122035526
000200 f5 23 bc bd 36 cb e8 3c ad 31 be 3d b5 0d 2f bd
       -0.09186546 0.028417211 0.09286819 -0.04273768
000210 a2 0b c2 bd 63 f4 b3 bd a5 5b 6d bd b0 74 75 3b
       -0.09474875 -0.087868474 -0.057948727 0.0037453584
000220 77 e9 74 3c 1f a9 86 bd 23 61 6e be 24 3a dc 3c
       0.0149482405 -0.06575226 -0.23279242 0.026883192
000230 a2 fc c2 bb a3 24 f2 3d ee 41 30 bd 68 37 96 3c
       -0.0059505263 0.11823394 -0.043031625 0.018336967
000240 9c db 31 3d 3e 3d 11 3e 49 ad 3f 3e 97 45 80 3d
       0.043422326 0.14183518 0.18718447 0.06263273
000250 b7 8e 3e 3d f0 f6 62 3d b7 aa 8d 3d a7 1d 8c bd
       0.046522822 0.05541128 0.06917327 -0.06841593
000260 59 03 c9 bd 3b 7a 9a bc ef 08 6e bd cd 2f bd bd
       -0.09815092 -0.018857112 -0.05811399 -0.09237633
000270 a3 d1 81 3d a2 e9 b5 3d 0e 29 37 be 51 b8 34 3d
       0.06338813 0.088824525 -0.17886755 0.04412109
000280 1f a2 90 3d 6a f1 cc bd a1 d1 18 bd c2 7b 84 bd
       0.07062172 -0.100069836 -0.037309293 -0.064689174
000290 b6 15 83 3d 1b 36 88 3d c2 79 8c bd b8 99 eb 3c
       0.064006254 0.06650945 -0.06859161 0.028759822
0002a0 ab 83 c2 bd ce 9e 64 bc e8 e6 28 ba b0 f8 0c 3e
       -0.0949777 -0.013953878 -0.0006443099 0.13766742
0002b0 ed 58 87 3c e8 18 07 3e 44 99 9f 3d ca fa ce 3d
       0.016521895 0.13193095 0.07792905 0.10106428
0002c0 4a 66 9e bd 97 82 93 bd b8 0d f8 3c 76 96 f9 bd
       -0.07734354 -0.072026424 0.03027998 -0.12186901
0002d0 a0 91 00 3e 0b 70 7a 3d 4c 96 d0 3d 04 a1 1a 3c
       0.12555552 0.06114201 0.10184917 0.009437803
0002e0 6a bc a4 3d 8e 2e 9e 3c 5f fe 29 3c 8d 84 6f bd
       0.0804375 0.019309308 0.010375588 -0.05847602
0002f0 30 eb 10 bd e4 42 75 3d 97 b7 dc 3d 7d 36 87 bd
       -0.035380542 0.059878245 0.107772045 -0.0660219
000300 ae a8 83 bc 29 bb d9 3d 71 fb e0 bd f0 f9 a7 bd
       -0.016071644 0.10631401 -0.10985459 -0.08201969
000310 fe 6e 18 3d 98 c1 ac 3d d8 76 9d bd 14 af 33 3d
       0.037215225 0.084353626 -0.07688683 0.04386814
000320 5a ff 42 3d 0d 56 f7 bc 65 d8 f2 bc b5 bb 9a bd
       0.047606803 -0.0301924 -0.0296442 -0.075553335
000330 86 c0 16 3e d7 c8 43 3d 87 9f e4 bd b5 13 b9 bd
       0.1472188 0.047798958 -0.1116324 -0.09036962
000340 49 ca 41 be 0f 16 41 bd e2 bc 1f 3e dc f1 9f bd
       -0.18924822 -0.047140177 0.15599397 -0.07809803
000350 ce 41 0c be cd ac ec bd 44 b0 97 3b f8 7e 93 3d
       -0.13696977 -0.11556397 0.004629167 0.07201952
000360 0b 8a 5d bd 55 51 50 3d cb 27 a5 bc fc 2d 7e 3d
       -0.054086726 0.050858814 -0.020160576 0.062055573
000370 3f ed f6 3d c6 f6 59 3d 40 f4 be 3d a8 ac b9 3d
       0.1205697 0.053213857 0.09323931 0.09066135
000380 13 a2 63 bd b4 e5 8f 3d 2d cf 3a 3d 0a e4 75 bc
       -0.055574488 0.07026234 0.045607734 -0.015007982
000390 59 67 01 be d7 29 b4 ba fa ec 81 bd 66 ef 32 bd
       -0.1263708 -0.0013745379 -0.06344028 -0.04368534
0003a0 a7 2f 68 bd 12 b4 24 3d a7 1c 41 bc 07 81 27 3d
       -0.05668607 0.04021079 -0.011786616 0.040894534
0003b0 78 f8 78 3d 14 91 b7 3d 0e 7c ed bd 0e 71 49 bd
       0.060783833 0.08963218 -0.11595927 -0.049180083
0003c0 ee 6a 25 3e 5e 42 00 3e 89 fe ec 3d 65 42 03 3c
       0.16154072 0.12525317 0.11571986 0.008011435
0003d0 d7 fe 8d bd b1 cb 5d 3d f8 33 39 bd c7 98 1d bd
       -0.069333725 0.054149333 -0.045215577 -0.038475778
0003e0 e7 17 a7 bd 74 53 36 bd b8 e3 19 bd ff ce 05 bd
       -0.08158856 -0.04451318 -0.037570685 -0.03266811
0003f0 e8 51 05 be 51 40 a9 bd 77 46 a4 bc 2e 8e c8 bd
       -0.13019526 -0.082642205 -0.020053132 -0.097927436

lstm.weight_hh_l0 f4 [512, 128]
000000 0c 84 96 ba 9a a6 5e bd c1 70 b7 bd de 06 13 3e
       -0.0011483445 -0.054358102 -0.08957053 0.14358088
000010 ef 42 01 3c dd 65 53 bb 9c 7b cc 3d 89 18 1a be
       0.007889493 -0.003225676 0.09984514 -0.15048422
000020 3c 3f da bd 71 ee a0 3d e4 29 a0 3d d0 9a 2b 3d
       -0.10656592 0.07857979 0.0782049 0.041895688
000030 63 cd 91 3d 18 a7 35 3d 35 05 0d bd 43 81 a1 3d
       0.071192525 0.044348806 -0.034428794 0.07885983
000040 4d 9d 4d 3d 54 a2 da 3c e2 dd 8f bc 1b 24 b2 bd
       0.05019884 0.026688732 -0.017561857 -0.08698293
000050 33 b2 77 3d 22 02 c2 3c 35 72 50 3c 0f e4 c9 bc
       0.06047268 0.023682658 0.012722542 -0.02464488
000060 17 58 28 3d 71 00 82 bc 01 97 f2 bd cd 1f 8a 3d
       0.041099634 -0.015869351 -0.11845208 0.06744347
000070 86 99 7f bd bb d6 27 3d 61 49 e2 3d cf 35 9e 3d
       -0.06240227 0.040976267 0.11049152 0.07725107
000080 46 9d 8a bd aa c4 58 bd 16 13 66 3d 28 46 fb 3c
       -0.06768279 -0.05292193 0.056170546 0.030673102
000090 be 89 46 be c4 f9 df 3d 26 ac bf bd 3b 84 26 be
       -0.19388482 0.10936311 -0.093590066 -0.1626138
0000a0 9e fb be 3a bd 57 aa bd 6c 25 2f be db ad 36 3e
       0.0014570837 -0.08317516 -0.17104119 0.17839758
0000b0 fc 9c e2 bc ba 5e c9 3d 55 b6 97 3b ae 73 de bc
       -0.027662747 0.09832521 0.00462989 -0.02715477
0000c0 b4 c2 9b bd 22 90 21 3e 76 8b 40 be 74 18 0f be
       -0.07605496 0.15777639 -0.188032 -0.13974172
0000d0 7e 93 1a 3d 3b 30 81 3c fa d7 ea bd 28 87 ca 3d
       0.037738316 0.015770068 -0.114669755 0.0988906
0000e0 03 d9 14 be d5 26 dd bd 75 90 b7 bc 31 93 af 3d
       -0.14535908 -0.10798422 -0.02240775 0.085729964
0000f0 33 d0 cf bd c3 02 d5 3d 91 f4 57 bd 1a 23 96 bd
       -0.10147133 0.104009174 -0.05272347 -0.07330914
000100 7a 14 e7 3c 06 e7 6f 3d 7b 97 fe 3a f7 d5 7c bd
       0.028208006 0.05856993 0.0019423807 -0.06172749
000110 9f 15 c6 bd ab 3a 4f 3d c5 a8 1d 3e 6b ea 1c bd
       -0.09672093 0.05059306 0.15396412 -0.038309496
000120 83 d1 c0 bc b8 d1 3e 3d 15 15 0d 3e a6 b9 7e bd
       -0.023537403 0.046586722 0.13777573 -0.062188767
000130 ae 67 2b bd 7b a1 bb 3d 3d f3 f5 3d 16 15 22 3d
       -0.041846924 0.09161659 0.12009285 0.03957089
000140 92 ec 7b ba 8d e9 55 3c e7 23 0b 3c 13 0c db bd
       -0.0009610142 0.013056171 0.0084924465 -0.10695662
000150 bb a1 ac bd 2c c8 d6 bd ff cc 2b be a1 07 a9 bd
       -0.08429285 -0.104873985 -0.16777419 -0.08253408
000160 14 3a 37 3c 21 12 b6 3d be 2b e0 bd a3 5b 46 3d
       0.0111832805 0.088901766 -0.10945843 0.048427235
000170 0f c8 ed 3c 90 52 5e 3e fb 08 a4 bc 4c 3b 01 3d
       0.02902606 0.21711183 -0.020023813 0.03155069
000180 fa 2f 27 bd 89 21 2f 3d 28 fc 41 3c 83 8b 99 3d
       -0.04081724 0.04275659 0.011839904 0.07497313
000190 ed ec 0e 3d 89 3a 02 be c7 15 2e bd 38 be 65 bc
       0.03489392 -0.12717642 -0.042501237 -0.014022402
0001a0 10 76 55 bd 95 e8 36 3b 38 f9 f5 3d 62 45 f0 bd
       -0.052114546 0.0027909626 0.12010425 -0.11731984
0001b0 33 e3 83 3c 00 99 f0 bd 4a c6 43 3e 16 e7 00 3d
       0.016099548 -0.117479324 0.1911861 0.03147038
0001c0 b3 4e 34 be fa e9 94 bd 6e 9e 82 bd d0 00 87 bd
       -0.17608146 -0.0727119 -0.06377874 -0.06591952
0001d0 d7 61 8e 3d 57 d1 ae 3d 9e 5e 60 bc 0f cf 75 3c
       0.06952255 0.08536022 -0.0136944335 0.01500298
0001e0 06 a6 6d bd 22 12 5b bd 1d 7c 8d bc 27 4e 23 3e
       -0.05801966 -0.05348409 -0.017271096 0.15947782
0001f0 72 f2 50 3d 94 66 4a bd 03 ed 2d be a3 4a 4f 3d
       0.051012464 -0.049414232 -0.16984944 0.05060829
000200 cc 80 0f 3c 10 7d b6 bd 56 44 6b 3d 3a 0d c3 bd
       0.008758735 -0.089105725 0.057438217 -0.09524007
000210 26 99 82 3c f8 ad 06 3d f6 cf 85 3b ca 61 11 3e
       0.015942167 0.032880753 0.0040836288 0.1419746
000220 6c 60 9d bd 53 e1 4f 3a 35 9c 70 3e d1 d9 19 3d
       -0.07684407 0.0007929999 0.23497088 0.03756124
000230 39 cd a7 bd 37 13 ce bc 99 1c 18 3d 63 d1 00 3c
       -0.0819344 -0.025155647 0.037136648 0.007862422
000240 8b f0 a6 3c c1 6a c6 bb 9d 4d 32 3d fe ad bf 3d
       0.020378372 -0.0060552065 0.04353105 0.09359358
000250 a5 65 3f be cd a0 00 bd f4 4b 70 3d 15 cf 21 3d
       -0.18691118 -0.03140335 0.058666185 0.03950413
000260 9d ae 76 bd 8b f5 5b bd 61 7a 14 bd a7 3b 09 3e
       -0.060225118 -0.053700965 -0.036249522 0.13401662
000270 80 65 8b bc 75 c5 3c bd 33 21 cd bd 47 cf 3e 3c
       -0.017016172 -0.046086747 -0.10016098 0.011646098
000280 aa 3c b5 3c e9 22 2a bd 5f 64 04 3e 71 66 39 be
       0.022123653 -0.0415372 0.12928914 -0.18105485
000290 d0 f6 cd 3d 60 a5 b6 bd 2f 0f c1 3d 4e 2e c1 3d
       0.100568414 -0.089182615 0.09426724 0.0943266
0002a0 87 67 15 3d 98 8a 02 bd 76 05 dc 3d 04 80 04 3e
       0.036475684 -0.031870455 0.10743229 0.12939459
0002b0 62 9b 9f 3d 40 50 68 3d 04 b7 0d 3d 0c 39 c2 bd
       0.07793309 0.056717157 0.034598365 -0.09483537
0002c0 ec ae 1c bd cb c5 4f 3c 68 90 20 be df 8b 2f be
       -0.038252756 0.012681435 -0.15680087 -0.171432
0002d0 db 84 9e 3d 92 73 db 3c 9c af ba 3d 2d 54 06 3d
       0.07740184 0.026788507 0.09115526 0.03279512
0002e0 1f 2e 81 3d 98 05 64 3d 0f 34 cc bd 0c 5a 2f be
       0.06307625 0.055669397 -0.09970867 -0.17124194
0002f0 66 8b 54 bd ba d6 d1 3d c6 c5 9f 3c c1 f1 11 be
       -0.051890753 0.10246034 0.019503485 -0.14252378
000300 94 96 52 bb 06 4f a5 3c 74 2e 51 3d aa 78 3d bd
       -0.0032133209 0.020179283 0.05106969 -0.046257652
000310 05 5d ca bc 68 d2 c6 bc 63 0e 82 bc d8 80 ef 3d
       -0.024702558 -0.024270251 -0.015876 0.11694497
000320 49 65 81 3d 1b 5d 30 3d 39 6a 87 bd 0e 72 08 3d
       0.06318147 0.043057542 -0.06612057 0.033311896
000330 2d 3d 3d 3e a5 68 07 be c7 a9 c2 bd 0c b7 9c 3d
       0.18480368 -0.13223512 -0.09505039 0.07652101
000340 71 cb 60 bd 1b 16 83 3d 2b d6 cc 3c da 2f 1f 3d
       -0.054881517 0.06400701 0.025004467 0.038863994
000350 f4 17 c9 3d 28 5f 11 3d 00 3d 84 bc 7c 70 92 3c
       0.09819022 0.03549114 -0.016142368 0.017875902
000360 2b 99 f7 bd 3e 40 a7 bd 41 55 59 3d b4 ed 27 bd
       -0.12089761 -0.0816655 0.05305982 -0.040998176
000370 a8 f4 01 bd ff b6 83 3d dc 6a 44 bc f8 77 e2 3d
       -0.031727463 0.06431388 -0.011988368 0.110580385
000380 6e ad 11 bd 7b 74 cc 3d b7 fb fc 3d bf 67 8b bd
       -0.035565786 0.099831544 0.12352698 -0.06806897
000390 9d 43 16 3e 9f 20 89 3d c7 3f f0 bd 4b 81 42 3d
       0.1467423 0.06695675 -0.117309146 0.047486585
0003a0 3d f1 46 3d fe e0 a2 3d 8b fd d2 3c 65 4c 00 3e
       0.048569907 0.0795307 0.025755664 0.12529142
0003b0 0b e1 56 3c dc ed be 3c 74 42 8c bb 5f 63 c5 bd
       0.013115178 0.02330678 -0.004280383 -0.09638094
0003c0 33 0a 2c bd 6a 6a a4 3a 2e d6 ab 3d 52 74 45 3e
       -0.042001914 0.0012543921 0.08390461 0.19282654
0003d0 39 31 91 bc 14 aa 00 bd 5e 8e 96 3d 66 b1 d2 bd
       -0.017723667 -0.0314122 0.07351373 -0.10287742
0003e0 59 e7 2d 3c 79 d7 ad 3d 46 5b e1 ba ad 04 11 3c
       0.01061424 0.08488364 -0.0017193339 0.008851212
0003f0 04 ea 4a 3c 08 51 d1 3d 6c a0 86 bb db a9 af 3d
       0.012384895 0.102205336 -0.0041084792 0.08577319

lstm.bias_ih_l0 f4 [512]
000000 bd 08 a2 bc c9 b6 e9 bd 29 70 0b 3d 69 06 27 be
       -0.019779557 -0.114118166 0.03404251 -0.16311039
000010 9d f0 92 bd 38 c1 b5 bd 52 3c e6 bd e5 16 e9 bd
       -0.071747996 -0.08874744 -0.11241974 -0.1138132
000020 03 6d 35 3d de 1f 08 bd eb 7c 5e 3c 35 3c fe 3c
       0.044293415 -0.033233516 0.013579587 0.031034568
000030 c4 cb 3f bd 53 ee a2 3b 7f ab 6d be 85 cc 97 bc
       -0.046825185 0.004972258 -0.23209952 -0.01853014
000040 22 50 96 bd bf 76 6f 3c 1b c4 18 bd 99 7c 15 be
       -0.07339503 0.014615714 -0.037296396 -0.14598311
000050 9b 0f 9f bd 24 61 ac bd ce b8 a2 bd 88 06 0a be
       -0.077666484 -0.084169656 -0.07945405 -0.13479054
000060 67 ac cd bd ee a6 09 bb bd 07 c3 3d bc ac de bd
       -0.10042649 -0.002100404 0.0952296 -0.1087279
000070 aa 4c 88 bd 3a bf 00 be 03 d5 0a be 40 6b 38 bd
       -0.066552475 -0.12572947 -0.1355782 -0.045024157
000080 7a bb 5c bd 0c 9c 35 be f0 2e 20 3d 36 18 9a bd
       -0.05388973 -0.17735308 0.039107263 -0.07524149
000090 64 50 69 bd 67 2c e1 3d f6 9d 14 3e 4c 91 b1 3c
       -0.056961432 0.10994797 0.14513382 0.021675728
0000a0 b6 9e b4 bd 5f fc ca bd cc 82 c2 bd a8 07 de bd
       -0.08819334 -0.09911417 -0.09497604 -0.10841304
0000b0 eb 98 0c be 95 d6 06 be 95 bd 79 bd b8 ef 24 be
       -0.13730209 -0.13167794 -0.060971815 -0.1610707
0000c0 86 bd b5 bd 9c 18 39 3d b2 0f 37 be e0 4e 00 bd
       -0.08874039 0.045189485 -0.17877081 -0.03132522
0000d0 6a f3 7e bc 5b 54 11 be 57 83 ec bd 5a 22 7e bd
       -0.015560964 -0.14192335 -0.115484886 -0.06204448
0000e0 92 82 e0 bd 7d 57 ec bd 98 62 00 be 59 13 e4 bd
       -0.10962404 -0.115401246 -0.1253761 -0.11136503
0000f0 bf 20 cb bd 54 40 73 3b 99 9f e6 bc 69 5d 0a 3e
       -0.09918355 0.00371172 -0.028152274 0.13512196
000100 8d ff fe bd 1c 25 80 bd f6 23 9c 3d 7d c2 ef bd
       -0.12451086 -0.06257078 0.076240465 -0.117070176
000110 69 79 9c 3b 91 a5 53 bd 14 9b a5 bd ac 7f 34 be
       0.0047752154 -0.05167157 -0.080862194 -0.17626828
000120 e7 33 09 be 86 fc 9d bc b3 13 04 be 74 d4 b2 bc
       -0.13398705 -0.019285452 -0.1289814 -0.021829821
000130 3e a1 8d bd c1 f1 e6 3d 14 bd 27 be 36 83 81 bd
       -0.0691552 0.1127658 -0.16380721 -0.063238546
000140 d1 c9 10 bd be 85 86 bd af 60 94 bb 38 09 33 be
       -0.035348717 -0.06568478 -0.004528127 -0.17483985
000150 f1 e6 d0 bd 3f 35 19 3d 8c 0b b4 bd 27 9d fa bc
       -0.102002986 0.037404295 -0.08791265 -0.030592514
000160 84 10 d0 bd 71 ba 0e 3d 78 e1 ba bc 53 7a 33 3d
       -0.101594 0.034845773 -0.02281259 0.04381783
000170 53 00 af bd 72 22 3e be 9c eb 9c be ff 89 9c 3b
       -0.08544984 -0.18567827 -0.30648506 0.0047771926
000180 ac 6b a0 3d cd 60 f3 bd 07 a9 90 bd ad 50 fe 3b
       0.07833037 -0.11883698 -0.070634894 0.007761082
000190 d0 3c 17 be ca de 5b bd df cd 7c bd d1 37 66 3d
       -0.14769292 -0.053679265 -0.06171977 0.056205574
0001a0 66 39 13 be 87 87 13 be a0 7c 8c bc a4 8e 04 bd
       -0.14377365 -0.14407168 -0.01714927 -0.032362595
0001b0 03 bc f9 bd 06 92 a0 bd 51 cd a6 bd 22 b3 d4 bd
       -0.121940635 -0.07840352 -0.0814463 -0.10385729
0001c0 75 db e6 bd 52 09 34 bd c6 c1 b7 bd 35 19 a1 bd
       -0.11272327 -0.0439542 -0.08972506 -0.07866136
0001d0 9a df 5a 3e 49 2c 22 bd c3 9f 22 bd 7b 05 4a be
       0.2137436 -0.039593015 -0.039703142 -0.19728653
0001e0 43 4e dd bd 80 f2 f0 3c 7b 60 92 bd 73 dd b4 3a
       -0.10805943 0.029412508 -0.071473084 0.0013798907
0001f0 10 13 43 bd a4 fc 4a be ee eb 35 be 07 0f c4 bd
       -0.0476256 -0.19822937 -0.17765781 -0.09573179
000200 a7 c0 36 be 2d 67 33 bd b0 0b b2 bd 24 3e fe bd
       -0.17846929 -0.043799568 -0.086936355 -0.12414196
000210 25 ce 4d bd 6d 46 08 be 0f 67 ec bd da 27 5b be
       -0.050245423 -0.13308115 -0.11543094 -0.21401921
000220 2e 29 34 bd 90 cf 15 be d9 fc 81 bd bf fc 0c be
       -0.043984585 -0.1462996 -0.06347055 -0.1376829
000230 25 17 f5 bd fb 5b d8 bd ab 01 3c be e9 26 d9 bd
       -0.11967305 -0.10564419 -0.18360011 -0.10603125
000240 28 c0 ff bc 98 f9 85 bd 47 77 89 bc 8b 2f 69 be
       -0.031219557 -0.06541747 -0.016780509 -0.22772042
000250 f6 fb 65 bd 27 32 77 be b7 0c 32 bd 57 ef 94 bd
       -0.05614849 -0.24140225 -0.043469157 -0.07272213
000260 d2 9e 13 be 45 87 09 be aa ba 35 be a4 c5 c9 bd
       -0.14416054 -0.13430507 -0.17746988 -0.0985215
000270 b2 0b fc bd ad 23 0e be ca 58 35 be c3 e6 43 bd
       -0.12306918 -0.13880797 -0.17709652 -0.047827493
000280 1f fb bd bd 39 a1 21 bd 66 8c 1e be a1 44 1a be
       -0.09276413 -0.039460395 -0.15483245 -0.15065242
000290 0d bf 37 be bd f3 0a be 51 9d ae be 97 2d 00 be
       -0.17943974 -0.13569541 -0.34104398 -0.12517391
0002a0 70 5b 01 be d6 81 13 bd 18 aa 2d be 32 03 e3 bc
       -0.12632537 -0.036012493 -0.16959417 -0.027711485
0002b0 1e ac 49 be 67 90 e2 bd bf 37 2f be 62 fb 01 be
       -0.19694564 -0.11062699 -0.17111109 -0.12693551
0002c0 a7 11 29 be 5d fa 99 bd 7d 83 ba bd e9 3a 28 be
       -0.1651064 -0.07518456 -0.09107111 -0.16428722
0002d0 a4 ce 98 bd 62 30 05 be 07 d5 4e bd 92 42 09 be
       -0.074612886 -0.13006738 -0.050496127 -0.13404301
0002e0 2c 2d f3 bd c4 0d 06 be c3 b3 7d bd 91 85 8c bd
       -0.1187385 -0.13091189 -0.061939012 -0.06861413
0002f0 de 81 12 be 9c 51 35 be e8 2c 9a bd c0 1d 06 be
       -0.14307353 -0.17706913 -0.075280964 -0.13097286
000300 1b 0c 12 be a4 28 94 bd d4 c8 0a be 6a d0 17 be
       -0.1426243 -0.07234314 -0.13553172 -0.14825597
000310 8b 65 5e be 7c c6 e7 bd 6e 2c 31 be 73 24 6e be
       -0.21718423 -0.11317155 -0.17302105 -0.23256092
000320 f4 86 47 be a4 65 b6 bd 4b 1e 86 bd 7f 6b 80 bd
       -0.19485074 -0.08906105 -0.06548747 -0.06270503
000330 5d 46 28 bd 65 0a c5 bd 09 29 e4 bd 0b b4 a9 bd
       -0.04108273 -0.09621123 -0.11140639 -0.082862936
000340 be 8c 12 be 96 7a 7a be 82 e0 b7 bd 85 c6 62 be
       -0.14311501 -0.24460825 -0.08978368 -0.22146042
000350 93 d9 0b be 3b c7 6e bd 21 76 52 be 98 30 0e bd
       -0.13657217 -0.05829547 -0.20552875 -0.03471431
000360 c5 e6 00 be 3f 9f 06 be be 3f 79 bd 1b 8b 4b be
       -0.12588032 -0.13146685 -0.060851805 -0.19877283
000370 97 56 6a be 27 09 9a bd 0e 00 1c bd d5 5f 83 be
       -0.22884594 -0.07521277 -0.03808599 -0.25659052
000380 e2 eb 27 be 5d f4 dd bc 5e 73 97 bd b8 d4 ba 3c
       -0.16398576 -0.02709406 -0.073950514 0.02280651
000390 5f 43 26 be dd 41 17 be ee ff f3 bd af 84 1d bd
       -0.16236638 -0.14771219 -0.11914049 -0.038456615
0003a0 c4 d2 9d bd fa cc 9d bd c2 0f 0d be 45 00 dc bd
       -0.07706216 -0.07705112 -0.13775542 -0.10742239
0003b0 7b d4 e9 bd 00 c4 80 3c 77 b4 58 be 32 64 c4 bd
       -0.114174806 0.01571846 -0.21162592 -0.09589423
0003c0 82 2b 4e bd c8 aa 9c bd e1 13 2a bd 3e 64 0c bd
       -0.05033446 -0.076497614 -0.041522864 -0.034275286
0003d0 46 46 3e be c2 4e d5 3c 9a fe ed bd 1b b4 96 bc
       -0.18581495 0.026038531 -0.11620827 -0.018396428
0003e0 76 2c 18 be d8 49 24 be 59 f6 a3 bd d0 ee 10 be
       -0.1486071 -0.16043794 -0.080059715 -0.141536
0003f0 33 19 43 be b4 33 97 3c ab 55 8e be 5c f6 fc bc
       -0.19052581 0.018457271 -0.27799734 -0.030879192

lstm.bias_hh_l0 f4 [512]
000000 af 7f 2a be 01 7c f6 bd 7a 5c a0 bd 60 4a ee bd
       -0.1665027 -0.120353706 -0.078301385 -0.1163528
000010 fc e8 62 3d 13 03 0d 3c 73 01 36 be 75 00 9d bd
       0.055397972 0.00860669 -0.1777399 -0.07666103
000020 d9 e4 1e 3c db b6 92 bc a2 0a bc bc 8c a3 b2 3c
       0.009698116 -0.017909458 -0.022954289 0.0218065
000030 da b6 3c 3a 65 07 1e be 44 9b fa bd 71 19 dd bd
       0.0007198878 -0.15432508 -0.12236646 -0.10795868
000040 2a 9b fb bd 0c d3 d4 bc d7 77 b0 bd 1c 94 b9 bd
       -0.122854546 -0.025979541 -0.08616608 -0.09061453
000050 ec 31 17 be 17 20 a0 bd 5c c5 c5 bd b9 fb 8e bd
       -0.14765137 -0.07818621 -0.09656784 -0.06981606
000060 05 3b 45 be 27 ac ae bc 82 22 d4 3c 84 03 55 be
       -0.19260795 -0.021322323 0.02589536 -0.20802122
000070 c5 12 3a bd 41 6e 38 bb 3d 8f f3 bd fd 00 41 be
       -0.045428056 -0.0028141888 -0.11892555 -0.18848033
000080 88 40 20 be 92 d2 29 bd 10 b8 55 bc b8 c8 05 3b
       -0.15649617 -0.04146058 -0.013044372 0.0020413827
000090 d9 dd 23 be 82 4b 17 3d 72 e0 ca 3d 69 34 95 3d
       -0.16002597 0.036937244 0.09906091 0.07285387
0000a0 8d be 04 bc be 84 1f be a9 e1 25 bd ba eb 9d bd
       -0.0081020715 -0.15577981 -0.04049841 -0.07710977
0000b0 94 83 1d bd 7e 64 c6 bc 87 19 4a be c6 97 35 be
       -0.03845556 -0.02421784 -0.197363 -0.17733678
0000c0 d0 3d ff bd c5 0a c9 3c 8a 8f 24 be 06 ec 9a bc
       -0.12462962 0.024541268 -0.16070381 -0.018911373
0000d0 22 04 c1 bc 57 ee 2a be c2 80 32 be fe 9e 25 bd
       -0.023561541 -0.16692482 -0.1743193 -0.04043483
0000e0 89 f3 71 bd 97 77 07 be a1 02 1c be 16 b5 d8 bd
       -0.059070144 -0.13229214 -0.15235378 -0.105814144
0000f0 7b 0a 4e be ee 61 79 bd ee 1e 84 bd d2 dc bd 3c
       -0.20121185 -0.06088441 -0.06451212 0.023176584
000100 72 24 fe 3b 19 b9 1a be 46 9f 17 bd e1 4a da bc
       0.0077558095 -0.15109672 -0.03701713 -0.026647033
000110 3d cf 05 bd 18 a1 fa bd 97 a1 8c bd f9 b9 0b be
       -0.03266834 -0.122377574 -0.06866758 -0.13645162
000120 5f c6 86 bd b6 67 4b 3d e5 b9 00 be eb 24 4f bd
       -0.06580805 0.049659453 -0.12570913 -0.050572317
000130 69 f9 f5 bd 90 60 13 3e e6 e0 75 bd 43 8a 88 bd
       -0.12010462 0.14392304 -0.060028933 -0.06666996
000140 a7 db 11 be 67 41 ca bd 59 fc 70 bd 68 2a 92 bd
       -0.14243947 -0.09875756 -0.058834407 -0.071369946
000150 a8 90 c4 bd fe cd b5 bb 86 d3 21 bd c2 7a 6a 3c
       -0.095979035 -0.005548238 -0.039508365 0.014311494
000160 7f cb 32 bd 85 b8 22 3d e4 64 c1 bc d9 aa 9d bd
       -0.0436511 0.039726753 -0.023607679 -0.07698602
000170 81 74 2b be 41 57 b4 bd c1 a3 92 be eb 3f 15 bd
       -0.16743661 -0.08805705 -0.2864056 -0.03643791
000180 7e 6b a8 3d c7 24 b0 3b 8c 25 5a bc 95 ab 13 be
       0.082236275 0.005375478 -0.013314616 -0.14420922
000190 82 8a 4e be 48 35 3e bc 2f 19 5f 3b 71 03 ce 3d
       -0.20170024 -0.011609383 0.003404211 0.1005925
0001a0 27 a5 97 bd d4 a1 ab bd a2 c6 ee 3c 8f 06 a3 3c
       -0.07404547 -0.08380476 0.02914745 0.019900588
0001b0 12 28 14 be 24 18 11 3d ad c1 8e bd 7c cb 1d be
       -0.1446841 0.035423413 -0.069705345 -0.15409654
0001c0 5e 6f 0d be b8 cd bc bd fe 56 14 be 45 94 87 bd
       -0.13812014 -0.09218925 -0.1448631 -0.06620077
0001d0 da 02 5b 3e 1d db ea 3c d3 a1 6b bd b0 83 2a be
       0.21387807 0.028668934 -0.057527374 -0.16651797
0001e0 b6 74 12 be b0 50 67 bd 12 14 4c bd 23 e0 ab bd
       -0.14302334 -0.056473434 -0.049823828 -0.0839236
0001f0 68 28 62 3d 79 09 b0 bd 28 cb ec bd 0c 63 c4 bc
       0.055214316 -0.08595557 -0.115621865 -0.02397301
000200 c5 22 9e bd d0 8f 22 be 0f d2 15 be 46 cc 96 bd
       -0.077214755 -0.15875173 -0.14630912 -0.07363181
000210 ad cc c0 bd 71 0f b6 bd 3f 33 0e be 20 91 3f be
       -0.09414039 -0.08889664 -0.13886736 -0.18707705
000220 52 e9 ef bd d0 7a c1 bd b1 96 06 be d9 7f ea bd
       -0.11714424 -0.09447253 -0.13143422 -0.11450166
000230 bd 1a 1e be db a2 2b be d3 fa 1c be 9f 1b 0f be
       -0.15439887 -0.16761343 -0.15330057 -0.1397538
000240 df ec fa bd c5 76 0e bd 1c c3 40 bd ae b8 88 be
       -0.12252211 -0.034781236 -0.04706107 -0.267034
000250 94 af 5f be 32 77 25 be 03 20 e3 bb 91 9b 09 bc
       -0.21844321 -0.1615875 -0.0069313063 -0.008398906
000260 5e 3c 92 bd 70 55 bf bd 9c 7c 22 be 9f 39 a5 bd
       -0.071404204 -0.09342468 -0.15867847 -0.08067631
000270 94 79 83 bd 56 6f 43 be 87 06 8e bd 15 7a d9 bd
       -0.064196736 -0.1908544 -0.06934839 -0.106189884
000280 f6 ba 0b be 7c 04 a0 bd b4 02 11 be ef 60 2f be
       -0.13645539 -0.07813355 -0.14161187 -0.17126821
000290 2d c3 58 be a1 da 3e be 20 bb c2 be 0b 09 e9 bd
       -0.21168204 -0.18638088 -0.3803339 -0.11378678
0002a0 f8 89 30 bd d4 64 2d be ac 93 1d be fb 18 33 bd
       -0.043100327 -0.16932994 -0.15388364 -0.043724995
0002b0 63 89 f9 bd e0 9a 06 be 69 e7 4c be 43 56 4e be
       -0.121844076 -0.13145018 -0.20010151 -0.20150094
0002c0 38 4d 8d bd f4 61 0c be 50 e4 3a be 5e d0 6e be
       -0.06899494 -0.13709241 -0.18251157 -0.23321673
0002d0 bc 5e 67 bd 97 34 7b be 39 ed c8 bb f6 f6 c2 bd
       -0.05648683 -0.2453178 -0.006131795 -0.0951976
0002e0 da c0 66 be 81 8d 5b be 4a 4e 10 be 29 75 50 bb
       -0.22534505 -0.21440698 -0.14092365 -0.0031808114
0002f0 22 39 0b be 1a af 50 bd 01 d0 5e 3c b8 a2 a9 bd
       -0.13596013 -0.05094824 0.013599397 -0.08282989
000300 f9 e6 06 be e5 8f e3 bd f1 17 1d be 33 09 47 be
       -0.13174047 -0.1111143 -0.15341164 -0.19437103
000310 c0 30 48 be d1 c1 43 bd 13 7d 51 be 2f 7b 52 be
       -0.19549847 -0.04779226 -0.20457868 -0.20554803
000320 59 13 73 bd 59 2d a3 bd 07 75 98 bd 8e 38 bf bd
       -0.059344623 -0.07967634 -0.07444196 -0.09336959
000330 63 1d 3a bd 6d 3f 4f be e3 46 6a bd 88 29 25 bc
       -0.04543818 -0.20239039 -0.05719651 -0.010080703
000340 da ea 16 be ce c5 31 be 7a 90 52 be 9b 00 0b be
       -0.14738026 -0.17360613 -0.20562926 -0.1357445
000350 98 1c f6 bd 88 7a 24 be 79 2f 64 bd 63 69 fc bd
       -0.120171726 -0.16062367 -0.055709336 -0.123247884
000360 56 11 79 bd 2f 4c e8 bd 18 51 8e bc bd 35 21 be
       -0.06080755 -0.11342656 -0.017372653 -0.15743156
000370 24 79 89 be 06 a1 35 be 0c 0e dc bd 97 ad 66 be
       -0.26850235 -0.17737207 -0.10744867 -0.22527157
000380 6e 0d 37 be 9b f5 46 bd 86 57 13 be d4 e5 c3 bc
       -0.17876217 -0.04857407 -0.14388856 -0.023913302
000390 1a 58 22 be eb 6e 31 be d7 69 c6 bd e0 f2 32 be
       -0.1585392 -0.17327468 -0.09688156 -0.17475462
0003a0 f8 7d 6a bd a0 ac 7c be 35 3c fa bd a9 42 0f 3b
       -0.05724904 -0.24675226 -0.12218515 0.00218598
0003b0 3b e4 c5 bd a4 a2 13 bd d4 3f 3f bd c9 ec 16 be
       -0.09662672 -0.036043778 -0.04669173 -0.14738764
0003c0 4e 0d 7c bd d4 f4 28 be 16 f1 f5 bd e2 a1 3b 3c
       -0.061536126 -0.16499645 -0.12008874 0.01145217
0003d0 12 cd 56 be 6c c2 e9 bd b8 7b 8a 3c c7 bd 25 be
       -0.20976666 -0.11414036 0.016904697 -0.16185676
0003e0 1b 29 b0 bd f8 18 c3 bd 43 a3 63 bc 5a d5 02 bd
       -0.0860159 -0.09526247 -0.013893905 -0.03194175
0003f0 ef 92 f2 bd 1a a9 f1 bd 30 58 13 be e2 f5 d8 bc
       -0.118444316 -0.11799832 -0.1438911 -0.026484434

lstm.weight_ih_l1 f4 [512, 128]
000000 21 66 91 bb 0d ea 5e ba 69 4d 0a bd 22 5d 36 3e
       -0.0044372235 -0.0008503504 -0.03376523 0.17808965
000010 c3 25 99 3d 32 28 f0 3d 00 7f 35 39 52 14 da bd
       0.074779056 0.11726417 0.00017308816 -0.10648407
000020 28 8d fd 3c b2 3a b6 3d e7 d5 f6 3c ae 7a 64 bd
       0.030951098 0.08897914 0.030131293 -0.05578106
000030 3c 04 01 3e 07 b3 14 3e 7d de 39 bd 34 ea 39 ba
       0.12599272 0.14521419 -0.045378197 -0.0007092089
000040 cd e4 d0 3b c6 44 3f 3c 7a 81 82 3d b6 3d 51 bd
       0.0063749314 0.011674112 0.06372352 -0.051084243
000050 a0 a9 4d 3e 0a 48 9e 3d 68 3d 50 3c 3e c4 a1 3d
       0.20084238 0.07728584 0.012709953 0.07898758
000060 5f a1 e7 3d 19 31 e5 bd 05 75 7c 3d fa 6b 2a 3b
       0.11310076 -0.11191005 0.061635036 0.00260043
000070 95 9e 3c 3d 3e ec ea 3c 80 7a 4c 3d 90 c2 6e 3b
       0.046049673 0.028677102 0.049921513 0.0036431886
000080 3f d2 bb bc 8e 3b 03 3d ae 1d b9 3c 9f a5 87 bb
       -0.022927402 0.032039218 0.02259716 -0.0041396166
000090 70 8a 87 be f4 28 8b bd 84 2c 01 3e 85 99 fc bb
       -0.26472807 -0.067949206 0.12614638 -0.0077087306
0000a0 9d 12 64 ba b9 d9 a1 3d ab ad f8 bd c3 e4 00 bc
       -0.00087002834 0.079028554 -0.121424995 -0.007867041
0000b0 ee 30 d5 bd 55 23 57 bd e7 81 bf 3c 0e 21 b6 bd
       -0.10409723 -0.05252393 0.023377372 -0.088930234
0000c0 49 e0 9b bd 42 e7 88 bd 3c 22 f0 3c 95 73 88 bd
       -0.076111384 -0.06684734 0.0293132 -0.066626705
0000d0 d9 8d 88 3d 2b 25 cf 3d 96 6a ec 3c 2f 4a 81 3b
       0.0666768 0.10114511 0.028859418 0.003945611
0000e0 d5 60 20 3d 65 10 f2 bd c0 ea 0b 3e b6 40 cb bc
       0.039154846 -0.11819533 0.13663769 -0.02481113
0000f0 e8 ae 68 3d 20 3e aa ba 15 28 bb bd 5f 45 be 3d
       0.05680743 -0.0012988485 -0.091385044 0.09290575
000100 37 94 b9 3c 7b 4f 4b 3d e0 5a 49 3d b8 25 a5 bd
       0.022653682 0.049636345 0.04915893 -0.08063835
000110 91 2f b6 3d a1 83 64 bd f8 78 f3 3d 2a a8 4f be
       0.08895791 -0.055789594 0.11888307 -0.20278993
000120 82 44 7f 3d 9e bf e7 3c 7f c4 93 bd 88 68 c2 bd
       0.062321194 0.028289612 -0.07215213 -0.09492594
000130 39 93 4c be 28 70 e4 bd 5a a2 73 3c a9 68 50 bd
       -0.19978036 -0.111542046 0.014870251 -0.05088106
000140 86 d4 d8 3d d5 57 06 3e ec 6c 11 be cb f9 1a bd
       0.10587411 0.13119443 -0.14201707 -0.037835877
000150 ac f6 1b 3d 39 6f 88 bc 7e 5e 0e 3d 3a 97 1d 3e
       0.03807704 -0.016654598 0.034758084 0.1538972
000160 6e 64 37 bd 94 cd d6 bc 5e ff b6 3d 7b e7 f1 3d
       -0.04477351 -0.026221074 0.08935426 0.118117295
000170 31 85 64 3e 9d 30 df bd 3c fa b7 3d f4 e7 87 bd
       0.22316433 -0.10897944 0.08983275 -0.066360384
000180 77 13 34 3c e8 0a 1b bd 18 ce 60 3d 4c 42 f2 bd
       0.010990969 -0.037852198 0.054884046 -0.118290514
000190 15 9d 22 3d ce 16 a0 3d 26 c0 3b 3d 53 08 f5 bc
       0.039700586 0.0781685 0.045837544 -0.029911196
0001a0 5a ab 27 3e bc 8f fb bd ab 00 c8 3d c9 c7 70 bd
       0.16373959 -0.122832745 0.097657524 -0.05878428
0001b0 5b 7e 74 3d e2 de 8c 3d f7 41 d2 3a 72 07 43 bd
       0.059690814 0.06878449 0.0016041388 -0.047614522
0001c0 98 11 07 be a5 52 95 bd 7c fa 3d be 5e f9 59 bd
       -0.13190305 -0.07291154 -0.18552583 -0.05321633
0001d0 42 2a 10 be 36 58 c3 bc 0f ef 83 bd 29 a3 35 3d
       -0.1407862 -0.023845773 -0.06442081 0.044345055
0001e0 2f 2a b4 bd be 70 c5 bd 76 7c dd 3c d7 eb 4e 3d
       -0.087971084 -0.096406445 0.027036887 0.050517883
0001f0 c5 e6 27 bc fd f7 80 bc 79 31 ec bd cd d8 06 3c
       -0.010247891 -0.01574325 -0.11532874 0.0082304
000200 dd 79 51 3e ab ff 6c bd 5f aa e2 3c 6f f1 32 3d
       0.20456643 -0.05786101 0.02766913 0.04368728
000210 18 31 2c bd 17 14 71 bd 19 fd 8a 3d 10 cb 90 bb
       -0.042039007 -0.05885705 0.06786556 -0.004418738
000220 24 0f 26 ba 8e da e5 bd 95 b0 05 be 25 19 c4 bd
       -0.00063346536 -0.112233266 -0.13055642 -0.095751084
000230 c5 fc f9 bd 15 0e df 3d 42 f2 51 3d 12 7b f9 bd
       -0.12206415 0.10891358 0.051256426 -0.12181677
000240 33 9f 71 3d d4 56 1c be 8a 0e b5 3d c4 52 38 3e
       0.058989715 -0.15267497 0.08840664 0.18000323
000250 4b 74 97 be 02 66 85 3d 6b 01 42 3c 58 b0 29 3d
       -0.29580912 0.06513597 0.011841158 0.04142794
000260 86 12 b4 bd cb 52 38 3c 52 e2 54 3d c0 41 c4 bd
       -0.087925956 0.011250208 0.05197365 -0.09582853
000270 90 be 87 3c 67 08 60 bd 04 b7 71 bd 5f c7 29 bb
       0.01657036 -0.054695513 -0.059012428 -0.0025906188
000280 e6 ed ce bc 6c e5 b5 bb f2 57 28 3e ce 7f 1a 3c
       -0.025259923 -0.005551031 0.16439798 0.009429885
000290 2b 4d 45 3d 2c 54 32 be d4 1c 1c 3e 88 3b f1 3d
       0.048169296 -0.17414922 0.15245372 0.11778933
0002a0 e4 43 d1 bd aa 2a 68 3d 0a 9a a6 3d 5c 5f b3 bd
       -0.10218027 0.056681313 0.08134849 -0.08758423
0002b0 9b 04 9a 3c d4 88 f8 3d 46 14 01 3d 65 c8 22 3c
       0.018801024 0.12135473 0.031513475 0.009935473
0002c0 7b 83 53 bd 27 40 22 3d 7e 1e 23 be de 53 89 bd
       -0.05163906 0.03961196 -0.159296 -0.067054495
0002d0 c6 e0 0c 3e aa 4c 6c be b2 d2 81 3d 72 92 09 bd
       0.1375762 -0.2307612 0.06339015 -0.033586927
0002e0 8f 73 13 3d c7 ab 36 3e 8d 1d 8d bc 36 90 ff 3c
       0.035998877 0.17838965 -0.017226005 0.031196695
0002f0 83 5b 92 3d 3a 7e 85 bd 2b 0e 87 3d 4f 26 3e be
       0.07146361 -0.065182164 0.06594499 -0.18569301
000300 cf 43 29 3c 33 95 64 38 a2 1b 64 bd af e8 9c bc
       0.010331108 5.449839e-05 -0.055690415 -0.019153921
000310 57 bf c9 bd b3 9a d6 3c 0f 6b 25 bc 76 d1 9e 3d
       -0.09850948 0.026196813 -0.010096326 0.07754795
000320 9d fd cc 3c 57 db 20 be c0 fa 5a bd 0a 4e f5 3c
       0.025023276 -0.15708672 -0.05346179 0.029944438
000330 52 e7 e8 3d c0 7c 3d be 7c 2e 03 3d be 79 02 be
       0.11372246 -0.1850462 0.032026753 -0.12741753
000340 2d 0d c9 3d 3e 60 1d 3e 21 15 a0 3d 98 78 a5 bd
       0.09816966 0.15368745 0.0781653 -0.08079642
000350 8f 1d 4f bb b9 85 25 3d fe 06 8c 3d 0d ab 8d bd
       -0.0031603312 0.04041073 0.06837271 -0.06917391
000360 7d b9 d2 bc 28 b9 c0 3d 9d 35 18 3e ae c0 66 be
       -0.025723213 0.09410316 0.14864202 -0.22534439
000370 f1 f0 21 be 47 85 0e 3e 02 2b cb bc 27 99 65 ba
       -0.15814568 0.13918029 -0.024800781 -0.0008758478
000380 94 fc 90 be 71 4d 3f 3e 61 ad f6 bd d9 c8 a5 bd
       -0.28317702 0.18681885 -0.12044788 -0.08094949
000390 2f cd a6 3d 5b 41 c9 3d c6 a5 ca bd df 23 90 3e
       0.081446044 0.09826919 -0.098949 0.28152367
0003a0 b7 a5 63 bd b7 84 42 3b 1a 0f 6f 3d 73 26 d3 3d
       -0.05557796 0.0029681155 0.05836401 0.10310068
0003b0 3c 00 d1 3d 37 13 d7 3d ff e1 7d bd b0 60 86 3d
       0.10205123 0.10501712 -0.061983105 0.065614104
0003c0 5b f6 f0 3c 63 73 94 bd dd 1c 11 be 36 7a d3 bd
       0.029414346 -0.07248571 -0.14171167 -0.10326044
0003d0 47 d0 fd bc 5c 1c 2d 3c 3a aa 09 3e af 05 de bd
       -0.030983103 0.010565843 0.13443843 -0.10840928
0003e0 03 5c 2b be a7 8a d6 3d aa 99 d5 3b 87 27 14 3d
       -0.16734318 0.104756646 0.0065185623 0.03617051
0003f0 b8 83 d5 3c b5 fa 6b 3c 06 83 f5 3d 73 f2 8f 3d
       0.026063785 0.014403035 0.11987881 0.070286654

lstm.weight_hh_l1 f4 [512, 128]
000000 b2 cb 8b 3d 6c c1 8f 3d a7 10 b0 bb ea 4f 0e bd
       0.06825961 0.07019314 -0.005373079 -0.03474418
000010 a0 35 2b 3d 85 a6 83 3d 63 a4 8f 3b e6 f5 08 3d
       0.041799188 0.064282455 0.00438361 0.033437632
000020 66 60 c9 bd 52 5c f4 3c 2a c0 cf 3c 56 4b d5 bc
       -0.0983284 0.029829178 0.025360186 -0.0260369
000030 42 d5 09 3d 4e 34 86 3c af 37 0a bd 49 7f f7 3c
       0.033650644 0.016382363 -0.03374451 0.030212061
000040 59 c1 db 3b 80 f9 0d be dd 36 7a bb 43 5e a1 3c
       0.0067063984 -0.13864708 -0.0038179674 0.019698268
000050 9b 18 aa 3b d1 35 87 bb 4a 30 b8 bd ad 42 3d bd
       0.0051909215 -0.0041262885 -0.089935854 -0.046206165
000060 ae d6 c8 3c b2 cf 8f 3d 9a 23 ea 3c 6b ca 11 3d
       0.02451643 0.070220366 0.02858143 0.03559343
000070 db 31 53 bd 5d 35 57 3d 7e f9 82 3c f2 cc 4b bd
       -0.051561218 0.052541126 0.015988108 -0.049755998
000080 15 ca bd 3c f8 d4 fd 3c 89 e9 80 3c 33 0d 4a bd
       0.02316765 0.03098534 0.015736358 -0.049328994
000090 10 01 43 3d 83 0e 18 bd f7 ec 05 3e c8 86 aa bd
       0.047608435 -0.037123214 0.13078676 -0.08326489
0000a0 4d 08 b7 3d c3 f1 2a 3c 43 5a c1 bc ba 29 aa bd
       0.0893713 0.010433617 -0.02360261 -0.0830874
0000b0 2f a3 7f 3d b1 28 d6 bc eb 1f 17 bd e4 91 f1 bd
       0.062411483 -0.02614245 -0.036895674 -0.117954046
0000c0 fe 6f 0d 3d 9c fd cf 3b 00 46 8f bd ab 8d f5 3a
       0.034530632 0.0063473713 -0.06995773 0.0018734237
0000d0 aa 04 9d 3c 27 00 2b 3c a0 92 64 bc 06 2c 06 bc
       0.019167263 0.010437048 -0.013950974 -0.008189207
0000e0 db 1a b8 3d e2 14 90 bc 13 c6 b2 bd 2e 44 0e be
       0.08989497 -0.017588083 -0.08729186 -0.13893196
0000f0 e2 cb b3 bd 9f 92 fa bc f0 5a 49 3d 52 b8 80 bd
       -0.08779122 -0.030587493 0.04915899 -0.06285156
000100 69 20 24 3d 2a d0 98 bd 33 6d 35 3c 00 16 bb 3b
       0.04006997 -0.07461579 0.011073398 0.0057094097
000110 8f f4 1c bd 72 5d 0c bc 17 04 7d 3c ee e9 07 3d
       -0.038319167 -0.008567201 0.01544287 0.033182077
000120 e3 07 46 3d 9b e6 91 bc 01 a2 43 3c 7e aa 1e 3d
       0.048347365 -0.017810157 0.01194048 0.038736813
000130 91 ee 35 3d 75 21 c9 39 f7 5e a0 3d a0 71 99 bd
       0.044416968 0.00038362635 0.07830613 -0.074923754
000140 34 18 97 3d 9b 79 12 bc f6 f3 02 bc e2 3d f2 bd
       0.07377663 -0.008940126 -0.007992735 -0.118282095
000150 8a 8b a2 bd a8 30 43 3d 85 0d 21 bd 6b ed 28 3d
       -0.07936771 0.047653824 -0.039319534 0.041242044
000160 ea a7 b0 bd 77 1f 84 3d 66 e8 0d 3b c6 14 01 3d
       -0.08625777 0.06451314 0.0021653413 0.03151395
000170 7b c6 98 bd 47 c3 ba 3b 31 8d c6 3c eb a9 cd 3b
       -0.07459732 0.0056995484 0.024237247 0.0062763593
000180 d5 c6 01 3d d7 d0 e5 3a 93 80 a5 3c 87 37 14 bb
       0.03168376 0.0017533553 0.02020291 -0.0022616105
000190 30 4f 68 bc 80 64 8a bd b6 9f 8d bd f5 69 7c bd
       -0.014179036 -0.0675745 -0.06915228 -0.061624486
0001a0 2a 6d 29 3d 8d 1c ff bc e0 60 60 bc 45 3d 63 bd
       0.041363873 -0.031141544 -0.013694972 -0.055478353
0001b0 aa ca 41 bc 1d a4 d8 3b d7 b1 99 bd 5d 64 c6 3c
       -0.011828104 0.0066113607 -0.075046234 0.024217779
0001c0 ab 64 a2 3b 3b 6b 13 3d 56 df 90 3d 2a 24 c8 bc
       0.004955848 0.035990935 0.07073848 -0.024431307
0001d0 f1 7c 18 bd 2e 74 8c 3c 25 3b da bc 62 bd 15 3d
       -0.03722853 0.017145243 -0.02663953 0.036557563
0001e0 04 32 dc 3c 37 ff 43 3d bd cd a8 bd 9a 8f f3 3d
       0.026879318 0.047850814 -0.082423665 0.11892624
0001f0 b7 2c b3 3d 82 b4 bc 3d 3d 24 49 bd a5 bc 82 3a
       0.08748763 0.09214117 -0.049106825 0.0009974433
000200 ad 2e e8 bd f0 e3 af bd a3 3c 80 bc 7f 78 56 3d
       -0.11337028 -0.085883975 -0.015653914 0.052361008
000210 09 33 07 3e 49 7e 9c bd 5f 21 4a 3e 39 ff 59 bd
       0.13203062 -0.076412745 0.19739293 -0.053221915
000220 fa 64 e8 3d 72 56 bd bd 9e f7 a0 bd 66 c4 55 bd
       0.11347385 -0.09245004 -0.07859729 -0.052189253
000230 9b ad 42 3d 3b 43 a4 3c d8 ca 3a be 9c e4 93 bd
       0.047528844 0.02005159 -0.18241441 -0.07221338
000240 57 e3 ef 3d d7 81 54 3b 89 86 45 bd bc ac c9 bd
       0.117132835 0.0032426023 -0.048224006 -0.098473996
000250 92 7a 2a be 5f 03 86 bd 59 46 55 be 6e b6 98 bd
       -0.1664832 -0.06543612 -0.20827617 -0.07456671
000260 d5 ec fa 3d 07 d0 1f be a9 32 0d be b7 e4 96 bc
       0.122522034 -0.156067 -0.13788857 -0.018419607
000270 d1 93 aa bd de 46 0f 3d fd 1a a3 3d 58 33 be bc
       -0.08328975 0.034979694 0.07964132 -0.023217842
000280 6a 10 7d 3d 3a cb 04 3d db 92 1b bc 67 ed af bc
       0.06178323 0.032420374 -0.009495462 -0.021475507
000290 65 8b 4b 3d a4 a3 18 be f5 8b 85 bd be 83 ff bd
       0.049693484 -0.14906174 -0.06520835 -0.124763
0002a0 06 4c 28 be 22 96 19 3d 3b f5 8e bd 4c 8e de 3d
       -0.1643525 0.037496693 -0.06980368 0.10866985
0002b0 c9 55 33 bd 96 31 b0 3d c2 c3 ba bd 3e 61 1a bd
       -0.043782983 0.08603208 -0.09119369 -0.037690394
0002c0 a2 cc 6f be 01 2a 98 3d 21 b8 16 be 95 76 99 bd
       -0.23417905 0.074298866 -0.14718677 -0.07493321
0002d0 08 c9 83 3d 7d ba 8f bd c8 ae 9e bd 60 2f 84 3d
       0.06434828 -0.07017992 -0.07748181 0.064543486
0002e0 3e 49 5a 3e cb 9e 3d 3e 94 c8 3f 3d f9 dd e2 bc
       0.21317002 0.18517606 0.046822146 -0.027693735
0002f0 dd 77 46 be 66 a6 af 3d 74 77 21 be 3e 82 dd 3d
       -0.19381662 0.0857666 -0.15768224 0.10815857
000300 7e 38 17 3e 70 de 15 be a6 80 b5 3d 8f 53 f8 bd
       0.14767644 -0.14635634 0.08862428 -0.121253125
000310 9f 74 06 bd 20 a5 56 3d b5 de 95 bd e3 b6 9d 3d
       -0.032826062 0.05240357 -0.073178686 0.077008985
000320 cf 26 24 3e ff 7d ad bd 42 0a 1b bd c5 a5 b5 3d
       0.1603043 -0.084712975 -0.03785158 0.08869509
000330 d0 05 98 3d 6e d2 12 3e 86 90 73 bd 82 ef a5 bd
       0.07422984 0.14338085 -0.059464 -0.08102323
000340 67 01 1f 3e 79 72 2a bd 3b 86 0f be f0 c0 3c bd
       0.15527879 -0.041613076 -0.14016049 -0.046082437
000350 73 0e e2 bd 2d ac 6e 3c 2a b4 2d 3d 44 bd a5 bd
       -0.11037912 0.014567417 0.042408146 -0.0809274
000360 11 69 27 3e 0b 24 37 3d dc 9d d0 bd 08 e0 17 3e
       0.16348673 0.044712108 -0.10186359 0.14831555
000370 8a cd 07 3c a3 c0 82 bc 6a 54 15 3d 1c 2e 53 3d
       0.00828875 -0.015960997 0.036457457 0.051557645
000380 07 5c 9e 3d 5d ef 3b 3d 07 38 0d bd 05 4d 90 3d
       0.077323966 0.04588257 -0.03447726 0.0704594
000390 67 a6 08 3e bd b6 31 be fc 41 b7 bd 8c 90 9d bd
       0.13344727 -0.17354865 -0.089481324 -0.07693586
0003a0 e6 a0 87 bd 57 14 06 bd c5 b8 e0 bd 71 af d1 3d
       -0.06622486 -0.03273424 -0.10972742 0.10238541
0003b0 01 15 e7 bd 0b a0 e8 3d d4 4f 98 bc d5 96 d6 bd
       -0.11283303 0.11358651 -0.018592753 -0.10477988
0003c0 6d 3e e8 3d 08 4f 07 be c1 4c e0 3d e2 0d 08 3e
       0.11340032 -0.13213742 0.1095214 0.13286546
0003d0 71 9b b9 bd 0a 2a 3a bd b4 69 49 bd 6e 14 39 bd
       -0.09062851 -0.045450248 -0.049173072 -0.0451855
0003e0 b1 7b a4 bd ca 0d 42 be 50 5c da 3d 09 62 42 be
       -0.08031405 -0.18950573 0.106621385 -0.1898271
0003f0 e6 63 c3 3c 81 4c 27 3c 99 10 51 bd 7a 0b 04 3e
       0.023851346 0.010211111 -0.05104122 0.12895003

lstm.bias_ih_l1 f4 [512]
000000 e5 3d c4 bd 21 5f 46 bd 19 32 a5 bd 27 42 b3 bd
       -0.09582118 -0.048430566 -0.08066196 -0.08752852
000010 b1 7f d1 bd 4e 7b c9 bd 90 37 9f bd e3 5f 47 bd
       -0.10229433 -0.09837972 -0.077742696 -0.04867543
000020 0a 8f 10 bc 32 87 2f bb 86 b9 94 bd 09 eb 28 3c
       -0.008823166 -0.0026783464 -0.07261948 0.010309943
000030 ef f2 a0 bd 58 04 4d 3d d2 b6 45 bd 4a 9a eb bd
       -0.07858836 0.05005297 -0.048270054 -0.11504038
000040 70 ed a9 3c 6c d8 d6 bc f4 80 9c bd 65 c9 e4 bc
       0.020743102 -0.026226245 -0.07641783 -0.027928064
000050 67 92 be bd e9 83 17 be 9e 3d 80 bc a9 7b 43 bc
       -0.09305268 -0.14796413 -0.015654381 -0.011931338
000060 e2 64 07 be 0f 28 0a be 14 67 1b be 07 1f f7 bd
       -0.13222077 -0.13491844 -0.1517604 -0.12066465
000070 bc ee 54 be 4e 73 18 be e0 f3 08 be 8b 1a e0 bd
       -0.20794195 -0.14887735 -0.13374281 -0.10942563
000080 72 ed e9 bc 00 ce 62 bd 24 7a ac bd fa 9d 12 bd
       -0.028555606 -0.05537224 -0.08421734 -0.03579519
000090 dc 36 8b bd 34 9a 73 3d 6d e0 1a bc b7 17 24 be
       -0.06797573 0.05947323 -0.009452921 -0.16024671
0000a0 ed 57 4b bd 70 ab 1c bd 4f f7 6e bd 20 0e f1 3b
       -0.0496444 -0.038249433 -0.05834132 0.00735642
0000b0 fd 68 0a be 4d dc 03 be ce 9d ee 3c e7 9c 21 be
       -0.13516612 -0.12877007 0.029127982 -0.1578251
0000c0 60 f9 03 be 0f b8 f6 bd e5 ae 0a be 51 97 29 bd
       -0.12888098 -0.12046825 -0.1354328 -0.041404072
0000d0 62 2f ec bd 07 58 85 bd 38 bc 26 3d 5a c3 23 bd
       -0.11532475 -0.065109305 0.040706843 -0.039981224
0000e0 47 f8 92 bd db a9 5d be 82 a1 24 be 14 7e e1 bd
       -0.071762614 -0.21646826 -0.16077235 -0.110103756
0000f0 9f ee 36 bd 6f 4d 92 3b 09 80 e2 bd 30 35 b2 bd
       -0.04466116 0.004464797 -0.11059577 -0.08701551
000100 d8 10 3e bd be f1 5b 3d d2 4d 2c be fe dc 16 be
       -0.046402782 0.05369734 -0.16826561 -0.1473274
000110 6e e1 b8 bd ad 3a e0 bc 0f b3 42 be d4 74 c4 bb
       -0.09027372 -0.027371729 -0.19013618 -0.0059953723
000120 da a4 d5 bc 4a d5 fa 3c 22 5c 82 bd 18 f6 ff bd
       -0.026079584 0.030619282 -0.06365229 -0.124981105
000130 fd e8 24 be 79 83 ae bd a3 12 5b bd e2 26 94 bd
       -0.16104503 -0.0852117 -0.05348457 -0.07233979
000140 15 10 a5 bd db dc d5 3d 9e 2f ef bd 1d 8d 23 be
       -0.08059708 0.104425155 -0.11679004 -0.15971799
000150 dd 0b a2 bd 54 19 23 be 43 83 60 bd 36 d4 dc bd
       -0.07912419 -0.1592763 -0.05481268 -0.107826635
000160 58 0f 56 bd a2 25 d9 3b 1c 69 ba bd 2e 4b 8f bd
       -0.052260727 0.0066268006 -0.09102079 -0.06996761
000170 9c 85 31 be 1f b3 ad bd 2e 74 43 bd b6 da 73 bd
       -0.17336124 -0.0848143 -0.04771822 -0.05953475
000180 59 33 0e be a8 58 b9 3c cd 4e 92 bd ae 5c 0f be
       -0.13886775 0.022625282 -0.07143936 -0.14000198
000190 46 9d f8 bc 74 5f 05 be f6 27 af b9 b6 71 90 3d
       -0.030348431 -0.13024694 -0.00033408374 0.07052939
0001a0 0a d8 2b be 73 18 58 bd 5e 9f 30 bd b2 63 05 bc
       -0.16781631 -0.05275769 -0.043120734 -0.008141445
0001b0 b2 04 9b bd 94 38 56 be 08 c3 6d bc 06 7b 8a be
       -0.07569255 -0.2092002 -0.014511831 -0.27046984
0001c0 13 12 06 bd 6a dc dd bd 3e fb ef bd 33 49 e9 bd
       -0.03273208 -0.10833056 -0.117178425 -0.11390915
0001d0 18 6c 0f be 47 a4 a2 bc 93 0f 6f 3c 5b e9 12 3d
       -0.14006078 -0.019853724 0.0145911155 0.035867076
0001e0 fe cb 6b bd 3c 3b e8 bc a1 52 33 be e6 a0 5a ba
       -0.05756759 -0.028348558 -0.17511989 -0.0008340016
0001f0 54 e9 55 be 30 6c 16 bd f4 7b fe bd e9 09 f6 bd
       -0.20889789 -0.03672427 -0.12425986 -0.12013609
000200 22 89 3c bd c2 f1 8a bb fc a4 4e 3e 70 3c 8a 3c
       -0.046029218 -0.0042402456 0.20180124 0.016874522
000210 1c 24 f5 3c 0d 4e dd bd 00 48 da bd 9b 79 e4 bd
       0.029924445 -0.10805903 -0.10658264 -0.11156007
000220 1a c1 7b bb 8e 9c c0 bd 10 78 83 3d a1 a6 fe bc
       -0.0038414658 -0.094048604 0.064193845 -0.031085314
000230 1b 74 00 bd c9 82 f4 3d 5a 19 84 bd ba 59 1b 3d
       -0.031360727 0.11939008 -0.06450148 0.037927367
000240 88 84 22 bd 7d 28 43 3d 8d 57 e6 3c 31 58 d2 bd
       -0.039677173 0.047646035 0.02811792 -0.102707274
000250 06 ca ca bd c4 9c 86 bd 96 75 22 be c4 d9 5f bd
       -0.09901814 -0.065728694 -0.15865168 -0.054651037
000260 b1 85 10 be f9 40 f1 bd 49 d5 0c 3d 61 4b df bd
       -0.14113499 -0.11779971 0.034383092 -0.10903049
000270 bf 6c 48 be 66 48 7c 3c c4 d6 83 bd b1 d0 e4 bd
       -0.19572733 0.0153981205 -0.06437448 -0.11172617
000280 ae 1c fe bc aa d1 33 bd 2e 9c 2b bd f8 31 59 bd
       -0.031019535 -0.043901123 -0.04189699 -0.05302617
000290 06 e7 d7 bc c2 18 9e bd 90 c0 3f 3b fd ef 16 be
       -0.026355278 -0.07719566 0.0029259063 -0.14739986
0002a0 3d fb 0b be 03 f2 c1 bc 92 10 b0 bc b5 d2 d1 bd
       -0.13670059 -0.02367497 -0.021492276 -0.10245267
0002b0 82 93 c4 3d df 4a 91 bd 6e 1e a0 bd 20 f4 12 be
       0.095984474 -0.07094359 -0.07818304 -0.14350939
0002c0 9f 0f 17 bc 09 c7 03 bd 9b 59 3a 3b d9 96 10 3e
       -0.009220033 -0.032172237 0.0028434757 0.14120044
0002d0 4e 1f ac bd 09 e6 ce bd 23 ad 31 bd a5 da 21 bd
       -0.084044084 -0.101024695 -0.043378007 -0.039515156
0002e0 ad 0b 19 be eb 49 ac bd 4d 94 cf bd c9 46 50 bd
       -0.1494586 -0.08412536 -0.10135708 -0.050848756
0002f0 ad cf ca bd 35 6b 92 bd fc 66 bd 3d e7 01 0d bd
       -0.09902892 -0.07149354 0.09248158 -0.034425642
000300 dd 33 a5 3a 5e 27 04 3d 5b 0e 1d bd 5f 03 e8 bd
       0.0012603957 0.032264106 -0.03834377 -0.11328768
000310 16 49 cd bd af 4e aa bd 1d 87 02 be 0b ff a0 bd
       -0.10023706 -0.08315789 -0.12746854 -0.078611456
000320 c6 79 0c 3c 3c 63 8b bd d6 3f d5 bd ad 8f a6 bd
       0.008573955 -0.06806037 -0.10412566 -0.08132873
000330 2e 53 c9 bd 79 33 6d bd b6 67 a4 bc da 76 bf bd
       -0.098303184 -0.057910416 -0.020068984 -0.09348841
000340 7c ae 92 bd 3c 4b ea bd 35 d8 62 3c fd 4c 80 bd
       -0.071621865 -0.11440131 0.013845493 -0.06264684
000350 c1 48 c8 bd 9f 26 6a 3d b0 a2 86 bd d8 4b 48 3d
       -0.09779502 0.05716574 -0.06573999 0.048900455
000360 c9 ac eb 3c ed 0b 50 bd a1 85 ff 3c 3b 5f a9 bd
       0.028768914 -0.050792623 0.031191649 -0.08270117
000370 2a cb a5 bd 80 a0 cd bb ed 55 c1 3c cb 99 a6 bb
       -0.08095391 -0.0062752366 0.023600543 -0.0050842515
000380 2b 49 a3 bd bc a6 b5 bd c3 2a e5 3c 63 47 23 be
       -0.0797294 -0.08869693 0.027974492 -0.159452
000390 1b c6 14 be ca 07 6d bd b1 46 e7 3c 69 43 66 3e
       -0.14528696 -0.057868756 0.02823195 0.22486652
0003a0 c6 a4 d2 bd cf 89 ff bd 98 4e 38 3e 38 81 0d be
       -0.10285334 -0.12477457 0.17998731 -0.13818824
0003b0 9d a2 00 be 48 02 24 bd 45 25 8e bd 5f 50 08 be
       -0.12562032 -0.040041238 -0.06940702 -0.13311909
0003c0 fe f1 ac bc 6e db a6 3d 6d b3 a6 bc 9a 42 c2 bd
       -0.021111485 0.08147322 -0.020349229 -0.094853595
0003d0 1c 76 cf bb 41 cd 8a bd 1a 1a e1 3c 2e 6b 73 3d
       -0.0063312184 -0.0677743 0.027478267 0.059428386
0003e0 46 6c 74 3b 60 6a 0d bd 3b ee bd bd b7 ea be 3c
       0.0037295981 -0.034525275 -0.092739545 0.02330528
0003f0 b0 cc ea bd b2 73 ee bc 34 a5 19 3d 6c d7 06 be
       -0.11464822 -0.029107902 0.037511066 -0.13168114
