model/model_weights_ConcentratePressure.pth (torch, 921455 bytes, 14 tensors)

lstm.weight_ih_l0 f4 [512, 10]
000000 de 2e b6 bd 88 3c ac 3c 11 59 33 3c ff d1 b3 bd
       -0.08895658 0.021024957 0.010946528 -0.08780288
000010 3c 1f 47 3d 21 35 3c 3d 4b dc 34 bd 09 d9 9b 3d
       0.04861377 0.045949105 -0.0441554 0.076097555
000020 72 e3 ab bc 9b 25 dd bd 88 c0 24 bd ac c7 a8 bc
       -0.020982478 -0.10798188 -0.040222675 -0.020603023
000030 6e 5e df ba 15 36 b2 bc ee af d1 3d 99 85 50 bd
       -0.0017041692 -0.021754304 0.10238634 -0.05090866
000040 64 d9 24 3d 53 5c 33 3d ad 51 29 bd c1 52 b8 bc
       0.040246382 0.04378922 -0.041337658 -0.022500398
000050 66 b6 ab 3d b7 fe 62 bc 3a 28 ab bc b9 49 9d 3b
       0.08384399 -0.013854674 -0.020893205 0.004800048
000060 32 39 0b 3d 49 61 87 bd 79 6a 40 bd e0 41 c4 3d
       0.033990093 -0.066103525 -0.04697654 0.09582877
000070 64 21 64 3d d9 23 2e 3d d0 3b 1d bd 88 1d 6d bb
       0.055695906 0.042514656 -0.03838712 -0.0036180932
000080 16 6c 8f 3d f3 e5 67 bd 11 f8 a3 3d 84 d2 ff bb
       0.07003038 -0.05661578 0.08006299 -0.007807078
000090 17 09 9d 3d eb e4 3b bd d2 6c 8f bc 95 cb e8 3c
       0.076677494 -0.04587261 -0.017507944 0.028417388
0000a0 63 21 fa 3c f8 fc 1d bd 5b 38 7a bc 6a 83 01 bd
       0.030533498 -0.038571328 -0.015272225 -0.031619467
0000b0 da e4 9e bd d1 83 92 3d 5c d3 99 3d bd b2 ef 38
       -0.07758494 0.07154048 0.07511017 0.00011429701
0000c0 06 6f cf bd 25 c8 cf bb 78 a1 e7 3d be 6b 0c bd
       -0.10128598 -0.0063409978 0.113100946 -0.03428244
0000d0 76 15 cc 3c 63 54 31 3d a2 4f 8a bd 82 95 c9 bd
       0.024912577 0.043293368 -0.0675347 -0.098429695
0000e0 be c6 0d 3c a3 1d d5 3b 34 92 01 bd 28 ed 8d bb
       0.008653341 0.006503777 -0.03163357 -0.0043312497
0000f0 da 2d a4 3d 4b d9 29 bd c0 7d f2 3c 00 78 03 be
       0.08016558 -0.041466992 0.029600978 -0.12838745
000100 7b d1 29 bc 92 b9 bd bc d1 ba 4b 3d 55 ef c6 3c
       -0.010364885 -0.023159776 0.04973871 0.024284044
000110 51 85 3a bd 21 cb bf 3c 4d b0 e6 bd cb 33 86 bc
       -0.045537297 0.02341229 -0.112640955 -0.016382119
000120 5f eb 54 3d 78 77 07 3d 09 54 e0 bc 99 f1 6b 3d
       0.05198228 0.03307292 -0.027383821 0.057603452
000130 5d ab f1 3d 2e 9e 98 bd 6f bd 83 3c c0 12 71 3d
       0.11800263 -0.074520454 0.01608154 0.058855772
000140 25 f8 67 3d f9 db 4d bd 3c 5a 99 bd f4 75 3f 3d
       0.056633133 -0.05025861 -0.07487914 0.04674335
000150 4c 42 c2 bd cd bd a1 bd 49 55 82 3d f6 76 93 bd
       -0.094853014 -0.0789753 0.06363923 -0.072004244
000160 2e 56 38 bd 9e 33 7a bd af 3b 29 bd fa 4f 60 3d
       -0.045004062 -0.061084382 -0.041316684 0.05476377
000170 05 12 1a bc 76 84 3b 3c 8d 15 c1 3c 89 cc b4 3b
       -0.00940371 0.011445155 0.023569847 0.0055175466
000180 a6 6d 7c 3d ea b1 e9 3c 53 f2 ab 3c ee ab 80 3c
       0.061628006 0.028527219 0.020989573 0.015706982
000190 de f1 6b 3d ea 68 6e bb 2d 7f f9 bc 2e c7 51 bd
       0.05760371 -0.0036378452 -0.03045615 -0.051215343
0001a0 17 fd 88 bb 70 d6 99 3d f3 0d 11 3d c3 48 4c bd
       -0.0041805613 0.07511604 0.035413694 -0.04987408
0001b0 e7 bc 15 ba b4 ce dd 3c f9 84 2f bd e7 8c d9 bd
       -0.00057120476 0.027076103 -0.042851422 -0.10622578
0001c0 60 96 3d 3d 59 df 94 3d 50 15 91 bb 66 fe 46 3d
       0.046285987 0.07269163 -0.0044275895 0.048582457
0001d0 a4 c2 37 bd 97 f7 81 3d da 9b 3c 3b 45 03 24 3d
       -0.04486336 0.06346052 0.0028779418 0.04004218
0001e0 5a 67 ef bd ca 10 7c 3d 0e 5f 98 3d b8 fe 8b bc
       -0.116896346 0.06153945 0.07440005 -0.017089233
0001f0 6c 6d 63 bb b4 11 7d 3d 3d 8c 97 bc 91 c0 8b 3d
       -0.0034702672 0.06178446 -0.018499488 0.068238385
000200 92 ec ad bd 97 54 4c bc 09 6d 23 3e 60 67 8e bd
       -0.08492388 -0.01247134 0.15959562 -0.06953311
000210 7d ae 14 3d 5d ef b1 bb e8 9f 63 bb 66 20 36 3c
       0.036299217 -0.0054301457 -0.0034732763 0.011116123
000220 44 2d 86 bd 2c f7 da bb 50 64 da 3c d4 47 78 3d
       -0.065516025 -0.006682297 0.02665916 0.060615376
000230 11 b8 96 3d 70 84 e8 bc 37 4b a8 bd 6e e7 00 bb
       0.07359327 -0.028383464 -0.08217471 -0.0019669193
000240 25 fe 03 bb 93 96 53 bd 4e 8b f8 3c 65 cb 28 bd
       -0.0020140496 -0.05165727 0.030339863 -0.041209597
000250 8c 0f 52 3c 23 13 61 3c 19 64 5f bc 18 2b 80 bd
       0.0128210895 0.013737473 -0.013634705 -0.062582195
000260 be 09 0f bd 11 e1 4f bd 13 9e 9a bd ce 84 18 3d
       -0.0349214 -0.05075175 -0.075496815 0.037236027
000270 9a 96 d8 bd f3 08 8d bc 38 0e f2 bd 1b 0e 66 bd
       -0.105756 -0.017216181 -0.11819118 -0.056165796
000280 98 0e 03 be 41 8a 82 bd 9c ea c2 bd 2d b3 3c 3c
       -0.12798536 -0.06374026 -0.095174044 0.011517328
000290 c4 cd a0 bd 5d d8 c8 bd 3a 26 6b bd 4d b8 24 3d
       -0.07851747 -0.09806893 -0.057409503 0.040214825
0002a0 0c e4 80 bc f9 b6 62 bc 51 2e df bd 53 0a 63 bd
       -0.015733741 -0.013837569 -0.10897506 -0.055429768
0002b0 59 c1 ff bc 5b 08 56 bc 11 03 2b bd 35 f7 a2 bc
       -0.031220125 -0.013063516 -0.04175097 -0.019893268
0002c0 ff 9a 40 3d b7 f8 6b bd ea 8b 03 bd 5c 73 51 3d
       0.047022816 -0.05761024 -0.032115854 0.051135406
0002d0 f4 bb f3 bd af b4 5a 3d 35 a4 b0 bb 01 51 83 3d
       -0.119010836 0.05339497 -0.0053906688 0.06411935
0002e0 d0 2a 84 3d f5 48 3e 3d 17 24 59 3d 3b d7 8f bd
       0.06453478 0.046456296 0.053012934 -0.07023474
0002f0 26 2f 8a bd a0 e0 82 3d 3d 42 11 be df 48 42 3d
       -0.06747274 0.063905 -0.14185424 0.047432777
000300 3d a0 b1 bc 50 80 0e 3d 8c bb bc 3a 3d 31 ec 3d
       -0.021682853 0.034790337 0.0014399155 0.11532829
000310 3a 50 9d 3d 97 8b bf bd 6a 94 7a 3c bd 95 59 ba
       0.076813176 -0.093527965 0.015294174 -0.0008300206
000320 f6 2b d9 bb 0e 1c 9c bd d4 cc 98 bd 50 e4 be bd
       -0.006627555 -0.076225385 -0.07460943 -0.09320891
000330 f9 8f e2 bd b8 76 2b bb d7 ca ef 3c 9a 9e ae bd
       -0.11062617 -0.0026163291 0.029271526 -0.085263446
000340 5b d8 4e bc 2a 29 ab bd 8a 54 f5 bd fb 69 c7 bd
       -0.012624825 -0.08357461 -0.11979015 -0.09737011
000350 3a 7b 9b 3c 24 3b 15 bc a7 5a 9e 3c 17 f1 8b 3d
       0.018979657 -0.0091083385 0.019330336 0.068330936
000360 23 66 b5 bd f1 6b 35 3d a9 4c 20 bc 3c 40 d1 3c
       -0.08857372 0.044292394 -0.009783902 0.025543325
000370 d5 ab 43 bd 0f e4 6a 3d 6b cf dc 3c b2 f9 98 3d
       -0.047771294 0.0573464 0.026954373 0.074695006
000380 d7 72 6c bd 38 1e 6a bd 12 74 9e bc 5c ba d0 bb
       -0.057726707 -0.057157725 -0.019342456 -0.006369872
000390 1a 5b a3 bc 5b c1 a8 bd e0 d4 c0 bd 89 1f 8b 3c
       -0.019940902 -0.08240005 -0.09415603 0.01698281
0003a0 0d 38 d8 3c f6 79 70 3d db e9 3a bd 16 bd 22 bb
       0.026393915 0.05871006 -0.04563318 -0.0024831942
0003b0 75 40 fc 3c e0 43 be bd 55 98 32 3d 04 0f 4c 3d
       0.030792454 -0.0929029 0.043602306 0.049819008
0003c0 5c a6 06 3e 12 dc c5 3c 61 30 50 bd 93 e5 f2 3a
       0.13149399 0.02415279 -0.050827388 0.0018531553
0003d0 11 da 74 3d 2f ca a5 3d 0c 20 b2 3d ee 43 40 3b
       0.059778277 0.08095204 0.08697519 0.0029337364
0003e0 82 2f ad 3d b3 52 1a 3d b6 f7 0d be 8a 37 42 3d
       0.08456327 0.037676524 -0.13864025 0.047416247
0003f0 a8 a6 aa bb b6 f3 af bc 1e c5 7e bd 48 6b 67 3d
       -0.0052078553 -0.021478515 -0.062199704 0.056498796

lstm.weight_hh_l0 f4 [512, 128]
000000 5a 8d 7f 3d da 3b 4f bd 6e ca 33 3d d6 e9 28 bb
       0.062390663 -0.05059419 0.043894224 -0.0025774143
000010 e1 38 d6 bb f4 3f 0e bd 70 73 e9 bd 30 05 3d bd
       -0.006537542 -0.03472896 -0.11398971 -0.046147525
000020 24 03 a2 bb 4a d3 c1 3d 9e 44 84 3b 69 bc 77 3b
       -0.004944222 0.09464128 0.0040365 0.003780151
000030 8f 6a 0b bb 6d 4b b4 3d 79 70 cd 3d dd da 78 bd
       -0.002127323 0.08803449 0.10031218 -0.0607556
000040 18 a7 68 bd a3 13 fb bc 5c e1 7b bd 35 27 54 3d
       -0.056799978 -0.030649012 -0.061494216 0.051795203
000050 26 38 a6 bc 9a 7b e9 3c 21 e1 10 3d 16 cd 29 3c
       -0.020290446 0.02850132 0.03537095 0.010363838
000060 42 20 f8 3d e3 1f 85 bd dd 57 a4 3d b0 23 ca bd
       0.12115528 -0.065002225 0.08024571 -0.09870088
000070 a2 e9 a8 3c 3e e8 17 3e 53 9c e3 bb e8 68 44 3d
       0.020619217 0.14834687 -0.0069461255 0.04795161
000080 0d 5e 58 bd 5a d8 33 3d 94 17 bd 3d e8 e0 75 bd
       -0.05282407 0.0439075 0.09233013 -0.06002894
000090 ac 8e df 3c b6 c3 70 3c 4a f8 a4 3d b2 ad f3 3d
       0.027289711 0.014695099 0.0805517 0.11898364
0000a0 0e 9e 92 3d 7f 40 47 bc 67 bd ab 3d 4e a6 90 3d
       0.07159053 -0.012161373 0.08385735 0.0706297
0000b0 ea 16 9d 3c 61 12 3c 3d fd 1a 4b bd 88 9b 2b 3d
       0.019175965 0.045915965 -0.049586285 0.041896373
0000c0 4d ee 34 3d db fe fb bc a6 13 12 3d b1 54 96 3d
       0.044172574 -0.030761173 0.03566327 0.07340372
0000d0 6c 01 73 bd 11 6d cd 3b f7 ac 93 3c 04 af 88 3d
       -0.059327528 0.0062691052 0.018026812 0.066740066
0000e0 e0 e8 67 bd 00 f4 a1 3d 70 3f 93 3c e1 0d 9c bd
       -0.05661857 0.079078674 0.017974585 -0.07619835
0000f0 2b d0 0c 3e a7 6b f3 3d 90 34 1c bd dd c6 5d bd
       0.13751285 0.118857674 -0.038136065 -0.05414473
000100 0a 6c 04 bb f8 ec 30 bd e8 13 92 bd e9 6f 08 bd
       -0.0020205998 -0.04319474 -0.07132703 -0.03330985
000110 04 b4 44 3d 51 d1 58 bd 8c e4 b2 bc ad cf 63 bd
       0.04802324 -0.052933995 -0.021837495 -0.055617977
000120 de a3 7a 3d c2 9c 8f bd 7c 3a f1 bb 69 fe cb bd
       0.061191432 -0.07012321 -0.007361708 -0.09960634
000130 53 ce fb 3c 9e f8 34 bd d6 74 4c 3d 27 24 82 3d
       0.030738031 -0.044182412 0.04991611 0.06354552
000140 c1 ee 59 3d f8 8a 85 bd e2 d1 c6 bd 31 fe 7d bc
       0.05320621 -0.06520647 -0.09708001 -0.0155024985
000150 3a 14 bf 3d 77 8f 1a bc 9f 21 4d 3c 9b 91 ba bd
       0.0933003 -0.009433619 0.012520223 -0.09109803
000160 ac 8b 6d bc c0 36 d6 3c 8a f0 b2 bd 31 62 62 3d
       -0.014498632 0.026149154 -0.087372854 0.055269424
000170 ba 49 85 bd 19 33 4f bd a8 63 1e 3c 62 07 5a 3d
       -0.06508203 -0.05058584 0.009667315 0.053229697
000180 c4 84 8e bb a9 f2 9c 3d 6e 03 8d bc 24 45 8c bd
       -0.004349323 0.07663471 -0.01721355 -0.06849125
000190 7d 79 bb bd 5f e8 fa 3c fc c8 0f bd d4 5b 9c bd
       -0.091540314 0.030628381 -0.035103783 -0.07634702
0001a0 ee 14 20 3c 16 f2 f0 3d df 0d eb 3b 26 62 d1 bd
       0.009770615 0.11764924 0.0071732844 -0.102237985
0001b0 5e 98 f0 3c fc 3b 24 bd 75 86 9c bd d9 a8 59 bd
       0.02936953 -0.040096268 -0.07642833 -0.05313954
0001c0 2a ae b7 bd d2 80 a2 3c b6 b6 b6 bd a8 79 96 b9
       -0.08968766 0.019836817 -0.08921568 -0.0002870087
0001d0 5c 8b c4 3d 3f 31 31 bc dd 9b 85 bb 99 84 5a 3d
       0.09596893 -0.010814964 -0.0040774182 0.05334911
0001e0 df 6a ee 3d a6 1b 37 ba 91 48 90 3d 29 96 85 bd
       0.11641478 -0.0006985016 0.07045091 -0.065227814
0001f0 30 cc 2c bd bb 0b 0b bd a6 86 ba 3d 5e a0 2f bd
       -0.042186916 -0.033946734 0.091077134 -0.042877547
000200 29 8d 76 3c 09 d4 41 bd d7 2a 03 3d 45 d0 91 3d
       0.015048304 -0.047321353 0.032023277 0.071198024
000210 e6 f6 86 3b 57 eb 86 3d 43 c2 35 bd 71 96 94 3c
       0.004118788 0.06587856 -0.044374716 0.018138142
000220 e6 96 a9 bd 90 d7 2f bd 72 99 08 bd ce 06 88 bd
       -0.08280735 -0.042930186 -0.03334946 -0.06641923
000230 e9 49 b3 3b 26 fc 8c 3d bf 09 e1 bc 6e 34 4a 3d
       0.0054714573 0.06884031 -0.027470468 0.049366407
000240 78 e0 a4 bb e3 9a 9d bd 9e e2 42 3d 32 3f 98 3c
       -0.0050316416 -0.07695558 0.0475794 0.018584821
000250 32 97 64 bd 7a 0a a2 3c 61 69 ca bb 45 0d a1 bd
       -0.055808254 0.019780386 -0.006177113 -0.07863859
000260 46 45 21 3d c6 80 82 bd b8 c4 88 3d 13 5b cb bb
       0.039372705 -0.06372218 0.06678146 -0.0062059253
000270 e1 7d 98 3d 7f 8a 83 3d 99 c0 8b bd 12 e8 90 bd
       0.074458845 0.064229004 -0.068238445 -0.07075514
000280 e6 e5 73 3d 97 b1 ae bb 51 d9 a3 3d 2c 1f 23 bc
       0.05954542 -0.005331229 0.08000434 -0.009956162
000290 47 eb 28 3d 89 88 81 3d 5b bf b8 3b cb e8 7b bd
       0.041240003 0.0632487 0.0056380457 -0.061501306
0002a0 f8 09 c8 bc 67 5f 49 bd 4d 3d a8 bc 8b d9 81 bd
       -0.024418816 -0.04916325 -0.020537043 -0.06340321
0002b0 f7 24 69 3d 25 14 e9 bb 6a 94 b9 3c d2 a9 83 3d
       0.056920018 -0.007112997 0.022653777 0.06428875
0002c0 29 73 dc 3c 25 e6 8d 3d 34 04 8e 3b 08 12 06 3c
       0.026910381 0.06928662 0.004333997 0.00818301
0002d0 00 5a 96 3d c0 2c a1 3d e1 55 65 bc 6e 41 1f 3d
       0.07341385 0.078698635 -0.013997526 0.038880758
0002e0 ca 49 0e 3d 17 e0 f8 3c 6e 83 81 3d 1d cc 50 ba
       0.03473834 0.030380292 0.06323896 -0.00079649856
0002f0 1d 1e 7b bc bb b4 bd bb 59 17 40 3d 45 f9 00 3c
       -0.015327004 -0.005789367 0.046897266 0.0078719305
000300 55 b9 78 3d de 3a 3f bd cd 70 85 bd 83 c4 dd bc
       0.06072362 -0.046687 -0.06515656 -0.027071243
000310 98 ed 51 bd ba 2c 94 3d c6 28 a7 bd bd e1 ff 3b
       -0.051251978 0.072350934 -0.08162074 0.0078088925
000320 47 3f be bd 56 e3 8a bd 5d 6e d0 3d 3c 7e 7e 3d
       -0.09289413 -0.06781642 0.101773 0.062132105
000330 24 75 08 3d bf 73 85 3c 2c 06 58 bd 21 10 08 3d
       0.03331484 0.016290544 -0.05274026 0.033218507
000340 02 d9 8b 3d 42 08 46 bd a3 10 4c 3d f0 f6 8b bd
       0.068285 -0.04834772 0.049820554 -0.06834209
000350 8a 12 13 bd ea f7 95 3d d9 51 49 3d 9a 6b 1e 3d
       -0.035906352 0.073226765 0.04915032 0.038676836
000360 80 dd 13 bd 30 4b 42 3d 88 f8 16 3d b9 14 9e bc
       -0.03609991 0.047434986 0.03685811 -0.01929699
000370 5f 9b 9c bd b5 d6 51 3d fe 73 c3 3b 85 77 c3 bc
       -0.07646822 0.05123015 0.005964755 -0.023860702
000380 6a 71 09 bd 47 df aa 3b 88 ec d5 bb 21 a3 2f bc
       -0.033555426 0.005214605 -0.006528441 -0.010720045
000390 f1 aa 78 3d e2 97 a7 3d e0 b5 15 3d 78 36 2a 3c
       0.060709897 0.08183266 0.036550403 0.010388963
0003a0 64 03 cc 3c 7e ce c1 3d a9 f4 81 3d ca c2 bb bc
       0.02490396 0.094632134 0.06345493 -0.022920031
0003b0 c0 2d 17 3d 6f c0 b0 bc 44 38 a9 3d c1 da 68 bc
       0.036908865 -0.021576134 0.08262685 -0.014212311
0003c0 1b 8e 57 bc 34 a2 c1 3a a6 57 22 bd a7 54 80 bc
       -0.013156439 0.0014773072 -0.03963437 -0.015665365
0003d0 96 c0 ab bc ce 56 5d 3d 80 2d 56 3d 44 22 a3 3d
       -0.020965856 0.05403786 0.052289486 0.0796552
0003e0 f4 87 7a bc 30 2a 9f bd f4 62 95 3d 8e 83 81 bd
       -0.015291203 -0.077717185 0.072942644 -0.0632392
0003f0 b2 ec 59 bc c4 db 24 bd e1 d3 01 3d ff c7 4f bd
       -0.0133010615 -0.040248647 0.031696204 -0.05072784

lstm.bias_ih_l0 f4 [512]
000000 1f c2 11 3c ba 57 80 bd a0 f6 a3 3c 01 bd 55 3b
       0.00889638 -0.062667325 0.02001506 0.0032613876
000010 e8 73 c2 3d bb 34 2e bd 77 17 1b bd 93 84 0d bd
       0.094947636 -0.042530756 -0.037864175 -0.03455026
000020 7c ed 99 3d 7e ab 6e 3d e0 85 9f 3d 7e 33 91 3d
       0.07516 0.058269016 0.077892065 0.070898995
000030 33 f9 2b bd a7 e0 f3 bc 81 b3 08 bd cc 33 c4 3d
       -0.0419857 -0.029770209 -0.033374313 0.09580192
000040 c9 d6 15 3e 1e c8 f2 bd e8 c4 48 bd 11 9b eb bc
       0.14632715 -0.118545756 -0.04901591 -0.028760465
000050 6e 7b e5 3b e5 d4 96 3d 93 c2 3c 3b a9 20 78 bc
       0.0070032394 0.07364825 0.0028802499 -0.015144506
000060 aa f1 e2 bd 83 0c 02 3e 22 8a a0 bd 8d 95 b4 bd
       -0.1108125 0.12700085 -0.07838847 -0.08817587
000070 20 bc 69 bd 11 a2 5e bc 9e b3 44 bd d4 1c 56 3a
       -0.057064176 -0.013588444 -0.04802286 0.0008167748
000080 2a 59 12 3e 16 41 09 3e 89 a8 88 bc a1 e4 af 3d
       0.14291826 0.13403735 -0.016681926 0.085885294
000090 56 64 cf 3d a8 39 78 bd 52 9b a6 bc 96 6a 19 be
       0.101265594 -0.06060186 -0.020337734 -0.14982066
0000a0 b2 9f 72 bd 51 bc 5a bc 81 99 0c 3d 4b b9 a2 3a
       -0.05923433 -0.013350562 0.03432608 0.0012414841
0000b0 81 26 65 3c 58 38 d2 3c 4d dc 05 bd ff 89 1b 3a
       0.013986231 0.025661632 -0.0326808 0.0005933344
0000c0 83 b9 55 3d 26 aa b5 bd fa 7a bd 3d cc e8 e5 3d
       0.05217887 -0.08870344 0.092519715 0.11226043
0000d0 1e 7a aa bc 8f 72 bc 3d 56 4c cf 3a 2f 1a ba bd
       -0.020810183 0.09201538 0.0015815597 -0.090870254
0000e0 a7 75 40 bc 28 fd 98 3b 82 3c bf 3d de 54 bd 3d
       -0.0117468005 0.0046688505 0.09337713 0.09244703
0000f0 83 b2 87 3c 46 f9 60 bd 0d df a5 bd 09 4a 84 bd
       0.016564613 -0.054925226 -0.08099184 -0.064594336
000100 5c 88 0e bd 6c ec 90 bd 9e bb 88 3d 5c 50 f5 3d
       -0.03479801 -0.07076344 0.0667641 0.11978218
000110 61 31 58 3c b0 69 ec 3c c7 78 d1 bd 8d d4 cc bc
       0.013195367 0.02885899 -0.102281146 -0.025003696
000120 2d 51 d7 bd a3 5d ec bc 31 13 07 bb dc c2 15 3d
       -0.1051353 -0.028853243 -0.0020610804 0.036562786
000130 6d 69 a5 3c 2e f7 1a bd 01 d4 bb 3d cf e8 f4 bc
       0.020191872 -0.037833385 0.09171296 -0.029896168
000140 5f 0f 92 bd 16 de 2f 3d ad c3 c9 3c 7a f6 d6 bc
       -0.07131838 0.042936407 0.024629438 -0.026240576
000150 87 51 5a 3d 7b 1d 71 bd 44 38 ba bd 95 d1 8f 3d
       0.053300407 -0.058866005 -0.09092763 0.070223965
000160 20 16 ff 3d 1c 9f 8e 3d dd 9d 56 3d ea 88 7e bb
       0.12455392 0.069639415 0.052396644 -0.0038838931
000170 0a d3 5f bd 21 99 1e 3d 20 0a 62 3d e9 47 3a 3e
       -0.054644622 0.038720254 0.055185437 0.18191494
000180 d4 de 20 3d 06 2e 86 3d b7 f1 54 3d 79 74 d0 3d
       0.039275005 0.06551747 0.05198833 0.101784654
000190 11 53 8a 3d 54 87 33 3d 7a 04 33 3d df 15 6f bc
       0.06754125 0.04383023 0.04370544 -0.014592617
0001a0 14 d5 8e bc 5e cf 9d 3a 39 50 59 bc 7e f3 4c bd
       -0.017435588 0.001203995 -0.0132637555 -0.0500369
0001b0 4b c1 f3 3d 24 06 02 3e ea e9 a8 3d 62 fe 20 3e
       0.11902102 0.12697655 0.082477406 0.1572204
0001c0 3d e3 f9 3c 57 77 77 3d 71 1f 03 3e 71 59 b4 bd
       0.030503863 0.060416546 0.12804963 -0.08806122
0001d0 ff 2f 5d bd e6 79 a2 3c 8b 08 20 3d c1 b9 9b bc
       -0.05400085 0.019833516 0.039070647 -0.019009473
0001e0 96 a4 7f bd b1 04 16 3d aa 8f bb 3b 2b 1c 3b bd
       -0.06241282 0.036625568 0.005723913 -0.04568116
0001f0 7b fd 0b bd 0c 81 a2 bd 2b 12 27 3d e1 dc 92 3d
       -0.034177285 -0.0793477 0.04078881 0.071710356
000200 0e ab 08 be 2c 0a 1f bc 03 49 d7 bc fe b5 06 be
       -0.13346502 -0.009707015 -0.026279932 -0.13155362
000210 7c 52 71 3b c2 1c 2b be 31 2c 29 3c 68 57 e5 bd
       0.0036822846 -0.16710189 0.010325477 -0.11198312
000220 42 d9 0d be b8 57 51 bd de 8e 75 bd 16 52 a4 bd
       -0.13852409 -0.051109046 -0.059950702 -0.08023469
000230 09 00 f3 bd cd 4a 8a bd 0e 2d 01 be d2 89 00 be
       -0.11865241 -0.06752548 -0.12614843 -0.12552574
000240 32 c4 04 3c c1 f4 a9 bd 7b 73 c7 3c ed 2a d7 bd
       0.008103417 -0.08298636 0.024347058 -0.10506234
000250 32 b7 34 3c 80 80 e1 bd 73 1c 8a bc f8 5a 96 bb
       0.011030005 -0.110108376 -0.016859269 -0.004588481
000260 1d aa 70 bb 78 e6 c9 bd b1 5a 7c bd 03 00 5a 3c
       -0.003672249 -0.098584116 -0.061609928 0.013305667
000270 c7 b0 37 bd ed 41 02 be 36 36 ec bd d9 9a eb bd
       -0.044846322 -0.12720461 -0.115337774 -0.11504144
000280 33 e3 fd bd ab 9d 1f be 7f f0 07 be ba aa 8a bc
       -0.123968504 -0.1558749 -0.13275336 -0.016927112
000290 13 eb f9 bd 20 32 64 bd 34 7e 51 bd b0 4a 19 3a
       -0.1220304 -0.055711865 -0.051145747 0.0005847616
0002a0 a5 56 4e 3d 6f 77 5e bd ff 99 1d be 14 37 7a bd
       0.0503756 -0.05431312 -0.15390776 -0.061087683
0002b0 d9 13 3f bd fc 0a 1f bd b1 e1 c4 bd 69 e6 8e 3c
       -0.046649788 -0.038828835 -0.0961336 0.017443852
0002c0 36 3a 05 bd 20 91 dc 3c 21 3f a3 bd 48 c9 4a bd
       -0.032526217 0.02692467 -0.07971025 -0.049508363
0002d0 9a c1 04 be c3 ed 9d bd 2e 1d 1e 3d 40 73 0a bd
       -0.12964478 -0.07711365 0.038602047 -0.033801317
0002e0 52 6b f5 bd 3c 2b fb bc 69 6b e0 bc f8 48 19 be
       -0.1198336 -0.030660264 -0.027394967 -0.14969242
0002f0 ce 52 55 bd 8e 4d 0d be 21 10 21 be b5 76 14 be
       -0.05208092 -0.13799116 -0.15728809 -0.14498408
000300 a1 5b a9 bd ee 88 dc 3b 45 8b ba bd 98 c6 05 3b
       -0.0826943 0.0067301905 -0.09108595 0.002041256
000310 32 8f 6a bd 46 5a cf bd 0c 9a a6 bd 32 f8 b6 bb
       -0.057265468 -0.1012464 -0.08134851 -0.0055837864
000320 d4 2c 0e 3d 7e fc 37 bd 44 49 b3 bb a8 1a e1 3d
       0.03471072 -0.04491853 -0.0054713804 0.109914124
000330 51 b9 13 3c 2d 44 b2 3d 99 45 c4 bd 93 5a 3c 3d
       0.009016351 0.0870441 -0.09583587 0.045984816
000340 5c 8d fd bc d8 f3 c4 bd e5 e8 af 3b e2 17 ac bd
       -0.030951194 -0.09616822 0.0053683394 -0.08402993
000350 41 3f 20 bd 93 15 9d bd df 77 81 bd f7 f7 ca 3c
       -0.039122824 -0.076701306 -0.06321692 0.024776442
000360 53 5d 20 bd 7e e5 87 bd 71 07 03 be 1c ef 94 bd
       -0.0391515 -0.06635569 -0.12795807 -0.07272169
000370 85 6c 3f 3d 66 9d 8d bd 3f eb c0 bd 7b 8a ac bd
       0.04673435 -0.06914787 -0.0941987 -0.084248506
000380 ab 5e d6 bd e7 8c 82 bc 08 c9 cb bd b4 27 cc bd
       -0.10467275 -0.015936328 -0.09950453 -0.0996851
000390 15 4f 0f be 5d 43 02 be c8 1f 8f bc 54 35 f1 bc
       -0.13995011 -0.1272101 -0.01747121 -0.029444374
0003a0 51 dc 1b 3d 3f bb 9e bd af 36 db 3c 3a 4c 46 3d
       0.038051907 -0.07750558 0.026759474 0.04841254
0003b0 95 46 b9 bd 92 d4 d9 bd ce 51 83 bd 64 a5 04 be
       -0.090466656 -0.10636248 -0.064120874 -0.12953717
0003c0 11 d7 4b 3c d7 5e 86 bd 7d 2c 43 bd 85 44 3a bd
       0.012441413 -0.06561058 -0.04764985 -0.0454755
0003d0 5f a5 cd bd e4 22 9b 3c c2 b2 a3 bd 6a 37 8e bd
       -0.10041308 0.018937536 -0.0799308 -0.06944163
0003e0 2b 7f 6c 3c a4 62 86 bb 6e b8 3c bc 5c 1d 58 bd
       0.014434616 -0.0041011143 -0.011518581 -0.052762374
0003f0 10 c0 03 3d 1f 02 90 bc 37 d9 77 bd 8f 86 a8 bd
       0.032165587 -0.017579136 -0.060509887 -0.0822879

lstm.bias_hh_l0 f4 [512]
000000 a0 62 78 bd 02 0d 91 3d bf 76 fd 3c 9a 5c 4f 3d
       -0.06064093 0.07082559 0.030940412 0.05062542
000010 48 54 9d bc ba ee 7b bd 23 25 81 bd a2 9e 6a 3d
       -0.019205227 -0.061506964 -0.063059114 0.05728019
000020 fd 3d 13 3e 13 5d 3c bc 93 8b 68 3c 0c 8a 02 3d
       0.14379115 -0.0114968 0.014193433 0.031869933
000030 74 c4 10 3d 99 6d 61 bd 31 02 67 bd 37 8a 1f 3e
       0.035343602 -0.05503616 -0.056398574 0.15580069
000040 17 92 19 3e 42 8b c1 3b e9 0f 45 bc b3 61 1a bd
       0.14997135 0.0059064934 -0.012027719 -0.03769083
000050 ff b1 7c bd f3 1e 52 3d 97 4d b9 bd 24 61 be 3d
       -0.061693188 0.051299047 -0.09048002 0.09295872
000060 89 51 99 bc 9c 97 fc 3d 69 85 01 3c 42 47 d1 bd
       -0.018715637 0.12333605 0.007905343 -0.102186695
000070 4d 71 9a 3d db 01 35 bd 48 58 18 3d 1d a9 4d 3d
       0.07541142 -0.044191223 0.037193567 0.050210107
000080 01 a2 9f 3d a8 0b c0 3c 9b f3 9d bd b9 9a 9a ba
       0.07794572 0.023443058 -0.0771248 -0.0011795379
000090 e8 83 da 3d 1c cf ae bd e3 23 fe bd 53 3a dc bd
       0.1066969 -0.08535597 -0.124091886 -0.10753312
0000a0 4f e2 dc 3d 06 bc 5e 3d 09 d2 da 3c aa d9 b6 bd
       0.107853524 0.054378532 0.02671148 -0.08928235
0000b0 ab 13 95 bd 0b f2 5a 3b 77 8c ef bd 59 04 b5 bc
       -0.07279142 0.003340843 -0.116967134 -0.0220968
0000c0 38 33 da 3d 7d b2 00 bd 7a 7b a1 bb d9 d2 eb 3c
       0.106543005 -0.03142022 -0.0049280496 0.028787063
0000d0 2c b6 26 bd 54 95 b2 3d 0b d8 a1 3d b5 da 72 bd
       -0.040701076 0.08719888 0.07902535 -0.059290607
0000e0 6b 79 42 3c 0c f1 fd bc a3 4a c5 3d d3 f0 41 bc
       0.011869769 -0.03099873 0.096333764 -0.011837202
0000f0 b8 f6 2f bd 81 87 c4 3b 21 f0 1a bd 18 98 f6 bb
       -0.0429599 0.0059975986 -0.03782666 -0.007525455
000100 07 95 d9 3c 78 f7 aa 3d 15 d4 ab bd 02 ec 10 3e
       0.02656032 0.08347982 -0.08390061 0.1415253
000110 a6 42 ac bd fb 88 92 3c eb 55 9d bc 39 12 bf bd
       -0.0841115 0.017887583 -0.019206008 -0.093296476
000120 fc 25 8f 3c 43 3a c2 3d d9 6f 3a bd bc 28 9c 3d
       0.017474167 0.09483769 -0.045516822 0.07624957
000130 95 18 bf 3c fe 0c f9 3c a0 1c 9a 3d 9c 5d a5 3c
       0.023327151 0.030401703 0.07524991 0.020186238
000140 d3 4c 93 bd 36 f2 09 3e d5 ec b4 3d 9b b7 a8 3d
       -0.071923874 0.13471302 0.088342346 0.08238145
000150 4e 0e 12 3d 88 30 1a bd 77 bb 1d bd eb b9 0d bd
       0.035658173 -0.03764394 -0.03850886 -0.034601133
000160 b6 e5 97 3d 07 82 f1 3d 2d 5f f0 3d f3 e8 9e 3c
       0.07416861 0.11792379 0.11736903 0.019398188
000170 f7 72 e7 bb da a3 58 bd ce cf 00 3e 44 f4 0d 3e
       -0.0070632654 -0.052890636 0.12579271 0.13862711
000180 e5 c4 4c bd f6 25 08 3c 58 67 10 3d 7b a6 f2 3d
       -0.04999246 0.008309832 0.035254806 0.1184816
000190 1e 7a 84 3d 79 14 99 bd fb a0 0e 3e 86 2c 54 3d
       0.064686045 -0.07474608 0.13928597 0.051800273
0001a0 aa 89 56 3c 00 62 d2 bb 2c 70 c8 bd 3a 2b a7 3c
       0.013094345 -0.006420374 -0.0978702 0.020406354
0001b0 0d 94 b2 3d 67 96 0b 3e 95 e5 05 3b bc c4 d0 3d
       0.08719645 0.13631593 0.002043103 0.10193774
0001c0 e6 85 58 bd 46 2a 41 3c 3e 95 94 3b 8b 67 51 bb
       -0.05286207 0.011789864 0.0045343926 -0.0031952586
0001d0 ee 68 2d 3d 78 3d 94 3d 62 09 7b bd 64 1f 96 3d
       0.042336397 0.07238287 -0.061288245 0.07330206
0001e0 d6 1c 13 bd d9 fa e7 bc df 54 93 bd 52 f6 a7 3d
       -0.035916172 -0.028317856 -0.07193922 0.08201279
0001f0 06 a6 c9 3c 66 a9 c1 bd b7 d0 6b 3d 7b f6 5b 3c
       0.024615299 -0.09456138 0.057572093 0.013425465
000200 3c 92 70 bc b2 4a 2a 3d b4 ca 8c bd de dc 47 bc
       -0.0146833025 0.04157514 -0.068746 -0.012198655
000210 25 49 2a bd ae 47 1d be 8e b5 52 bd ca 6b c6 bd
       -0.041573662 -0.15359375 -0.051442675 -0.09688528
000220 8c 58 cb bd 5c 48 0b be fa eb fe 3c bc d1 89 bd
       -0.09928998 -0.13601822 0.031118382 -0.06729457
000230 b0 1c e6 bd d6 b8 14 be 53 d1 99 bd 73 53 c3 bd
       -0.112359405 -0.14523634 -0.075106286 -0.09537401
000240 70 af d2 3b cd 00 4b 3d c5 a2 97 3b de de 05 3d
       0.006429605 0.04956131 0.004627558 0.032683246
000250 44 8b d6 bc df 3e b6 3c 3d 08 23 bd 2a 68 57 3d
       -0.026189454 0.022246776 -0.03980278 0.052589573
000260 a4 6f 15 3d 65 cc f9 bc de 18 e6 bd a7 00 6f bc
       0.036483422 -0.03049297 -0.11235212 -0.014587558
000270 8b 86 38 3d 32 ed 08 3d fb 95 70 3d 6d ae cf bc
       0.045050185 0.033429332 0.058736783 -0.025351727
000280 29 64 b3 bd 8d 1a 41 be 8b 34 90 bd 10 e7 0d bd
       -0.087593384 -0.18857785 -0.07041272 -0.034644186
000290 74 e8 07 3d a8 09 ef 3b fd 5e 1d 3c dd 72 31 bd
       0.03318067 0.0072948523 0.0096051665 -0.043322433
0002a0 1e a7 cf bd bf e4 18 be 2a d8 1f be d0 3a 2f 3d
       -0.10139297 -0.1493101 -0.15609804 0.042780697
0002b0 4a f7 f3 ba 44 74 be 3c 7f 23 a1 bc 02 cc cf bd
       -0.0018613127 0.0232488 -0.019670246 -0.10146333
0002c0 dd 53 15 bd a8 9e 19 bd 54 fd 81 3c 68 b1 05 be
       -0.03645693 -0.037504822 0.015867867 -0.13055956
0002d0 62 82 1a bd a9 c9 88 bd b7 3a e4 bd cd c9 00 be
       -0.037722 -0.066790886 -0.111440115 -0.12576981
0002e0 58 cb 8b 3c e3 be d0 bd a9 d7 f8 bc f4 9e 97 bd
       0.017064735 -0.10192659 -0.030376272 -0.07403365
0002f0 0e b5 52 3d 53 86 f4 bd 13 22 b8 bd 78 34 ef bd
       0.0514422 -0.11939683 -0.08990874 -0.116799295
000300 36 af d7 bc 81 d1 2d 3d 6d 7a f5 bd ce aa 20 bc
       -0.026328664 0.042436127 -0.119862415 -0.009806348
000310 14 30 24 bd 63 e7 40 bd b3 4b 97 bd 97 04 e9 bc
       -0.040084913 -0.047095668 -0.07387485 -0.028444571
000320 bd 49 d1 bc 87 53 77 bc 55 37 e1 bd cf 52 39 3e
       -0.025547856 -0.015095598 -0.10996882 0.18097995
000330 62 43 95 bd af fa c0 bc 37 11 13 3c 2e 6d 87 bd
       -0.07288243 -0.023557035 0.008976272 -0.06612621
000340 04 07 2e bd 41 1e ad bd 19 8a bb 3b e8 24 b7 bd
       -0.04248716 -0.08453036 0.0057232496 -0.08942586
000350 ff 8a 0e bd c3 f0 dd bd d1 10 93 bb cb 7b 46 3d
       -0.034800526 -0.10836937 -0.0044880887 0.048457902
000360 55 8f b2 bc 22 b1 05 3c b2 ca f2 bd a5 3a b6 bd
       -0.021796862 0.008159908 -0.11855067 -0.08897904
000370 e9 2e 45 bd 25 83 a4 3c 23 3a d0 3c 74 27 86 3b
       -0.04814044 0.020082066 0.025418347 0.0040940586
000380 3b d2 3e bd 14 e6 14 be e6 65 e8 bd da 8b 34 be
       -0.04658721 -0.14540893 -0.113475606 -0.17631474
000390 a6 c6 06 be 23 85 24 be b6 99 88 bc 97 86 9a bd
       -0.13161716 -0.16066413 -0.016674858 -0.07545202
0003a0 92 b6 0e bd c9 fa 46 bc 24 1b 70 bd 05 34 c9 3c
       -0.03484208 -0.012144753 -0.058619633 0.024560938
0003b0 a5 fa a9 bd 7a 5f c5 bd 15 6d 05 bd b8 05 15 be
       -0.0829976 -0.09637351 -0.03257473 -0.14552963
0003c0 c2 e2 25 3c 68 ee 45 3c 75 3d 26 be 35 20 09 be
       0.010124864 0.012080766 -0.16234381 -0.13391192
0003d0 82 9c cf bd ca 27 0f 3d 0a fd 1f 3d 98 59 e0 bc
       -0.10137273 0.034950055 0.039059676 -0.027386472
0003e0 41 c8 b2 3c 12 2d 4f 3d 87 f3 d2 bd 25 12 9b bd
       0.021824004 0.05058009 -0.103003554 -0.0757182
0003f0 98 54 ad 3c 2b 89 27 bc cd 4f 58 bc 78 74 14 be
       0.021158502 -0.0102255745 -0.01320262 -0.14497554

lstm.weight_ih_l1 f4 [512, 128]
000000 73 e4 66 bd de 41 9d 3d d2 67 c7 bd 5c 37 87 3d
       -0.05637021 0.07678579 -0.09736599 0.06602356
000010 63 50 a6 ba 76 5a 7f bd 13 fa bd 3d 88 e2 4e bd
       -0.0012688752 -0.06234213 0.092762135 -0.050509006
000020 0d 0c fe 3c 67 2c 90 bc 56 95 ec 3d d5 d7 dd 3d
       0.031011606 -0.017599298 0.11551921 0.10832182
000030 e8 b2 da bd 31 30 89 bd 52 f3 29 3c 8e ed bc 3d
       -0.10678655 -0.06698645 0.0103729535 0.092249975
000040 94 7c 3e 3d 5a e7 7c 3d da 59 0d 3d fe 26 6e bd
       0.046505526 0.06174407 0.034509517 -0.058142655
000050 96 c4 aa 3c 7c 2e ed 3c f6 af d0 bc 06 c3 35 3d
       0.020845693 0.02895283 -0.02547453 0.044375442
000060 77 fa 26 3c df b2 bb bd 5b 92 db 3b 7a f3 23 bc
       0.010191551 -0.09164976 0.0067007965 -0.01000678
000070 e9 9f 5b bd af 8a 6b bd 28 a4 61 bc dc 78 7c 3d
       -0.0536193 -0.057505306 -0.013772048 0.061638698
000080 e7 82 b0 bd e5 11 d4 3d c9 6d 1d be b9 46 41 3e
       -0.08618718 0.103549756 -0.15373911 0.18874635
000090 75 82 9d 3d 8d 8f 9c bd 46 2e 48 3d 67 c3 71 3d
       0.07690898 -0.07644568 0.048872255 0.05902424
0000a0 f9 f7 87 bd 9f b1 7f 3d 11 54 95 3c 6d 31 16 be
       -0.06639094 0.062425252 0.018228563 -0.14667292
0000b0 1c 58 c7 3d f0 df ad 3b 4d aa 29 3d ae 67 82 3d
       0.097336024 0.0053062364 0.041422177 0.063674316
0000c0 19 12 9f 3b 5c 47 7e 3d 60 cd c3 3d ff 3f 88 bc
       0.0048544523 0.062079772 0.095606565 -0.016632078
0000d0 c1 0b 88 bd b1 25 27 3b e0 54 a3 3d 1b ed 18 3a
       -0.06642867 0.0025504644 0.07975173 0.00058336713
0000e0 8d 84 97 bd 68 c3 d9 3d 87 b9 0f bd 8d b9 49 bc
       -0.07398329 0.10632974 -0.035089042 -0.012312305
0000f0 55 0d 52 3d 55 d0 09 bd ff 79 65 bd 9e b0 08 3d
       0.051282246 -0.033645947 -0.056024548 0.03337156
000100 61 f3 82 bd 61 3d 99 3b 27 8e a9 3c 6f 41 9c bd
       -0.06394077 0.0046765064 0.020697666 -0.07629668
000110 67 af 81 3d 1e 8e e1 bd 1e a2 73 3c 7e be 93 3d
       0.063322835 -0.11013435 0.014870195 0.07214068
000120 66 b9 03 be b3 62 08 bd d4 31 25 3d 01 31 20 3d
       -0.12863693 -0.033297252 0.040330723 0.039109234
000130 4d 48 a6 bd cd 72 49 bc 28 6d 95 bd e7 03 b9 3d
       -0.08119259 -0.012295437 -0.072962105 0.090339474
000140 aa f0 14 3e 32 9c dd bc e0 d6 cb bd 45 a3 93 3d
       0.14544931 -0.027052019 -0.099530935 0.072088756
000150 35 fa 52 bd 3e 06 08 bb 8d 72 9e 3c 80 d6 cc bd
       -0.051508147 -0.0020755674 0.019341731 -0.1000185
000160 9b 3a 4e 3c c1 97 c5 bd 40 54 07 be 16 23 57 3c
       0.012587215 -0.096480854 -0.13215733 0.013130924
000170 02 ad dd bc 40 87 86 3c 2e 1d f4 3c 2b 5e 55 bd
       -0.027060036 0.016421914 0.02979907 -0.05209176
000180 c4 e9 7e 3d 38 4a 0e bd 57 85 ca 3d d9 4a 4d 3d
       0.062234655 -0.03473875 0.09888714 0.05012021
000190 e6 fd b1 bc fa 05 9a bd 3f f2 45 3b 4c 72 7f 3d
       -0.021727514 -0.07520671 0.0030204204 0.06236486
0001a0 02 ec 34 bd f3 01 07 3e 8b aa d4 3d 1d e9 f3 bc
       -0.044170387 0.13184337 0.10384091 -0.029774243
0001b0 54 ad 2f 3d f3 c7 24 3d 26 f3 0e bd 50 b4 c3 3b
       0.042889908 0.04022975 -0.034899853 0.0059724227
0001c0 0e f4 91 bd 6c ee 0a be 29 e8 18 3e bd bb a5 3d
       -0.07126628 -0.13567513 0.14932312 0.08092449
0001d0 17 8e 3a bc f7 29 99 3d fd 3b dc bc 21 68 f7 bd
       -0.011386416 0.07478707 -0.026884073 -0.12080408
0001e0 b0 5d ef bc b6 0d 4d 3d b3 fb 8b bc f8 86 2b bc
       -0.029219478 0.050061904 -0.017087793 -0.010469191
0001f0 a0 22 17 3d 17 5e d0 bb 71 44 c2 3d dd 4d 18 bd
       0.036898255 -0.0063588726 0.094857104 -0.03718363
000200 e0 f8 39 3d f1 9f 9b 3d a9 07 48 3d e6 4b 1d bd
       0.04540336 0.07598866 0.04883543 -0.03840246
000210 a0 81 22 bd d9 84 7d 3d cd 89 84 3c eb 9a fa 3c
       -0.0396744 0.06189427 0.01617899 0.030591449
000220 d5 83 b9 bc 31 ff f0 bd 50 4d 8c 3d 4a 6e 4c bb
       -0.02264587 -0.11767424 0.06850684 -0.0031193667
000230 83 93 59 bd 19 1f 67 3d e2 46 f4 bd 04 98 fa 3d
       -0.053119194 0.05642614 -0.11927582 0.12236026
000240 42 27 b5 bd 4e 5f 91 bd 1b 1c 62 3c ea b4 ac bd
       -0.088453785 -0.07098256 0.013800646 -0.08432944
000250 1f 78 6d 3d d3 6e 21 3c 22 a6 2c 3d b4 e7 f5 3d
       0.057975885 0.009853083 0.042150624 0.120070845
000260 a8 e5 00 bc c0 e5 6a 3d 59 cd 3a 3d ec 94 45 bd
       -0.007867254 0.057348013 0.04560599 -0.048237726
000270 c9 2e 9c 3d 23 2d d0 bc d0 c0 93 3d 75 ba 4b bd
       0.07626111 -0.025412148 0.072145104 -0.049738366
000280 d3 6d d3 bd 4a ea 85 3d 32 b5 66 bd 01 b4 25 3d
       -0.10323682 0.06538828 -0.056325145 0.04045487
000290 31 f9 f0 3c c1 7b 02 bd a8 48 40 bd b3 bb 2e bd
       0.029415699 -0.031856302 -0.04694429 -0.042659473
0002a0 a0 f7 d5 bc 96 14 49 3c 45 b0 c5 3c 5e f6 bd 3a
       -0.026119053 0.0122729745 0.024131903 0.0014492979
0002b0 15 da 86 3d ed f9 5d bc 1c 7c 0e 3d 91 3e 7e bd
       0.065845646 -0.0135483565 0.03478633 -0.062071387
0002c0 74 29 b3 bd 33 ed 3c bc 3e 12 8e bc 23 81 c4 3d
       -0.08748141 -0.011531162 -0.017342683 0.095949434
0002d0 11 28 f0 3c 45 c7 b6 bb e5 2f 84 3c db f2 44 bd
       0.02931598 -0.005577954 0.01613612 -0.048083168
0002e0 ee 64 73 bd 98 1d 6e 3d e0 91 b8 bd 79 c2 ad bd
       -0.059422426 0.05813369 -0.090121984 -0.08484358
0002f0 b4 40 d9 ba 97 c5 64 3d d7 21 2b bc d0 af 24 bd
       -0.0016575069 0.0558525 -0.01044508 -0.04020673
000300 5c a0 2b 3d 19 7e d1 3c a9 57 15 3d 09 d7 0f bc
       0.041900977 0.025572823 0.036460552 -0.008779296
000310 eb d8 32 3d b2 84 e0 bd 2c cc 05 3c d4 cb 06 3e
       0.0436639 -0.109628096 0.008166354 0.13163692
000320 4c ab 8d bd c2 69 fb 3c fa 24 29 bd f4 72 24 bb
       -0.06917438 0.030690078 -0.04129503 -0.0025092931
000330 a2 0f 90 bd 6a f4 fd 3d 4b 41 74 bd 3b b5 04 bc
       -0.07034232 0.12400134 -0.05963258 -0.008099849
000340 f6 8a 18 bc 6e 32 be bd ea 0b f7 bd 42 db 4b 3c
       -0.009310475 -0.092869624 -0.12062819 0.012442412
000350 a6 8e ca 3b 82 04 ea 3c 8b 85 79 bc 34 00 98 bc
       0.006181556 0.028566603 -0.015229593 -0.018554784
000360 83 cd e6 3d 39 59 f1 bc 2a 06 c7 bd ba b8 14 3d
       0.11269667 -0.02946149 -0.097179726 0.03630898
000370 e3 70 3b 3c 90 f3 5c bc 4a 1f 9c 3c 6d 5a a2 bd
       0.0114404885 -0.013485804 0.019057889 -0.079274036
000380 6c d5 8d bd 60 98 df bc 3e 70 c3 3d 70 43 99 bb
       -0.069254726 -0.027294338 0.09542893 -0.0046772286
000390 f1 f7 2a 3d f4 64 3f bc 8d 6b d0 3d d3 e2 65 bd
       0.04174036 -0.011681784 0.10176764 -0.05612452
0003a0 b0 e5 87 3d 0b 88 0f 3d 51 11 14 3e a0 20 94 bc
       0.06635606 0.03504185 0.1445973 -0.018081963
0003b0 81 57 96 3d b9 67 24 3d 4c c5 26 bc 35 db ad 3d
       0.07340909 0.04013798 -0.010178875 0.08489076
0003c0 71 9b ab bd 5f 9a fd bd 48 2a 0b 3e e5 ef 8e bd
       -0.083792575 -0.123829596 0.13590348 -0.0697935
0003d0 21 74 03 be dc 41 19 bd 67 58 ec 3c 5b 37 65 bd
       -0.12837268 -0.037416324 0.028850747 -0.055960994
0003e0 6f 9f 8c bd 63 3f bc 3d 73 73 70 bd 08 55 9d 3c
       -0.06866347 0.091917776 -0.05870385 0.019205585
0003f0 71 18 56 bd 12 7b 80 3c e6 17 19 3d 52 52 f8 3d
       -0.052269403 0.015683684 0.037376307 0.12125076

lstm.weight_hh_l1 f4 [512, 128]
000000 a0 52 1d 3d a6 1c b8 bd cb 7a 7c bd 8a 2e 91 bd
       0.038408875 -0.08989839 -0.061640542 -0.07088955
000010 f7 1c ad 3d 7e 27 b0 bc 90 97 9d bd e1 29 0a bd
       0.0845279 -0.021503206 -0.07694924 -0.033731345
000020 5d ac 7d 3d 1c f4 5b bd f7 9c 4d bc 3e bb 81 bd
       0.061931957 -0.053699598 -0.01254963 -0.06334542
000030 63 79 71 3d 40 56 53 3d e0 fe 86 bd 35 33 68 3d
       0.058953654 0.051595926 -0.06591582 0.05668946
000040 e5 0b 98 bd 83 2a 29 3d 3a bb fb 3d 08 8b c6 3d
       -0.07424144 0.041300308 0.1229157 0.09694487
000050 61 71 65 3d 81 b7 11 bd 62 9a 9d bd cb 03 cb bb
       0.05601633 -0.035575394 -0.07695462 -0.0061955205
000060 bf 80 8a bd 9c a5 e3 3b 6f 14 31 3d c1 0c 86 3d
       -0.067628376 0.0069472324 0.043232378 0.06545401
000070 8a 8a ad bd 66 c6 e9 3c 28 aa 0a 3d f9 d3 50 3d
       -0.0847369 0.028536987 0.03385368 0.050983403
000080 38 f7 d2 bc 39 ea d3 3d 45 24 99 3d af c6 b7 3c
       -0.025752649 0.10347409 0.07477621 0.022433607
000090 60 2b 20 bd f4 62 a9 3c ae bd c1 bb a8 e2 76 3d
       -0.039103866 0.020677067 -0.005912504 0.06027475
0000a0 7b 61 ca 3c 12 1a 0e 3d dd 82 7e bd 96 a6 0b 3d
       0.024704685 0.03469283 -0.06213652 0.034094416
0000b0 28 38 78 3d 07 72 2e 3d 61 a3 da 3c 54 8b 30 3c
       0.06060043 0.042589214 0.026689233 0.010775406
0000c0 7f 81 55 bd 98 00 7d bc 6f ba 12 3d 82 1f aa bd
       -0.05212545 -0.015442036 0.03582233 -0.08306791
0000d0 d3 85 9e 3b c6 4b 69 bd 8a 2f 43 3d b9 61 17 bd
       0.0048377304 -0.05695703 0.04765276 -0.03695843
0000e0 83 b3 a3 3c 3e d3 37 3d 21 48 56 3d 6d 61 20 3d
       0.019983059 0.04487919 0.05231488 0.039155412
0000f0 45 07 01 bd d1 0e 9c 3b 8c 5d 9c bd 1c ff 79 3d
       -0.031501073 0.0047625084 -0.0763503 0.061034307
000100 46 aa c2 bd ae 50 dd 3c c1 2e 36 bc 3a fc e3 bd
       -0.09505133 0.02701601 -0.011119545 -0.11132093
000110 f3 96 d6 3d 8c 6b 4a bc 16 da 26 3d 06 13 c3 bb
       0.1047801 -0.012354743 0.040735327 -0.0059531955
000120 46 cb ae bd bf b7 6c bd 18 a1 3b bd 33 50 57 bc
       -0.08534865 -0.05779242 -0.045807928 -0.01314168
000130 23 40 f9 3c e5 fd f5 bd f8 40 3b 3e 39 ef b6 3d
       0.03042609 -0.12011317 0.18286502 0.08932347
000140 cb 79 94 bc 0d fc df 3d cd f3 38 3d 21 61 58 bd
       -0.018124482 0.10936747 0.04515438 -0.052827004
000150 a4 f7 96 bd 3b 46 59 3d 0e 42 c5 bd 29 b9 ba 3d
       -0.073714525 0.053045493 -0.096317396 0.09117348
000160 c9 94 c0 3c be f6 7f bd 61 c1 cb 3d b2 41 a3 bd
       0.023508446 -0.06249117 0.099489935 -0.07971515
000170 18 9d 86 3d e9 08 71 bd 79 d8 3c 3d d3 cb 01 bd
       0.06572932 -0.058846388 0.046104882 -0.031688523
000180 88 2e 26 3d ed df 7a 3d 99 1a ab bd cc e2 81 bd
       0.04057172 0.06124871 -0.083546825 -0.06342086
000190 eb 8d 3a bd cc 4f 9b bd b2 8c 8d 3d 7a ac 96 bd
       -0.0455455 -0.075835794 0.06911601 -0.07357116
0001a0 de 00 a4 3d b2 db e6 3d f7 2e 9b 3c 1a 80 a5 bd
       0.08007978 0.11272372 0.018943293 -0.08081074
0001b0 41 c0 30 bd 69 f3 89 bd 8d 15 95 bd d4 d9 9f 3d
       -0.043152098 -0.0673588 -0.07279501 0.07805219
0001c0 92 a6 94 3d 76 60 6a 3c 2e f4 01 bd 41 f6 fc 3d
       0.07258333 0.014305225 -0.03172701 0.12351657
0001d0 6e df 02 bd 1e 90 86 3d cf 1b 62 bd a7 b6 cc bc
       -0.03195136 0.06570457 -0.0552023 -0.02498944
0001e0 b7 8f bc 3d 15 df 85 3d c6 44 ed 3c 24 7b d6 bb
       0.09207099 0.0653669 0.028963458 -0.006545441
0001f0 08 cf a7 bc fc 76 58 3d fc 89 81 bd 68 22 0d 3e
       -0.020484462 0.052847847 -0.063251466 0.13782656
000200 8b 1f 01 bd f2 20 94 3c f6 95 7d 3c 19 62 29 3d
       -0.031524222 0.018082116 0.015477648 0.04135332
000210 e9 1b 0f bd f3 a2 eb 3c d3 e3 5c 3d 54 04 3a bd
       -0.034938727 0.028764224 0.053928208 -0.045414284
000220 69 96 bd 3d e2 2a 8e bd 5f 76 d7 3d 01 1d 45 38
       0.09257204 -0.06941773 0.10520624 4.6995472e-05
000230 83 40 b7 3d 82 dd 09 3d 0e 68 33 bb 55 81 fe bd
       0.089478515 0.033658512 -0.0027375254 -0.12427012
000240 27 e2 85 bc ac e9 72 bd 84 19 07 bd 75 7d 5f bc
       -0.01634319 -0.059304878 -0.032983318 -0.013640751
000250 99 87 bc 3d 13 e7 53 3d f0 6f 3e 3c 21 56 61 bd
       0.09205551 0.05173404 0.011623368 -0.05501378
000260 27 80 20 3d 57 00 b1 3d f9 97 2c 3d 25 47 94 3d
       0.039184716 0.08642643 0.04213712 0.07240132
000270 dc b1 30 bd 2f 2d 93 bd e9 20 5b bc a1 34 88 3d
       -0.04313837 -0.071863525 -0.013374546 0.06650663
000280 89 6f 45 bd 8e 61 74 3d 7f 89 f1 3c 2a 0c 48 bd
       -0.04820207 0.059663348 0.029484509 -0.048839726
000290 23 5d 87 3c bc 3e 4f bc 9c 28 67 3d ae df cc bd
       0.016523903 -0.012649234 0.056435212 -0.10003601
0002a0 cc 99 39 bd e2 9e a2 bd ac ca 01 3d a3 fe ab bc
       -0.045312688 -0.07940461 0.031687424 -0.020995444
0002b0 b9 69 cb ba a9 1d 53 3d d1 c0 15 3d 0b 19 8e bd
       -0.0015519179 0.051541958 0.036560837 -0.0693837
0002c0 93 a6 5b bd 5e d5 28 3d 5f e4 05 bd f9 0a 0f 3d
       -0.053625654 0.041219108 -0.032688495 0.034922574
0002d0 f4 85 87 3c f6 69 01 bd 52 52 a7 bc 6c c6 7f bd
       0.016543366 -0.031595193 -0.020424996 -0.06244509
0002e0 62 60 a6 3d d2 f2 75 bd 69 99 22 bd bb 4f c0 bd
       0.08123852 -0.060046025 -0.039697085 -0.093902074
0002f0 e0 03 69 bd d8 37 4d bc af 8d 25 bd a8 3d 6b 3d
       -0.05688846 -0.012525521 -0.040418323 0.057431847
000300 d6 26 a5 3b ec 5a ca 3d ff f5 88 3d 6a b5 ed bd
       0.00504003 0.09880623 0.06687545 -0.116068676
000310 b7 31 34 3d 57 41 27 3c ba 68 cf bd 64 8c c8 bc
       0.043992724 0.010208449 -0.10127397 -0.024481006
000320 6a 12 a1 bd 56 67 9c bd be 40 d0 bd 27 1b d0 3b
       -0.0786484 -0.07636897 -0.101685986 0.006350893
000330 43 06 4a bd 02 4a 3e 3c fd 4b d5 3d 1c 78 88 3c
       -0.049322378 0.0116143245 0.10414884 0.016658835
000340 ee ae 03 3d 9a 3e 1c bc 2c 4b be 3c 37 50 36 3d
       0.032149248 -0.00953641 0.023229204 0.044510093
000350 8e c6 d5 3c 67 e0 8f 3d 76 77 3f 3d 4f b1 2b bd
       0.026095655 0.07025223 0.046744786 -0.04191714
000360 3a b8 bc bc 56 28 1b ba 92 66 d0 ba e6 29 81 bc
       -0.023037065 -0.0005918791 -0.0015899709 -0.015767049
000370 1e 75 2c 3d 53 38 43 3d 13 29 0e bd a1 79 e7 bc
       0.04210388 0.047661137 -0.03470714 -0.02825624
000380 e8 7d 8d 3d 94 ac c4 3b a7 0c b5 3d b1 8b ee bd
       0.0690878 0.006002018 0.08840304 -0.11647738
000390 03 96 9b bd 85 55 ac 3c e0 e3 d8 bb dd ae e2 bc
       -0.07596972 0.021036873 -0.0066189617 -0.027671272
0003a0 a9 65 5e bd 5f c4 b1 3d 5f 6f a7 bb 2e f9 12 3c
       -0.05429617 0.08680033 -0.005109712 0.008970542
0003b0 4d 75 a0 3b 0b 47 68 3c 27 df c8 bc b9 81 11 bd
       0.004896796 0.014177094 -0.02452047 -0.035524104
0003c0 ed 07 54 bd 7a 89 56 3d 2e 2d 86 3c ff 59 fe 3d
       -0.05176537 0.0523772 0.016378965 0.12419509
0003d0 23 d3 a0 bd 2d bb d8 3c 6d 45 83 3d 41 6d ed 3d
       -0.07852771 0.02645644 0.06409726 0.11593104
0003e0 27 8c b0 bc db 11 9a 3d c5 22 fb 3d 9e c6 d3 3d
       -0.021551205 0.07522937 0.12262491 0.103406176
0003f0 e1 42 c7 3d be a1 36 3b 69 08 20 3d 94 cc 9d bc
       0.09729553 0.0027867402 0.03907052 -0.01926259

lstm.bias_ih_l1 f4 [512]
000000 3b 43 77 3c c9 7b dd bc 15 49 a7 bd 5d 1f 8e ba
       0.015091713 -0.027036564 -0.08168236 -0.0010843087
000010 b6 06 41 3b 19 32 a8 3c e6 ec f9 3b 90 42 2b 3d
       0.0029453463 0.0205317 0.0076271174 0.041811526
000020 6b 16 18 3e 9e 37 dd bc a1 f1 f9 bb 49 83 d0 bb
       0.14852302 -0.02700406 -0.0076276814 -0.0063633067
000030 a5 46 cd bd f5 b8 04 3d 29 3e c4 bd 64 c9 f0 3c
       -0.1002324 0.03240295 -0.095821686 0.029392906
000040 1a 1e 4f bd 9b e9 c8 bc 1a 74 57 bd 18 5a 3a bd
       -0.050565816 -0.024525454 -0.052600957 -0.045496076
000050 f4 e5 01 bd 7b 91 3e 3d b5 a7 aa bd df 3a 0d be
       -0.03171344 0.04652546 -0.08332769 -0.13791989
000060 80 fe 7c 3d 6c 42 bd bc b1 53 80 bd 3d 09 57 3d
       0.061766148 -0.023102961 -0.06265963 0.052499045
000070 44 7b 94 3d ad 41 1b 3c 93 db 3f 3c 9a db bd 3d
       0.072500736 0.009476108 0.011710065 0.09270401
000080 59 15 28 3d ee 72 91 3c f9 76 af bc cb ad 81 bd
       0.041035984 0.017754998 -0.021419035 -0.063319765
000090 1f d2 09 be 99 7c b3 bb 16 fc 60 bd 58 f8 69 bd
       -0.13459061 -0.0054774997 -0.054927908 -0.057121605
0000a0 46 bb 14 be 10 cd d1 bd a7 3f 2e 3d 55 1d 36 3d
       -0.14524564 -0.10244191 0.042541172 0.044461567
0000b0 00 1a 84 bd 7e 45 97 3b 0c b8 ba 3d 42 d1 e9 bc
       -0.064502716 0.0046164384 0.091171354 -0.028542165
0000c0 4a 15 96 bd 2d d0 4c 3c 2b 7c c9 3d 3f ae b1 bd
       -0.07328279 0.012500805 0.09838136 -0.08675813
0000d0 d9 ac 0a 3e 0a df 86 3d b1 41 b4 bc 16 33 67 bc
       0.13542499 0.0658551 -0.02200398 -0.014111301
0000e0 a5 df 94 3c e6 f9 40 3d fd 2f 0c bc 33 d2 97 bd
       0.018173048 0.04711332 -0.008556363 -0.07413139
0000f0 ad 2e 22 39 33 e4 08 3d 50 33 98 bd 02 de 66 3d
       0.00015466912 0.033420753 -0.07431662 0.056364067
000100 20 9a 0a b9 89 c5 69 bc d3 39 bb 3d a7 a2 c8 bc
       -0.00013218122 -0.014268287 0.091418885 -0.024491621
000110 1d 34 2b 3d a1 0c 64 bc c2 5d 39 bd 94 37 e8 ba
       0.041797746 -0.013919027 -0.04525543 -0.0017716759
000120 74 f5 85 3d 0e 69 d0 bd 4a d9 74 3d d1 8d d0 bc
       0.06540957 -0.101762876 0.059777535 -0.025458248
000130 dc 91 cc 3c d3 0f 20 bd 2a 09 8b bd eb de 68 bd
       0.024971895 -0.03907759 -0.06788857 -0.056853216
000140 08 39 15 be 23 bb b3 bd aa 32 c0 bd 7d 83 8e bd
       -0.14572537 -0.08775928 -0.093846634 -0.06958673
000150 db f1 07 3d 90 a8 84 3d 58 42 8f bd d5 1c a6 bb
       0.033189636 0.06477463 -0.06995076 -0.005069355
000160 12 53 55 3c 84 95 23 bd 22 63 a3 bc ce 36 a6 bd
       0.013020294 -0.03993751 -0.019944731 -0.08115922
000170 c6 11 80 3d 2e c3 3a bd 55 a4 12 3d a8 43 a8 bd
       0.0625339 -0.045596294 0.03580125 -0.082160294
000180 4e d9 e3 bd 04 18 75 3d 07 98 62 3c 4c a1 96 3d
       -0.11125432 0.059837356 0.013830191 0.07354984
000190 21 fc 26 bd 49 aa d7 bd 4d 36 4b bd b6 28 4d 3c
       -0.040767793 -0.10530526 -0.049612332 0.012521913
0001a0 4e 35 90 3c d9 b8 60 3a 6b 1a 1c 3c a1 c5 6f bd
       0.017603543 0.00085724663 0.009527783 -0.058538083
0001b0 de a6 57 3d ad f6 04 be 35 96 a1 3d f3 6e 3a bd
       0.05264937 -0.12984724 0.07889978 -0.045515966
0001c0 72 86 57 bd d1 aa a7 3c f6 1b 54 bb 68 e8 85 bd
       -0.05261845 0.020467194 -0.0032365299 -0.065384686
0001d0 f9 6b 88 bd 1e 56 27 bc 13 15 cb bd 56 8e 81 bd
       -0.06661219 -0.010213403 -0.09916129 -0.063259766
0001e0 b5 5b ea bc 71 aa 8e bb e8 42 6b bd 28 35 ea bd
       -0.028608182 -0.0043538143 -0.057436854 -0.1143592
0001f0 14 70 c9 bd 1c 96 f4 bc 70 2e 28 bd b0 84 1e bd
       -0.0983583 -0.029856734 -0.04105991 -0.03870076
000200 5f 88 4f bd cc af 8e 3c c4 fd ce bd 69 d9 a3 bd
       -0.050667163 0.01741781 -0.10106996 -0.08000452
000210 c7 08 cb 3c d9 0d 78 3d d1 a3 5d 3d 21 ba 8b 3c
       0.024784459 0.06056008 0.054111306 0.017056527
000220 fb 5e 04 be ca 9b 0a 3d 13 41 26 bd bb b5 7b bd
       -0.12926857 0.03383998 -0.040589403 -0.06145261
000230 14 79 b3 3c d6 ee c8 bc b2 7c 4f 3d f3 65 8e bd
       0.02190832 -0.024527948 0.050656028 -0.06953039
000240 14 c6 a7 bd be 10 ed bc 3e 35 fc bc d9 2a 41 3d
       -0.08192077 -0.028938647 -0.030787107 0.047160003
000250 68 b4 0a be 30 ad 3a 3c 32 83 fa 3c d5 21 57 bd
       -0.13545382 0.01139383 0.030580137 -0.0525225
000260 e1 9d 9a bd f7 1b e8 3c 23 4d a3 3d 9d 7b fe bc
       -0.07549644 0.028333647 0.07973697 -0.031064803
000270 b9 89 20 bd eb bd d9 bd 28 b6 26 3d 67 20 2d 3c
       -0.039193843 -0.10631927 0.04070106 0.010566807
000280 88 9f ab bc 1a 98 84 3d c7 98 2b bd 79 14 31 bb
       -0.020950094 0.064743236 -0.041893747 -0.002702026
000290 b3 6a 21 bd 04 8f 88 bd 7d 17 9d bd b8 d2 aa bb
       -0.039408397 -0.06667903 -0.07670496 -0.005213108
0002a0 89 6d b3 bd 6e 7d 17 3d 1f 2c ac 3c 0e 65 1a 3d
       -0.087611265 0.036984853 0.021017132 0.03769403
0002b0 7a 1f 89 bd 33 82 f4 bc 5e 4f 1c bc 9d 76 6b 3d
       -0.06695457 -0.02984724 -0.009540407 0.057486165
0002c0 26 7f 90 3d 8d 48 e5 bc 30 15 8b 3d 1f e0 d3 bc
       0.07055502 -0.027988696 0.067911506 -0.025863705
0002d0 7f 13 3f bd 65 27 a1 3c 98 6c c0 3c 08 79 a1 bd
       -0.046649452 0.019672105 0.023489282 -0.07884413
0002e0 4c 30 0d 3d 46 20 4b bd 87 50 c3 bc 46 c8 ef ba
       0.034469888 -0.049591325 -0.02384211 -0.0018293939
0002f0 60 bd b5 3d 39 54 6d 3d 3b 37 10 3d 89 b9 cb 3d
       0.08874011 0.05794165 0.035208922 0.099474974
000300 7a b8 e6 bd fd 35 1e 3d d4 c7 52 3d 3c d0 1a 3c
       -0.11265655 0.038625706 0.051460102 0.009449061
000310 4b 93 8b 3d 3d ec 2a bc fd d1 8a 3d ff a1 23 3e
       0.06815203 -0.0104323 0.06778333 0.15979765
000320 a0 3a a5 3d 38 1f 6c bd 2e 92 3f 3d a3 cf 4d bd
       0.080678225 -0.05764696 0.046770267 -0.050246846
000330 39 3a c9 3c 89 cc 00 3e cc 21 b2 bd 72 30 ac 3b
       0.024563896 0.12578024 -0.086978525 0.0052547986
000340 f3 2a 8b 3d 2c 24 d0 bc 14 87 ab bd 80 7c 91 bd
       0.06795301 -0.025407873 -0.083753735 -0.071038246
000350 45 b2 bd 3d 62 59 c7 bd 4f ef 86 bd 36 93 81 bd
       0.09262518 -0.09733845 -0.06588613 -0.063269064
000360 83 73 df 3d cf 57 22 bd 82 de 02 3e 1d d3 6c bd
       0.10910704 -0.039634522 0.12780192 -0.05781852
000370 ed c3 c8 3c 40 8e af bd 02 4f 1d 3d bc f3 6f bd
       0.024507487 -0.08572054 0.038405426 -0.058582053
000380 f2 6c f3 bd fa 20 80 bd 5c 82 db bd cf 25 5c 3d
       -0.11886014 -0.0625629 -0.107182235 0.053746995
000390 91 84 64 bd 2e ba f7 3d 01 f5 3a 3d dc cf 4b 3d
       -0.055790488 0.12096058 0.04564381 0.049758777
0003a0 84 4a bb 3b 12 ca b3 3d 62 6a 13 be af c7 a5 bd
       0.00571567 0.08778776 -0.1439605 -0.08094727
0003b0 87 e6 55 3d a3 8f 61 3d 3c 86 09 3d 5a 86 2a 3d
       0.0522218 0.055068623 0.03357528 0.041632034
0003c0 53 d6 73 3c 35 a7 07 3e ea fd 95 bd 5f 6f c0 bd
       0.014882642 0.13247378 -0.07323821 -0.09396242
0003d0 cb 4c d2 bb 8f ea 8c bc b8 1f cc bd 2b 3f 88 bd
       -0.006417846 -0.01720169 -0.09966987 -0.06652673
0003e0 31 cc 8a bc e9 0f 81 bd 4d c5 19 bd 0d c4 26 3d
       -0.01694307 -0.06301863 -0.037541676 0.040714312
0003f0 11 a9 a7 bd 2f 79 74 bd a5 40 0c bb 3e c5 1e bd
       -0.08186544 -0.059685882 -0.0021400836 -0.038762324
