model/model_weights_PermeateConductivity.pth (torch, 921477 bytes, 14 tensors)

lstm.weight_ih_l0 f4 [512, 10]
00000000: 9eb1 a53d 5d61 0f3d 17c6 2f3e 66f6 723d
00000010: c6be 013e 7015 0d3d 3519 62be 98dd 3e3e
00000020: 1de7 c53d 0e18 8b3d 40b3 1bbd d3b1 ed3c
00000030: ab74 353c 3175 5ebd 0d54 24bd 8152 313d
00000040: ccc7 913d 41e0 2cbc 73af c1bd 3533 c1bd
00000050: a928 c93d 1392 5b3b 81cb 5c3d 63d1 b13d
00000060: b716 85bd 04af 6b39 aea2 833d 78f6 3dbd
00000070: f66d cebd 7deb 33bd fdf6 b2bc eb17 313b
00000080: ff84 853d beaa 2f3c 5fb3 093d dc75 10be
00000090: 11c8 843a af0c 2a3d 2b5a cc3d bc83 83bb
000000a0: 4610 d1bd fd34 db3c 32f8 093c c826 4b3d
000000b0: 3e9a bdbb a6c9 b13d 1b36 bb3c 2ba0 33bd
000000c0: 6cfb 79bd ec7b c4bc 769c c93b 0e9b 1bbd
000000d0: 09ff 08bd 17d1 553d 7806 813c c18f 91bd
000000e0: 51c8 d33c 0fe4 ac3d 53db fcbc 56dc 02bd
000000f0: 9b2b 4abd 12f1 023e 9114 20bc beeb 163e
00000100: bbdc ba3b 5ead 04be d2ff 3bbd 32b0 323c
00000110: 940d 8d3d ef07 01be f190 51bd 8ab2 443d
00000120: 3c9c cfb9 30f1 eb3d 8e63 0fbd a237 30bc
00000130: 333d 02be b9f9 aa3d 4dd7 84bc 8765 39bd
00000140: c79b 65bd d96b e63d 64f2 ab3d 5534 fe3c
00000150: b7c1 8f3d ae3b c9bd 42bc 07be 5f7b 923d
00000160: 8c42 1d3e 1569 84bb da1a 673d eb52 c4bc
00000170: 25af 45bd ea54 be3d 1513 083e 2e62 b3bd
00000180: 8616 d83c 7378 14bb 36c8 07be 6315 c2bd
00000190: 23e6 b1bc 3f56 92bd a0a3 503d b1e6 0fbd
000001a0: 1d71 a1bd 0460 843d 5f8b 07bd 0a90 38bd
000001b0: e908 233c 76bf 863d 2906 863d 292a 7f3c
000001c0: a270 9dbd 9e87 833d 70d9 53bd ed86 0c3d
000001d0: cdbd d73d 7626 c63d 33b8 e6bc 6b37 633d
000001e0: 4caa d83c 9ca2 9b3c 4a72 a53d d6cf 803d
000001f0: 3a04 d6bb d120 74bd b23e 4e3d 98a7 fdbc
00000200: 374f a73c cce5 b8bc 7155 48bd 3728 9bbd
00000210: 0569 f63d d0ab db3d 2b8d ac3d f371 1b3d
00000220: 8ac8 4b3e 2931 21bd 85db 3fbe db64 4bbc
00000230: ea86 f9bb fe81 9bbd 15aa 6bbd d38c 363b
00000240: d3af efbc 2667 0cbb 98de 0f3d c851 833d
00000250: 1407 15be 608f 65bd 18dc a33d a7c6 953d
00000260: e3ff 37bd f81a a3bc f635 983c a3de a33c
00000270: 062c c93d 73c7 0dbd 7d9b 5fbe 8038 ca3b
00000280: ed0b edbd 85f9 14be a060 56bd e1b9 28bb
00000290: c627 8fbd 616c fd3d e304 143e 03cf 85bd
000002a0: 93d3 08be b991 fd3d 4777 863c 5a39 a53d
000002b0: 5deb adbd cdfb 053e f197 8ebc 40a4 b4bd
000002c0: 55ea e13c b8c7 80bd 5e88 d4bd 8a85 f6bc
000002d0: 4f19 003e eed2 ee3d e741 ac3d 6d35 873d
000002e0: 21c9 983c 678a 4ebd a4fa 38b9 18d7 ed3c
000002f0: a91b b8bd 3df2 e4bd 902a 423c f64d 593d
00000300: e2ce 0bbc 3b07 fc3c 7652 603d 17de db3c
00000310: c520 c23d ad3c 683d aeb5 9bbc 410e 43bd
00000320: 65c0 593d 433b 963d d18f 81bd b63a 34bd
00000330: 13d3 21bd ad44 93bd f95d db3d a171 b03c
00000340: bef0 6ebe 5a1b 1fbe aae0 64bd bbe1 73bd
00000350: cfb3 d6bd c0b2 fabc 26b5 abbd b5f4 13bd
00000360: 4f40 5d3d 192b fdbc e6c7 2cbc 2271 373d
00000370: 8119 223d 60e8 72bd 3a30 34bd c5cc 553d
00000380: de01 dcbc 5ada c73b 017e 5a3d 081f b2bd
00000390: cf32 19be b7d9 40bd 5e74 82bc 19be d8bd
000003a0: 3a61 08bc 8891 b63b 2b56 62bd 6ee0 abbc
000003b0: caeb 433e dec6 71bd 5abf d7bd 87ff abbd
000003c0: 4d3d 1b3e f979 13bd 488e 783d 877d 363d
000003d0: b1db f1bb d084 803d 3cae a93d e683 103d
000003e0: 2c1a 5ebd f60e 653d 1c8e 383d 7a84 113d
000003f0: 41d9 583d 2a15 6b3d 96a4 873d 918a 74bd
0.080905184 0.035004962 0.17165409 0.059317015 0.1267043 0.034444273 -0.22079928 0.18639219
0.09663222 0.067916974 -0.038012743 0.029015457 0.011075179 -0.05431098 -0.04011922 0.043291572
0.07118186 -0.010551513 -0.094572924 -0.09433595 0.098222084 0.0033503815 0.053905014 0.086825155
-0.06498473 0.00022476545 0.06427513 -0.04637763 -0.10079567 -0.04392575 -0.021846289 0.0027022313
0.065195076 0.01072186 0.033618327 -0.1410746 0.0010130425 0.041516002 0.09978136 -0.0040135067
-0.10208182 0.026758665 0.008420991 0.04959753 -0.0057862094 0.086810395 0.022852948 -0.04385392
-0.06103079 -0.023984872 0.006152685 -0.03798967 -0.033446345 0.052201357 0.015750155 -0.07107497
0.025852354 0.08441936 -0.0308663 -0.03194841 -0.04935799 0.12787274 -0.009770528 0.14738366
0.0057025827 -0.1295676 -0.045898266 0.010906266 0.068873554 -0.12600683 -0.051163618 0.04802183
-0.0003959852 0.11520612 -0.035007052 -0.010755451 -0.12718658 0.08348412 -0.016215945 -0.04526284
-0.056056764 0.11251039 0.08395842 0.031030813 0.0701937 -0.09825836 -0.13255408 0.071524374
0.15357417 -0.004040847 0.056422092 -0.02396532 -0.048262734 0.0929354 0.13288529 -0.08758961
0.026377928 -0.00226548 -0.13259968 -0.094767354 -0.021716183 -0.071453564 0.050937295 -0.035132114
-0.07882903 0.06463626 -0.0330919 -0.04505924 0.009950855 0.06579487 0.06544144 0.015574017
-0.07687499 0.06422351 -0.051721036 0.034308363 0.105342485 0.096753046 -0.028164005 0.055472773
0.026448391 0.018998437 0.080784395 0.062896416 -0.0065312656 -0.05960161 0.05035276 -0.030963704
0.020423515 -0.022570513 -0.04890961 -0.0757603 0.1203175 0.1072613 0.08425363 0.037950467
0.19900718 -0.039353523 -0.18736084 -0.012414183 -0.00761496 -0.075931534 -0.05753525 0.0027854934
-0.029258644 -0.0021423786 0.03512439 0.06412083 -0.14553481 -0.056044936 0.08000964 0.073132806
-0.044921767 -0.01991032 0.018580418 0.020003622 0.0982285 -0.034614038 -0.21836658 0.006171286
-0.1157454 -0.14548309 -0.052338243 -0.0025745558 -0.06990008 0.12374187 0.14454989 -0.06533625
-0.13361959 0.1238131 0.016414298 0.080675796 -0.084921576 0.13084336 -0.017406436 -0.08820391
0.027577559 -0.06288093 -0.103775725 -0.030092973 0.12509654 0.116613254 0.084110074 0.06601987
0.018650593 -0.05042496 -0.00017640978 0.029033229 -0.08989651 -0.11179016 0.011850968 0.053052865
-0.008533211 0.030765167 0.05476614 0.0268393 0.094789065 0.05669849 -0.01900753 -0.047621015
0.053161997 0.07335522 -0.06326259 -0.044001304 -0.039507937 -0.07190833 0.10711283 0.021538557
-0.23334023 -0.15537778 -0.05587832 -0.059541445 -0.104835145 -0.030602813 -0.08384161 -0.036122043
0.054016408 -0.03090434 -0.010545706 0.044785626 0.039575104 -0.05930364 -0.043991305 0.052197237
-0.02685636 0.0060990276 0.053342823 -0.08697325 -0.14960788 -0.04708263 -0.015924629 -0.10583133
-0.008323962 0.005571548 -0.055257957 -0.02098104 0.19132915 -0.059027545 -0.10534544 -0.08398347
0.15160103 -0.036004994 0.060682565 0.044553306 -0.0073809256 0.06275332 0.08285186 0.03528204
-0.05422418 0.05592247 0.0450574 0.03552673 0.052941564 0.05739323 0.06623189 -0.05970246

lstm.weight_hh_l0 f4 [512, 128]
00000000: ec76 a4bc f8a7 17be 8f7a 8b3d 6050 7c3c
00000010: ee7b 57be 6a94 a7bd 7ee5 9bbd 8a94 ba3c
00000020: 02ea 243d b513 ca3c fba0 0fbe b24e c23d
00000030: 8467 153d bdeb edbd 32a3 d53d 4d97 4ebd
00000040: 377f eebd 36c9 d73d a013 1b3d f8bf 90bd
00000050: aaef c73d c049 203e 8075 7f3e 3e02 d9bd
00000060: f160 6cbc 2c5f f4bd f8f1 ea3d 9e01 be3d
00000070: ccdd bf3d 101e c4bd fb2a 84bd 7493 be3d
00000080: 86bf 543d 8dd0 fc3d 3be1 3c3e 6264 23bd
00000090: d46d cc3c a841 e7bd 063b 72bd 4fdb 77bb
000000a0: effb bcbc 4d70 3ebe d3a2 cfbd 5763 dcbd
000000b0: d228 923d 52e2 203d f1c6 24be 7a1d 1d3e
000000c0: 5e1e 0b3e c326 133e c44c 2a3d 82d8 a7bd
000000d0: d509 33bc 13a3 c3bd eda7 683d 4aa7 a2bc
000000e0: 7233 20be 5529 8ebd 9309 e73d a88b 073d
000000f0: 63b0 703d 7899 acbd 5c2b 2dbd efc9 3c3d
00000100: aeeb 4fbb 82be 2ebc 3a82 cd3d efe7 a1bd
00000110: b33e bf3d 992b 2c3e ab1b 143e e0da f33d
00000120: aa05 423d 0151 78bd 4ad8 30be aa07 e5bb
00000130: 3c2a c53d 4060 0d3e e4f1 89bd 87f7 1fbd
00000140: 82bf 1f3d dd85 35be 736b c73c 20cf 043e
00000150: 3e25 c5bd 166b 0dbd f8ea 7bbd 79b0 0f3d
00000160: 41f8 733c 8530 10be 825f 9e3d af53 2abe
00000170: 9c04 a0bd 834b 3abe 0906 293d 4900 51be
00000180: 6149 96bd f744 9bbd def3 d9bd 017d bf3d
00000190: a4f1 a93c 4f40 303e 6404 ae3d 76d9 64bd
000001a0: 29c6 bb3c 51a4 8b3d 3667 893d 4ff5 03bb
000001b0: 6ab1 2b3d 2dab c63d 3a25 aebd 9256 b43d
000001c0: 0e42 a03c 3878 95bd e27c a5bc aa9b c03c
000001d0: 1643 f4bd 3593 133e ed34 08bd 5abe 92bd
000001e0: 1ec4 093e b73c 4ebd a8ac 4bbe 9446 003e
000001f0: ff68 4d3d 3cf1 0b3e 0068 e2bc b578 f63d
00000200: 2c87 fcbd 485b a13d 3076 24bd 7115 073e
00000210: fc7b 39bd c2e0 16bd f0eb 043e 1a47 9bbc
00000220: c699 9abd 43a3 2dbd 2088 a9bd 616f b83c
00000230: 0354 99bd a461 163d 8ac4 34bd 5982 0cbd
00000240: 6a79 d2bc 4558 5d3d 9a76 8abb fb09 643d
00000250: 3bfb a2bd 6e87 ebbc d000 f73c 9d8b 743d
00000260: 995c aabd d0c6 ff3d eb79 9fbd e3c2 e4bd
00000270: 6469 babd 2c81 bdbd 7149 a83d 925e 013d
00000280: e3b4 103c 5538 97bd 4e5e 5c3d 403d cc3d
00000290: fb3d 73bd 4213 043c ed8d 8b3d c69c 3abd
000002a0: d1a6 df3c d0f1 1a3d fbf5 6fbd df94 2bbb
000002b0: d4e2 0b3d 3f35 853d df83 ce3c c021 bbbd
000002c0: b742 c9bd 78a8 313c d9e9 44bd bd99 573d
000002d0: 1681 323d ec67 0bbc ea1f b1bd 38fd 153c
000002e0: ba84 2fbd fe99 3a3d 9d5b 1d3d dcde a0bb
000002f0: a655 9e3d 87fd 223d 0eca ac3c e99e dbbd
00000300: 879b dcbc 586d 5dbd 35f9 6ebd 8712 72bd
00000310: 10e5 3ebd 14d9 88bb 69e4 ddbd 5da3 c8bd
00000320: 3344 373d a2d5 3e3d c154 3bbd 15c2 b2bd
00000330: 82f2 133c b45a 95bd 7c59 f6bd ca14 32bd
00000340: 665b 913d d3d8 d03d 5b44 95bd b169 46bd
00000350: 3784 94bc f447 a33d 4326 2f3c 9088 ad3d
00000360: da76 21bd b1fc 3b3d 6ef1 c5bd dca2 853d
00000370: 24e5 053c 5690 c63d b339 93bd ceb3 93bc
00000380: 8a79 593d eed8 e13d 276b 633d c6a4 363d
00000390: 517b f1bd 54c3 63bd 2b4b 64bd fe7e d23d
000003a0: 3861 2b3d 3e41 663d 39aa 2dbd 78a9 9ebd
000003b0: c22d 96bd 950f 9bbd bf73 483d b9e5 acbc
000003c0: 8518 3c3d 5c5c 82bb 5e33 4f3b 5a57 c9bc
000003d0: fd87 fb3c c524 49bd 15dd 99bd 89bb e9bc
000003e0: 5406 05bb a3f3 6dbb fd22 523c 5314 5ebd
000003f0: 3e68 da3c 496c b93c 25b8 563c a8e2 c6bd
-0.020076238 -0.14810169 0.068104856 0.015400022 -0.21043369 -0.081826046 -0.076121315 0.022775907
0.04026223 0.0246676 -0.14026253 0.09487666 0.036475673 -0.11617229 0.10431518 -0.05043726
-0.11645358 0.10536425 0.037860513 -0.07067865 0.09762509 0.15653133 0.24947166 -0.10596131
-0.0144274095 -0.11932215 0.11471933 0.09277652 0.09368476 -0.095760465 -0.064535104 0.09305468
0.051940463 0.123444654 0.18445294 -0.039890654 0.024954714 -0.1129182 -0.05913832 -0.0037819927
-0.02306935 -0.18597527 -0.10138478 -0.10761135 0.07136692 0.039278336 -0.16091515 0.15343276
0.13585803 0.14370255 0.041577116 -0.081955925 -0.010927637 -0.09552588 0.05680077 -0.01985516
-0.15644625 -0.06941477 0.11281123 0.03309217 0.058761965 -0.08427709 -0.04227768 0.046091016
-0.003172617 -0.010665538 0.10034604 -0.07905566 0.09338131 0.16813506 0.1446368 0.119069815
0.047368683 -0.060624126 -0.17270008 -0.006989439 0.09627196 0.13806248 -0.0673559 -0.03905442
0.039000995 -0.17726846 0.024343228 0.12969637 -0.09626244 -0.034525953 -0.06150338 0.035080407
0.014890731 -0.14081009 0.077330604 -0.16633485 -0.07813379 -0.18192868 0.04126552 -0.20410265
-0.07338215 -0.075815134 -0.10642217 0.093500145 0.020745106 0.17212032 0.08496931 -0.05587145
0.022921639 0.0681845 0.06709139 -0.002013523 0.041917242 0.09700618 -0.08503194 0.088055745
0.019562747 -0.072983205 -0.02020115 0.023511726 -0.11926858 0.14411624 -0.0332536 -0.07165213
0.13453719 -0.05035087 -0.19890082 0.12526923 0.05014896 0.13666242 -0.027637482 0.12034742
-0.123304695 0.07878739 -0.040151775 0.13191773 -0.045284256 -0.03683544 0.12980628 -0.018954802
-0.07548861 -0.042392027 -0.08277917 0.022514047 -0.07486727 0.03671421 -0.044132747 -0.034303997
-0.02569266 0.05403926 -0.004225564 0.05567358 -0.07958075 -0.028751101 0.030151755 0.059703458
-0.08318443 0.12489092 -0.07786926 -0.11169984 -0.09102133 -0.09253153 0.08217133 0.03158433
0.008832189 -0.07383791 0.053800873 0.0997262 -0.05938528 0.008061232 0.068141796 -0.045559667
0.027301224 0.037828267 -0.058584195 -0.0026181263 0.034151867 0.065042965 0.025209365 -0.09137297
-0.09827178 0.010843389 -0.048074577 0.05263685 0.043580137 -0.008508664 -0.08648665 0.00915461
-0.042851187 0.045557015 0.038417447 -0.0049093794 0.0773118 0.039792564 0.021092441 -0.10723669
-0.02692963 -0.054059356 -0.05834313 -0.0590997 -0.04660517 -0.0041762684 -0.108345814 -0.09796784
0.044742774 0.046590455 -0.045735124 -0.087284245 0.009029986 -0.07292691 -0.120287865 -0.043476857
0.07097511 0.10197606 -0.072884284 -0.04844064 -0.018129451 0.07972708 0.010690275 0.08473313
-0.039419986 0.045895282 -0.0966519 0.065252036 0.008172307 0.09695499 -0.0718874 -0.018030073
0.053094424 0.11027704 0.05552211 0.044590734 -0.11791099 -0.0556062 -0.05573575 0.10278128
0.041840762 0.056214564 -0.042398665 -0.07747167 -0.07332946 -0.075713314 0.04893851 -0.021105634
0.04592182 -0.0039782953 0.003161631 -0.024577785 0.030704493 -0.04910733 -0.07512871 -0.028531807
-0.0020297961 -0.003630855 0.012825725 -0.0542186 0.026661035 0.022634642 0.013105427 -0.097112

lstm.bias_ih_l0 f4 [512]
00000000: 073c 00bd d19b ab3d 70c6 02be ad56 03be
00000010: e4a3 8dbd 1079 283c 481f 89be 3ec6 4fbe
00000020: 3b58 9fbc 86f7 473d 526e aebd d6a1 60bd
00000030: 6cd8 103d 41c9 f93c ce58 c63d 10ae dcbc
00000040: 12bf d4bc 37db 983d 6538 36be 5d9a 99bd
00000050: 56cc e53c 2ae3 c7bd 5671 22bc b1f5 1d3d
00000060: 5f98 a3bd 957b fcbd 4e76 023b 14fd 57be
00000070: 6585 acbd 90c2 e2bd 9c5d 30bd 9d6a 33bd
00000080: 9fb4 2d3d 4f2e aebd 6464 0c3d d6a3 c7bd
00000090: b5d4 2b3d 93d8 cfbd 5425 283d c305 7d3c
000000a0: 7c51 b8bd 1463 4fbd dcdb 0dbc 9c9a 933c
000000b0: b57f b1bd 6889 9cbd 1e78 1abd 20ef 903c
000000c0: 8ca0 e73c f716 fdbc 7628 e83c 79f6 b1bd
000000d0: 67c2 6bbd 4d2a 05bd 0bd8 45bd 7514 dbbd
000000e0: 97b6 dcbd ba35 f8bb 7e0c 2c3d 2e46 19bb
000000f0: 56d7 bfbd c579 4f3d fd87 34bd a335 0cbd
00000100: 2c0d 54bd b9c9 81bd f932 9c3d aec7 1dbe
00000110: eaa1 933d 8769 c2bc 550a 30bd 3f29 29be
00000120: 163f acbd 3e5b 0abd c495 9bbd cb8e 49bd
00000130: ee06 f2bd 039a 24be d9e9 503d 276e f1bd
00000140: f280 213c bfd9 bcbd 2117 61bd e34a b2bb
00000150: 32d6 16bd e132 2b3d 54a5 333d ba14 c0bc
00000160: a687 17bd e3f0 2bbd 0d80 b3bd 87bf 86bb
00000170: d221 aebd 98f3 9cbd 861f 2b3d f933 82bc
00000180: d237 18bc af5a 59bd 5779 043d 4b4d 913d
00000190: cd43 773d 55a7 853c 2201 023d 0dba b23d
000001a0: 51eb 173d 8ef5 583d 31db b8bd 322a 993d
000001b0: 0294 5d3d 0b27 1c3d 92b9 f33a 2c35 70bd
000001c0: 9cd5 7bbc 7ebe 88bd d24c ed3c 63f8 c8bd
000001d0: 361e 0d3c b48c 80bd 6b4a 8e3c af7a 01be
000001e0: 0be7 2bbe a094 fbbc 916b 443c 6c17 b9bb
000001f0: dcb5 8dbd 25b1 35bc e56a aa3d 290b 343b
00000200: ed87 cdbc 8b9e ecbc 6343 4cbd f0fb 6fbd
00000210: ee87 a9bd 7031 393c 3ee3 c0bd 8d3a 0cbe
00000220: 45a7 73bd 037f 0ebe 83ca 01be dcc6 9dbd
00000230: 8453 793c 84b1 abbd ad8d 663d 71a3 08be
00000240: e7a4 c53c 1973 a0bd 9ca7 a5bd b3de cebd
00000250: 4142 013d 80c1 a1bd f516 b2bd bb36 053c
00000260: 7b6e c1bd b7d5 d7bd 625d fcbc 5353 48be
00000270: 65aa c3bd 21bc a7bc e16b 27bd a6ca 263c
00000280: 669e e4bd f5e5 943d 79c4 68bb b2cf bcbc
00000290: a53a 0dbe 7d1e ffbc 3b74 07bd 43b0 e9bd
000002a0: 486e d4bb 6047 61bd 78fd 2dbc e50a bebd
000002b0: 69d8 66bd 3f12 4bbd 3e34 8a3d 16a5 a8bd
000002c0: 9f66 13be 1503 f13c 1023 e2bd c743 053d
000002d0: 9336 adbd d388 f8bd 44e5 c4bd 1457 63bd
000002e0: 3b0e c5bd 2fcf 82bd 8205 01be 536a 403d
000002f0: e052 12be 6e39 d03c 33e5 95bd 9a5d cdbd
00000300: da10 a9bd 5ca5 3dbd 2c69 96bd 2246 68bd
00000310: 5131 cebd a9ab 343c 11c5 b3bd 893f 33be
00000320: 3201 4bbc 0aa1 98bd 00f1 edbd 853a 1abd
00000330: 6f44 65bd 8241 f1bc 5f7c 66bc 3615 d4bd
00000340: 0e17 aa3c e672 1ebd b721 273d a8f8 8abd
00000350: 176a 54bd f22a bbbd a467 7cbb 210b 85bd
00000360: fe93 2abd 241a 1dbc 08f6 a1bd 20ed bfbd
00000370: 0a85 503c e069 8fbd 08bc b33d 3612 bfbd
00000380: f8ea 9abd 090e 93bc 773c 74bd 0b60 193c
00000390: aa00 4dbd 49f7 47bd 2bd8 e23c 7f47 a43b
000003a0: 8c08 973c 830e 3fbc f5c6 88bc c3c9 4ebd
000003b0: 3746 a8bd da14 c4bd a60e 24be c344 0b3d
000003c0: a77a c1bd 28b1 f1bd 807c 95bd b47a 62bd
000003d0: 0097 a23d 71bc 2b3d 9ef5 9bbd 340a 8cbd
000003e0: df0c 42be 3442 7ebd 53d4 d3bc 4a4c d1bd
000003f0: a057 05bd 365c efbc 67a2 3dbc 550d 0d3d
-0.031307247 0.08379329 -0.1277101 -0.12826033 -0.06916025 0.01028277 -0.26781678 -0.20290467
-0.019451251 0.04882004 -0.08517136 -0.05484184 0.035362646 0.030491473 0.09684907 -0.026938468
-0.025970016 0.07463687 -0.1779495 -0.075001456 0.028051537 -0.09760125 -0.009914717 0.038564388
-0.07988047 -0.12328259 0.001990694 -0.21092635 -0.084238805 -0.11072266 -0.043058023 -0.043802846
0.04240858 -0.085049264 0.034275427 -0.09748046 0.0419509 -0.1014873 0.041051224 0.015443268
-0.08999917 -0.050631598 -0.008658376 0.01801806 -0.08666936 -0.07643396 -0.03771221 0.017692149
0.028274797 -0.03089474 0.028339606 -0.08689589 -0.057558443 -0.032511044 -0.048301738 -0.10697261
-0.10777014 -0.007574764 0.0420041 -0.0023387778 -0.09367244 0.050653238 -0.044075 -0.03423084
-0.051770374 -0.06337304 0.0762691 -0.15408203 0.07208617 -0.02373196 -0.042978603 -0.1651964
-0.0841047 -0.03377842 -0.07596925 -0.049208444 -0.11817728 -0.16074376 0.051004265 -0.11788588
0.009857403 -0.09221219 -0.054953698 -0.005441056 -0.036825366 0.04179657 0.04385884 -0.023447383
-0.0369946 -0.041977774 -0.08764658 -0.0041121873 -0.085025445 -0.07663649 0.04177811 -0.015893923
-0.009290652 -0.053065 0.03234228 0.070948206 0.060367394 0.016315142 0.03173936 0.087268926
0.03708965 0.052968554 -0.090261824 0.07478751 0.05409623 0.03812317 0.0018594733 -0.05864446
-0.015370753 -0.066769585 0.028967295 -0.09813001 0.00861316 -0.06276837 0.01736947 -0.12644456
-0.16787355 -0.030710518 0.011988536 -0.005648544 -0.069194525 -0.011089598 0.0832117 0.0027472472
-0.025089229 -0.028884193 -0.049868952 -0.058589876 -0.0827788 0.011303291 -0.09418343 -0.1369421
-0.059485693 -0.13915639 -0.12674908 -0.07703945 0.015217666 -0.08383468 0.056287456 -0.13343598
0.024126483 -0.07834453 -0.080886096 -0.1010107 0.031557325 -0.07898235 -0.08695785 0.008130725
-0.094449006 -0.1053881 -0.030806247 -0.19563036 -0.095539846 -0.020475449 -0.040874366 0.010180151
-0.111630246 0.07270423 -0.0035517497 -0.023048256 -0.13791902 -0.031142468 -0.03306983 -0.114105724
-0.006482873 -0.05499971 -0.010619514 -0.09279422 -0.05635873 -0.049577948 0.06748246 -0.08234613
-0.14394616 0.029420415 -0.11041844 0.03253534 -0.08457675 -0.12135472 -0.096140414 -0.055502966
-0.09621855 -0.063871734 -0.12599757 0.0469764 -0.14289427 0.02541801 -0.07319107 -0.10027619
-0.08255167 -0.046300277 -0.07344279 -0.05670751 -0.10068 0.011027255 -0.08777822 -0.17504705
-0.012390422 -0.07452591 -0.11618233 -0.037653465 -0.055973466 -0.029450182 -0.014067738 -0.10355608
0.020762946 -0.038683794 0.040803637 -0.06785709 -0.051858988 -0.091390505 -0.0038513923 -0.06496263
-0.041645043 -0.009588752 -0.07908255 -0.093714 0.0127270315 -0.07002616 0.087760985 -0.09329645
-0.07564348 -0.017951028 -0.059627976 0.009361277 -0.05004946 -0.048819814 0.027690968 0.005013406
0.018436693 -0.011661175 -0.016696433 -0.050485384 -0.082165174 -0.095742896 -0.16021213 0.034001123
-0.09447222 -0.11801368 -0.07299137 -0.0552928 0.07938957 0.04192776 -0.07615207 -0.068378836
-0.18950222 -0.062074855 -0.02585808 -0.10219629 -0.03255427 -0.029218774 -0.011574364 0.034436543

lstm.bias_hh_l0 f4 [512]
00000000: dcf6 c0bd 4b74 183c b163 113d 9289 abbd
00000010: e06d a63c 2ef0 1cbe be1c 27be 51b0 16be
00000020: e348 c8bc 51d9 b5bd 596e ad3c f724 5c3d
00000030: 2206 2ebd 1783 c63d 274b c0bb 13d2 30bc
00000040: a678 323d 2b43 83bd e0e6 1cbe 717c 083c
00000050: 9f93 cdbd b7a0 2c3c f781 0cbd 90ff 49bd
00000060: a38c 86bd 1dc9 07be 2152 3ebc 9d7f b9bd
00000070: 4dd9 133c e356 bdbd 9477 30be 76e2 e6bb
00000080: d717 31bd 75e4 6abd f7fa 01be 6ffc 44bd
00000090: 5382 7dbd 94d5 27bd 5c99 203d 401e 793d
000000a0: cb33 d83c 1325 e1bd fe19 f53c ac51 acbd
000000b0: d7e0 96bd 4248 c7bd 3347 cb3d e84c 553c
000000c0: bdb9 733c 5ff7 763d b367 bdbb b41c ecbd
000000d0: 7c2b da3c 2709 4e3b f263 20be 0848 3dbd
000000e0: 9455 50bc f411 2ebd 3172 20bd 71d3 823d
000000f0: 8fde 673d 18de 81bd 0428 e6bb e8c7 6f3d
00000100: 1534 9d3c a825 213d 180d b8bd 2704 a7bd
00000110: d0e7 18bd d4f8 ffbd cf52 6abd fe5b 07be
00000120: 7a69 7e3c 6007 6fbd aedf f9bc 158d 55ba
00000130: 1675 243c b7bd 6abd bf3b f0bc 4148 1abb
00000140: 0282 e4bd 2bf4 623c 0696 a13d c9b7 b03b
00000150: b653 f5bd 1791 9ebb 0076 6ebd 54d6 56bd
00000160: 01df ccbd c781 7d3c d56f b4bd 2305 9ebd
00000170: 03b2 6cbd 8e5c 9dbd b5c6 12bc da15 c1bd
00000180: 5105 b1bd e4d2 573d 286d 06bc 0572 d6bc
00000190: ac87 3d3d a821 523d ac5e 80bd bd6b 9c3d
000001a0: e6a3 f9bd 2fef 183d 466d 01be 3b35 59bd
000001b0: 9c1f c0bd 7632 81bd 93a9 b6bb 1724 26bd
000001c0: fc78 6fbc 623f c2bd 5917 4c3d 8dcd a239
000001d0: 3246 d53d 7c6f 57bd 9276 00bd fbe7 a43c
000001e0: 7bf4 e1bd 9e6b 74bd 766d 35bd 32a8 e7bd
000001f0: bc0e 61bd 0076 633d 91f2 1fbd d5e7 92bd
00000200: 7e21 21bd fb44 2c3b e189 52bd dee5 eb3c
00000210: 884a 66bd b95d e5bd 974c 14be 282c 29be
00000220: c89c 95bd f119 25be ea4b 93bd 3820 b5bd
00000230: 1fa9 9dbc 7e9d 473c d208 38bd a82e 08be
00000240: f23c 06bd f8a7 40bd 9a6d 0abe 6115 f63c
00000250: 0472 00bd 4850 253c cefb 6abd b81d 5f3d
00000260: b7e4 533d 9dd6 5dbd 2809 6b3d 3290 b7bd
00000270: 1471 96bd b80f 5bbd ba01 2bbd e33d 843d
00000280: 4e3d d5ba 021e 413d 252f 03be 4f7b 823c
00000290: ac13 3f3c 33f2 b3bd adf1 383d 73f7 86bd
000002a0: 5531 333c d5e5 053c b7cc 833d 2aed c9bd
000002b0: 85dd afbd ddde c8bd 917c 4dbd 5203 e0bd
000002c0: 8178 e1bc d115 9bbd d52c 95bc 8753 1abd
000002d0: d413 e9bd afe5 a7bc 44e8 debd f405 2bbd
000002e0: c410 8e3c 95ae 16be 809f 09bd 04f2 9abc
000002f0: 6862 fcbd 306b 033d ab8c 1dbe 7e00 c2bd
00000300: face f2bd b2ca 5cbd b489 9ebd 290b c5bd
00000310: 6efd bbbd c346 37bc 5630 0cbd fbd6 8dbd
00000320: 7476 0fbc 8ddc 583c 2c60 5c3a 938a 71bc
00000330: c1b9 5bbd 1379 21be e2de b5bd 5b8e 31bd
00000340: c79c d4bd b3f3 633c d61c c3bd f802 05bc
00000350: 9b6b 5cbd 7b45 97bd e520 433d 8f39 57bd
00000360: 19e9 c5bd ecd0 c9bd eefc 20bc 8aa8 73bc
00000370: d008 b33d ae60 6fbd 5e77 053e 844e bdbb
00000380: f933 d4bd 7e0f 5f3c ca4a 0ebe 143b e7bd
00000390: f46e 36bd bda1 dfbd f363 2b3d cae6 18bc
000003a0: de45 e93c edd9 c63c d4d5 55bb 9f2e 3f3d
000003b0: fa99 4d3c 8a50 0fbc 6789 30bd 833f 323d
000003c0: 25e4 16bd 5e2d 8bbd 7441 b3bd 1fb6 bcbd
000003d0: 5a21 97bc 2fc3 00bc 6ffa 6abd fadd b63c
000003e0: cb3f 46be fc54 00be 3fd4 513d c875 efbc
000003f0: e862 4ebc 8b39 9d3d 54fc eebd 9180 8abb
-0.09422085 0.00930507 0.035495464 -0.08375849 0.020316064 -0.15325996 -0.16319558 -0.14715697
-0.024448818 -0.088793404 0.021170782 0.05374619 -0.042486317 0.09692972 -0.005868334 -0.010792273
0.04357209 -0.06409296 -0.15322447 0.00833045 -0.10037922 0.010536364 -0.03430363 -0.04931599
-0.06569793 -0.13260312 -0.011616261 -0.090575434 0.0090239765 -0.09245088 -0.17233115 -0.007046039
-0.043235626 -0.05734678 -0.12693392 -0.048092302 -0.061891865 -0.04097517 0.039208755 0.060819864
0.026391884 -0.109933995 0.02991962 -0.08414015 -0.073671035 -0.09730579 0.099256895 0.013018824
0.014875826 0.060294505 -0.005780184 -0.11528912 0.026632063 0.003143856 -0.15663126 -0.046211272
-0.012715716 -0.04249759 -0.0391714 0.063879855 0.056608733 -0.06341189 -0.007023813 0.058540255
0.019189874 0.039342552 -0.089868724 -0.08155089 -0.03733045 -0.12498632 -0.05720788 -0.13218686
0.015528077 -0.058356643 -0.030502167 -0.0008146328 0.010037681 -0.057309832 -0.029325364 -0.0023541602
-0.111576095 0.0138521595 0.07889943 0.0053930026 -0.11978857 -0.0048390734 -0.058218002 -0.052450493
-0.10003472 0.015472836 -0.08810393 -0.077158235 -0.057786953 -0.07683669 -0.008958508 -0.09427996
-0.08643592 0.052691355 -0.008204736 -0.026177416 0.046271965 0.05130163 -0.06268057 0.07637737
-0.12189464 0.03733748 -0.12639341 -0.05302928 -0.09381029 -0.06308453 -0.005574414 -0.04056176
-0.014616247 -0.094847456 0.049826954 0.00031052195 0.10413779 -0.052596554 -0.031363077 0.020130148
-0.11032959 -0.059672944 -0.044293843 -0.113113776 -0.054945692 0.055532455 -0.03904969 -0.07173125
-0.03933858 0.0026286233 -0.051401023 0.028796133 -0.056223422 -0.11199517 -0.14482342 -0.1652075
-0.07305294 -0.16123177 -0.07192214 -0.08844036 -0.019245682 0.012183545 -0.044930287 -0.13299048
-0.032772966 -0.047035187 -0.13518372 0.030039491 -0.031358734 0.010089941 -0.057369046 0.0544717
0.05173179 -0.05415975 0.05738178 -0.0896305 -0.07345787 -0.053481787 -0.041749693 0.064571165
-0.001626888 0.04714776 -0.12810953 0.015927939 0.011662405 -0.0878643 0.045152355 -0.06590166
0.010937055 0.008172472 0.06435531 -0.098596886 -0.08587173 -0.09808133 -0.050167624 -0.10938133
-0.027523281 -0.075725205 -0.018209854 -0.037677314 -0.11380735 -0.020495264 -0.10884145 -0.041753724
0.017341979 -0.14715035 -0.033599377 -0.01891423 -0.12323457 0.032084644 -0.15385692 -0.0947275
-0.11855884 -0.053904243 -0.077411085 -0.09621269 -0.09179197 -0.0111863045 -0.034225784 -0.0692577
-0.008756269 0.013236177 0.0008406665 -0.014742511 -0.053643946 -0.15768842 -0.08880402 -0.04334865
-0.103814654 0.013913083 -0.095269844 -0.008118384 -0.053813558 -0.07386299 0.047638793 -0.052545127
-0.096636005 -0.09854302 -0.009825928 -0.014871726 0.08741915 -0.05844181 0.13033816 -0.005777182
-0.103614755 0.0136145335 -0.13895717 -0.11290565 -0.044539407 -0.10919521 0.041843366 -0.009332368
0.028475698 0.024273837 -0.0032628672 0.04667532 0.012548918 -0.008747229 -0.043099787 0.0435176
-0.03683867 -0.067957625 -0.087527186 -0.09214424 -0.01844852 -0.007859035 -0.05736774 0.022322644
-0.19360273 -0.12532419 0.051227804 -0.029230967 -0.012596823 0.07676991 -0.116692215 -0.004226752

lstm.weight_ih_l1 f4 [512, 128]
00000000: 76f0 85bd 2201 8d3d ebda 1c3d 10bc 4e3d
00000010: e78c bfbd d9c5 b3bc 4584 afbb 42ab bebd
00000020: 2f60 bdbc 3c10 a33c 49c4 aebd 0d65 81bd
00000030: 21f7 44bd 6c3e aabd 5f30 a33d 7a15 b5bb
00000040: ba91 d13c 847c ccbc ab90 5b3d aeb1 5cbd
00000050: 660e b23d da91 d43b 48ad 763d f6a5 663d
00000060: b6b4 5cbd 0be9 abba 76d3 8fbd 465b 323d
00000070: cef9 0abd 98eb 7dbc c006 28bd f7ec d03b
00000080: 3ab8 f73c 1f86 6d3d 1177 093d cf9b c33c
00000090: 2f11 8d3d ad41 203d fd0b 0bbc 4e2c 90bc
000000a0: ffe4 933d 0186 d5bd b70c a7bc 5462 8b3d
000000b0: 64f7 9a3d 1507 ec3d 5caa 32bc 6032 31bd
000000c0: 5663 ad3d 6a90 463d 0fd7 123d f819 f5bd
000000d0: 01c2 1a3c 21de d8bd 17f8 babd 3e77 83bc
000000e0: 0c1a a7bd a2ae b73c 5181 66bd cd59 bfbc
000000f0: a39a fdbd a5b0 f1bc 29fd 583d 91cc ab3d
00000100: 6ba4 413d 9617 0bbd 02bf 633c 6217 113d
00000110: 43fe afbd cb20 8b3d 834a a43d 6ef5 493d
00000120: cfa9 06bd 9700 133c 81b2 e8bc 9a99 31bc
00000130: d067 083c 37a2 a7bd 5185 b33d 1803 94bd
00000140: f826 8fbc 5e98 a2bd 4d84 6dbc ee16 973c
00000150: 2f43 b2bc 467e 3e3d 29c5 123c cd27 92bd
00000160: 79cb 06bd d680 fabc ee83 303d 2d7e 2c3d
00000170: 70d7 96bd 9370 8b3d 320d d0bc 4bdd ddbd
00000180: 9561 5dbd 2fab f4bc 39c8 d5bd 3d2a 9d3d
00000190: f1cd 203d 13be de3c 9e61 0c3d db60 00be
000001a0: 85f1 b13d 7033 6dbd ed55 be3d aab2 2b3d
000001b0: 96a4 cdbb 3618 663d 000f 9f3d b89f a0bd
000001c0: d518 453d c118 bdbd 7115 a73c b437 fa3d
000001d0: 3837 3e3d 37d5 db3d 7f27 2a3d 03f4 4c3d
000001e0: 42c8 273d edc5 b03d 0791 9cbd 5ea9 b43d
000001f0: 1d80 ef3d 1e71 6abd 490a 2b3d 1917 e8bb
00000200: acea 743d 179e 253d 0666 71bb 1808 b3bc
00000210: 8f90 75bd 32fb 16bc 1196 c9bb 6240 2abd
00000220: 3bba abbd 8ae9 e3bc a157 833c c059 ae3a
00000230: 899e 0bbd 9774 923d b9af 533d f508 f9bd
00000240: ad60 c0bd 7fbb 95bc fbea 073d c0a2 0ebc
00000250: c0fe 0e3d d6c2 443c 557b e33c 91e3 2cbd
00000260: b633 0fbd 0df2 cc3d b8f9 86bc 48a6 b3bd
00000270: 4c17 613d ad4b 5dbc b24c cfbd cc85 1a3d
00000280: aeca 493c fb09 60bd a75a 173d aeb4 1fbd
00000290: b09e 1e3c 8296 56bd 63a6 db3c 3494 20bd
000002a0: 599c f2bc 3f11 7b3d 243f c0bc 1eb7 6c3d
000002b0: 44d2 f13d 9684 8dbb 6454 12bd eea9 da3d
000002c0: 2258 b0bd 4720 c3bc 018a f9bd c265 c7bd
000002d0: 3da5 70bd 94cb fdbd eb17 8e3c 10d6 cd3b
000002e0: 7061 2fbc 2601 eaba e9ee 863d 8d97 ca3a
000002f0: 37a9 03bd 88cc 93bc 9d68 2cbc 9e64 44bd
00000300: 30aa 883c abb0 b8bb 7460 593d b0b9 88bc
00000310: 807e 8abd a616 273d 81a3 9b3d c5f0 143a
00000320: bdd4 0cbd 0cf7 28bd 32cd bebd a0ea f4bb
00000330: 50cc 533d 1f2a 5ebc 7730 863d 32de 19bc
00000340: e8c9 d8bd 3fec d0bd ea98 4c3b 0d1b 973d
00000350: 4fbb c0bd 6909 073d 7aac 993d cabe e2bd
00000360: 1d9e 75bd 25af fcbd c739 3c3d af8e febd
00000370: 5192 3f3d 42fb 4fbd d7e4 9abd 6280 343d
00000380: 8f92 0b3c 8c41 ec3c fc0b 21bd 4814 533c
00000390: cfee 363d e83f 023d 1523 ce3d 43dc 54bc
000003a0: 50f6 413d 2a3a a63d 0b06 0bbc a7ca 363b
000003b0: e2db 653d ec4d 013e 80f0 84bd 6c0e 88bd
000003c0: 5530 8fbc 1574 34bd 26dd b5bd f29f 9ebc
000003d0: 0285 173d 2483 a63d 91d0 c1bd 91e1 a93d
000003e0: 59ef 8f3b 6f07 bc3c 172c 07bd 4f51 5fbc
000003f0: a6cb bc3c 98e5 d23c 18cc b6bc 9e20 b93d
-0.06540005 0.06884982 0.038294714 0.05047232 -0.09353047 -0.021944927 -0.005356344 -0.093100086
-0.023117153 0.019905202 -0.08533532 -0.06318102 -0.048087243 -0.08312687 0.079682104 -0.005526242
0.025582183 -0.024961717 0.053604763 -0.053880386 0.086941525 0.0064871134 0.060223848 0.056310616
-0.053883277 -0.0013115717 -0.07022755 0.043544076 -0.03392964 -0.015498064 -0.041022062 0.0063759047
0.030239213 0.057989236 0.033560816 0.023878006 0.06888043 0.039125133 -0.008486745 -0.017599251
0.07221412 -0.1042595 -0.020391805 0.06805864 0.07566717 0.11524788 -0.010904875 -0.043260932
0.084662125 0.048477568 0.035849627 -0.11967844 0.009445668 -0.10589243 -0.09129351 -0.01604807
-0.08159265 0.022422139 -0.05627567 -0.02335825 -0.1238301 -0.029503176 0.052975807 0.08388627
0.04727594 -0.03395804 0.01390052 0.03542269 -0.085934184 0.06793364 0.080220245 0.049306326
-0.032876786 0.008972309 -0.02840543 -0.010839844 0.008325532 -0.08185237 0.087656625 -0.072271526
-0.017474636 -0.07939218 -0.014496875 0.01844355 -0.021760551 0.046507142 0.008958139 -0.07136498
-0.03290889 -0.030579012 0.043094568 0.042112518 -0.0736531 0.06808581 -0.025396917 -0.10833224
-0.05404814 -0.029866783 -0.1043858 0.07674072 0.0392589 0.027190244 0.034272783 -0.12536947
0.08688644 -0.057910383 0.09293733 0.041918434 -0.0062757237 0.056175433 0.07766533 -0.07842964
0.048119385 -0.09233237 0.020395966 0.12217656 0.04643938 0.10734027 0.041541573 0.050037395
0.040962465 0.08631501 -0.07644849 0.08821367 0.116943575 -0.057236783 0.041757856 -0.0070828316
0.059794113 0.04043397 -0.0036834492 -0.021854445 -0.059952315 -0.009215163 -0.0061519225 -0.041565306
-0.0838513 -0.027821321 0.016032996 0.0013301894 -0.034086738 0.07151144 0.051681254 -0.121599115
-0.093934394 -0.018277882 0.03318308 -0.008705795 0.034910917 0.012009343 0.02776877 -0.04220921
-0.034961425 0.10007105 -0.016476497 -0.0877195 0.05495386 -0.013506812 -0.1012205 0.037725255
0.012316389 -0.054697018 0.036951687 -0.03899067 0.009681389 -0.05238963 0.026812738 -0.039203838
-0.029615568 0.061295744 -0.023467608 0.05779182 0.11807683 -0.004318784 -0.035725012 0.10676943
-0.0861056 -0.023819102 -0.12184525 -0.09736206 -0.058751334 -0.12392345 0.01734539 0.0062816218
-0.010704383 -0.0017853125 0.06588537 0.0015456543 -0.032143798 -0.018041864 -0.010522989 -0.04794752
0.016682714 -0.005636295 0.0530705 -0.016690105 -0.06762409 0.040793084 0.07599545 0.00056816294
-0.03438257 -0.041251227 -0.09316482 -0.0074742585 0.05170852 -0.013559847 0.06552213 -0.009391354
-0.105853856 -0.1020131 0.0031219074 0.073782064 -0.09410726 0.03296796 0.075036004 -0.110715464
-0.05996524 -0.12338094 0.04595354 -0.124295585 0.046770398 -0.050776727 -0.07563179 0.044067748
0.008518829 0.028839849 -0.03931807 0.012883253 0.04466134 0.031799227 0.10065285 -0.012991968
0.047354043 0.08116563 -0.0084853275 0.0027891786 0.0561179 0.12627381 -0.06491184 -0.06643376
-0.017479101 -0.044056017 -0.08880071 -0.019363377 0.03699208 0.08130482 -0.09463609 0.082949765
0.004392546 0.022952763 -0.03300103 -0.013630225 0.023046326 0.025744244 -0.022314116 0.09039424

lstm.weight_hh_l1 f4 [512, 128]
00000000: da4a 2f3b 1474 8f3c f9e7 0cbe 13a2 4dbd
00000010: 0968 a23b 7c9c cd3d 8a69 cd3c 60c4 623c
00000020: 4a71 c63d 7b6f 0bbd a136 a53d ec3e 483d
00000030: fb28 86bc fcfc 9a3d d220 cc3d 3804 0d3b
00000040: 0e24 0abe 0dae 91bc 7a86 023e d051 323d
00000050: f2aa b7bd 961b d3bd a545 d8bd bb0d d1bb
00000060: ee76 7ebd 5e75 85bb 0270 b6bc 01c3 61bc
00000070: 2605 a33c c722 13bd 20a3 6d3d c6df 07be
00000080: 38ee b2bd f514 603c 5e2c 053e d178 8d3c
00000090: f5b1 f13b 4dfe b13d ca7a bebc d1a6 f43d
000000a0: bcd8 b2bd a370 1e3d 88cf 3d3c 3982 01be
000000b0: 70bd 7f3a 0bcf d0bc fa7a ebbc ce91 23bd
000000c0: ddd6 8dbd 4a75 8c3d d5c3 f83d 8de3 c7bc
000000d0: 7cc4 d1b9 24c2 3cba 7871 16bd bd85 ddbc
000000e0: d30f 073e f114 7abd d91a 483d 3f96 f4bd
000000f0: a47c a23d 345a 153d 7080 3fbd 6149 c33d
00000100: 3171 c23c 15fc c33c 0302 babd 8aa0 533d
00000110: b08e 23bd ca74 6e3d cfdf 943d 7ad4 973c
00000120: 06da 983d 6d1c a1bd 21e5 c9bd 33d7 65bd
00000130: 5737 42bd 11d4 cdba b29f 52bc a9ec 3ebd
00000140: 7c9c 993c 8542 67bd fe07 b13d 7b76 13bc
00000150: e86b 4c3d 1c82 2bbd 9662 bc3c 65db 27bd
00000160: c895 913d 070c d73c 7910 1cbd b010 12bd
00000170: 7810 0ebd 3cdc a23d 3e77 253d b545 70bd
00000180: 3e53 003e 10c7 3cbd e846 803d 7b00 01bd
00000190: 912a c9bd f82a 88bd 4862 683d 9997 473d
000001a0: a7b7 87bc c476 ab3d f617 bdbd 0dbf bdba
000001b0: d921 f5bd 8683 b6bd 3dd5 4b3d bae8 afbd
000001c0: a15b 98bd 1afb cc3d 649e 373d 434d 903d
000001d0: 887e 06bd 66f4 823b 5886 563d 41c7 8e3c
000001e0: bdb3 61bd d36a 0a3d 3e16 80bb ad5e 463d
000001f0: f19f 003c 51b5 453c f328 e9bd 5373 90bd
00000200: a20c 5bbc 7831 9a3d e883 3fbc cc6e 4dbd
00000210: a135 7bbd f469 8abd 2250 82bd 0438 69bb
00000220: b0a4 553d 0d73 c73d a5b9 ed3d c02e 833d
00000230: bdc3 7f38 a484 e03c 430e 913d c7b5 0f3d
00000240: f3f7 d139 9bdc 8fbd f2f0 5d3c 646a bb3c
00000250: 9f19 4b3d 3775 cabd f12f 22bd fe6c 97bd
00000260: 9ce1 073c 903c bf3c 6138 123d bb81 b73c
00000270: 9238 773d ecb0 fc3d 34a6 e03d ebf9 0e3d
00000280: 1571 00be 6b5c 69bd 4c25 013e 0b3d 07bc
00000290: 2671 473d 713d 043d f52c e13d ef83 a53d
000002a0: 2b54 aebc f991 373d 8a9d bdbd adf6 e9bd
000002b0: b88d a93c 5632 aabd 1a16 41bd ab6a 7b3d
000002c0: cb5f 87bc 8a94 f93c 7bb9 1dbd 9088 81bc
000002d0: 7ef2 8fbc 74eb bb3c f462 ebbc 1f7c 13bd
000002e0: f493 a23d 2d39 883c 5b77 333d eba3 e4bd
000002f0: 504c f63b c133 fbbc 395a 3bbc 09a7 0e3a
00000300: 63ab a03b bdfe 11bd 9ded bbbd e332 513d
00000310: d23e ffbc 1a78 883d 6c27 fb3d 0aa1 8c3c
00000320: 2bfd 843d b717 493d df79 c83d 214a dabd
00000330: 60b5 62bd f7e2 06bd 7ec8 e8bd 8205 343d
00000340: 2f8e 86bc 7654 04be 73f9 8bbc 4733 ce3d
00000350: 31e4 483d 2d68 d8bc db15 0e3d 54c8 ca3b
00000360: 89c5 d23c acdb b43d 60ff e23d 5194 fcbd
00000370: a0c5 3cbc 20d6 a53c e7ce 8b3d 9cd8 c9bd
00000380: c5b4 b93d 1a12 2abd ddba 693d db0d edbc
00000390: 98d1 553d 9bd2 00bd 6d30 8a3c 03ca 103d
000003a0: ce14 983d c9e3 313d 5578 c0bd d7fb aabc
000003b0: 023d a0bd 01ff da3c 53b0 69bd 8eda 8a3c
000003c0: f660 6b3b a265 1a3d 754f d43d 0c22 f53d
000003d0: 5c63 9d3d 56f1 7b3d 3681 fcbc a3d2 fbbc
000003e0: 95f8 bdbd 6c94 c5bd 572b 74bd 6579 853c
000003f0: 0ba5 aa3c eb87 be3c cbfa 7cbc 4535 a3bd
0.0026747496 0.017511405 -0.13760366 -0.050203394 0.0049562496 0.10039613 0.025074739 0.013840765
0.09689577 -0.034041863 0.0806706 0.048888132 -0.016376963 0.07567784 0.099671975 0.0021517407
-0.13490316 -0.01778319 0.12746611 0.043535054 -0.08968152 -0.10307996 -0.10560159 -0.0063798106
-0.06212514 -0.004072829 -0.022270206 -0.013779403 0.019899916 -0.035921838 0.058016896 -0.13268957
-0.08736843 0.013676872 0.13005206 0.017269524 0.0073759505 0.08691082 -0.02325191 0.1194588
-0.08732745 0.038681637 0.011585124 -0.12647332 0.00097557064 -0.02548935 -0.028745163 -0.039933972
-0.069257475 0.068583086 0.12146727 -0.024400497 -0.0004000998 -0.000720056 -0.036729306 -0.02704131
0.1318963 -0.061055128 0.04885373 -0.1194272 0.079339296 0.036462978 -0.046753347 0.0953548
0.023735614 0.023923913 -0.09082415 0.051666774 -0.039931 0.058216847 0.072692506 0.018533934
0.0746346 -0.0786675 -0.09858156 -0.056113433 -0.047416057 -0.001570346 -0.012855457 -0.046612415
0.018751375 -0.056459922 0.086441025 -0.009000416 0.049907595 -0.04187213 0.022996228 -0.040980715
0.07108647 0.026250852 -0.038101647 -0.035660446 -0.034683675 0.079521626 0.04039692 -0.058660228
0.12531754 -0.04608828 0.06263524 -0.0314946 -0.09822572 -0.06648821 0.056734353 0.04872856
-0.016567064 0.08372262 -0.09233086 -0.0014476493 -0.119693466 -0.08911805 0.049763907 -0.08589311
-0.07439352 0.10008831 0.044828787 0.070459865 -0.032835513 0.0039964197 0.052374214 0.017428996
-0.055103052 0.03379328 -0.0039089015 0.048430134 0.007850633 0.012067155 -0.113847636 -0.07053246
-0.013369711 0.07528967 -0.011689164 -0.050154492 -0.06133044 -0.0675849 -0.0636294 -0.0035586366
0.05215901 0.09738741 0.116076745 0.06405401 6.0979033e-05 0.027406998 0.07082798 0.035085466
0.00040048323 -0.07024499 0.013546215 0.02287788 0.04958498 -0.09885638 -0.0395965 -0.073938355
0.008293536 0.023344308 0.0356983 0.022400727 0.060356684 0.12338433 0.10969201 0.03490631
-0.12543137 -0.056972902 0.12611884 -0.0082543 0.04869189 0.032285158 0.10994903 0.08081805
-0.021280369 0.044816945 -0.09258564 -0.11424003 0.02069746 -0.08310382 -0.04714022 0.061381023
-0.01652517 0.030466337 -0.038506966 -0.015812188 -0.017571684 0.022939421 -0.028733708 -0.036007043
0.07938376 0.016628826 0.043814998 -0.11164077 0.0075164214 -0.030664327 -0.011435085 0.00054417603
0.0049032434 -0.035643328 -0.091761805 0.05107392 -0.031157885 0.066635326 0.122633785 0.017166633
0.064936005 0.04909488 0.0978887 -0.1065867 -0.055348754 -0.032931294 -0.11366366 0.043950565
-0.01642522 -0.12922844 -0.01708672 0.10068374 0.049045745 -0.026416862 0.03468881 0.0061884318
0.025728958 0.088309616 0.11083865 -0.123329766 -0.011521727 0.020243704 0.06826573 -0.09855768
0.09067682 -0.04152117 0.057062972 -0.02893727 0.052201837 -0.03145085 0.016868794 0.035348903
0.07425843 0.043430123 -0.093979515 -0.02087204 -0.07824136 0.026732923 -0.05705292 0.016949918
0.0035915948 0.03769458 0.10366718 0.119693846 0.07684967 0.061509453 -0.030823331 -0.030740088
-0.09275929 -0.0964745 -0.059611645 0.016293237 0.020830652 0.02325817 -0.015440653 -0.07969145

lstm.bias_ih_l1 f4 [512]
00000000: 9b77 54ba 1101 0cbe 08f9 9bbc c634 29be
00000010: 57d2 343d b3b1 85bd 3e0c 873d 861c 643d
00000020: 77ec d83d 6be3 a53d 05d0 96bd 7ec5 b9bd
00000030: 4800 913c 53d6 08bb 8c5a f8bd 772e 8c3d
00000040: 09ad e33d 430a 8abd d8bd fc3c 9ac3 e4bd
00000050: 2b26 64bd 63a3 67bb a26c c73d 4bfd 1cbe
00000060: 6833 a7bd 58ef 25bd 57a6 85bd 2089 b23d
00000070: 719f e73d 48b9 c7bd 2ca6 22be fe05 04ba
00000080: e9d8 0fbe a3f8 8cbd e05f 943d b3ad 643d
00000090: 3042 edbd 0d13 623d e4b6 873c e0d1 c7bd
000000a0: 2b82 6b3d 5443 a2bd 4dee 4cbe 4b40 2b3d
000000b0: 9518 913d ea6a 93bd 6d11 ee3c 2e11 c03d
000000c0: 3a65 ae3d 21bb 77bd 508d f03c 3aee 54be
000000d0: d998 513d 347a f4bd 6a17 5fbd 0b4c b1bd
000000e0: 3b01 24bd b90c 46bd 40e3 69bc 78c5 433b
000000f0: 9a15 debd 075f 263d 8503 2ebd ecfb 64bd
00000100: 4d6d cabd a151 e1ba f462 22bd 22c9 13bd
00000110: 4ff3 593d 5705 9ebd 8844 073d 951a 58bc
00000120: ffb6 adbd 0a46 333c 124c 1e3d dad1 e3bd
00000130: 1199 24be 2110 4f3c 1085 993d 5dc7 bebc
00000140: cbb3 f2bd fb7d f53c 03a2 8e3d 0165 933d
00000150: 6efe 7e3c f502 07be 7821 a63d 3077 7d3c
00000160: 004c 04be 40c9 94bd fd29 d53d d05f de3c
00000170: 96f6 02bd 13be 39bd e8c8 87bd 6507 80bd
00000180: c054 4c3c a5bc 293d 52b0 823c 8c0c c2bd
00000190: 4e00 553d 99dc 6dbd 3826 10be da87 bebd
000001a0: fd7e 1f3d 729b 4abd cd66 22bc 4457 6ebd
000001b0: c205 20be 51f0 5f3d d646 09be 2ed9 02be
000001c0: 6363 853c 5fec 00bd 59ac 86bd 0316 a73c
000001d0: 2af9 c5bd 6a0c e6bd 3101 17bd 929d 0e3d
000001e0: fb87 4ebd 670f 24be 6ec4 0bbe 8beb c6bd
000001f0: 9a5f d0bd 37c1 4dbd 8f8d a0bd e22e 9bbd
00000200: bffe fabc 233a 05be 45b2 1fbd ed04 babd
00000210: 3bae 8cbc 45b3 9bbd 154f 3cbd fe8c 78bd
00000220: ac8e 493d ee6a 60bc 9387 53bd ad29 5dbd
00000230: 9e5f c13c 8cdb 1ebe 7b84 c93c 86eb 293c
00000240: a6d7 053d 53ee 2abe 4d5b 4a3c d8f3 4f3d
00000250: 7e32 853d 1751 58bd af36 54bd 09fc ccbc
00000260: 9c2a f4bd 227f debc 8561 74bd fd61 8cbc
00000270: c104 443d 9686 0dbe 821f 10be 94de ccbc
00000280: 9cf4 a93c 1a2e b9bd e112 45bd 9928 9bbd
00000290: 2547 42be 9006 22bd 5344 863d fa57 39bc
000002a0: 22c1 8f3c aff3 e9bc 812d cabc 830c d7bc
000002b0: ce70 e0bd 6eec 38bd 20ca 97bd 29ae 383d
000002c0: 8591 4b3d f0d0 29be 33b3 a5bc b9f8 efbd
000002d0: 7207 993b 8dea 8ebd 31f0 673d d036 18be
000002e0: 8294 b2bd 144e b8bc 598d b1bd 2a0f a13d
000002f0: 012e 65be 2017 66bd 1e93 55bd 53d9 8dbd
00000300: 1499 07be b950 953d e9fd 263d d098 87bd
00000310: 9fb4 85bd 57fb f6bc 6101 3cbd c1df 653d
00000320: b141 003c eb9f 893d b379 d3bd 23ee c9bd
00000330: 79d8 d8bd 854c a0bc 2e84 aebd e550 27bd
00000340: 5a17 f7bc 2b44 8bbd 0290 47bd 708b 833d
00000350: a9df 5ebc a1eb e0bd 4098 393d 50e7 22bd
00000360: 6886 16be 7bf0 16be 6a30 423d 0876 3dbc
00000370: b65e 93bd 12aa e6bd f818 14be 1655 4bba
00000380: 992a 313d df80 8fbd 4ca7 38bd fe7f 74bd
00000390: 7cd0 58bc 6b7c cfbb 582d cdbd 05bb fabd
000003a0: dae6 853c 12d4 89bd 4602 b9bd e04c 163b
000003b0: 0ed7 9a3b bcb7 643b 587f f43c fa6a 6ebd
000003c0: 1efb dbbd 25d8 ddbd ca9c 143d 663f ddbd
000003d0: 0a03 063c 9f88 c6bc aaa0 01be 452e d4bd
000003e0: 8ea4 e7bc 8833 0b3d 6cdd 06be def9 95bc
000003f0: ba7a cbbd 1168 8e3d b596 b4bd 4798 aabd
-0.0008104981 -0.13672282 -0.019039646 -0.16524038 0.04414591 -0.06528034 0.06594132 0.055691265
0.10591977 0.08100017 -0.07363895 -0.09070872 0.01770033 -0.00208797 -0.121266454 0.068448
0.11116988 -0.067402385 0.030852243 -0.111701205 -0.055700462 -0.0035345189 0.09737517 -0.15330999
-0.08164102 -0.04051146 -0.065258674 0.08717561 0.11309708 -0.097521365 -0.15883702 -0.00050362933
-0.14047588 -0.06883361 0.07244849 0.055829715 -0.1158489 0.05519395 0.016566701 -0.09756827
0.057497185 -0.07922998 -0.2001278 0.04180936 0.07084767 -0.071981266 0.029061044 0.09378277
0.08515401 -0.060481194 0.029364258 -0.20794001 0.051171158 -0.11937371 -0.05446569 -0.08657082
-0.040040236 -0.048351977 -0.014275372 0.002987234 -0.10843964 0.04061797 -0.042483825 -0.055904314
-0.09884129 -0.0017190465 -0.03964515 -0.036080487 0.053210553 -0.07715862 0.03302434 -0.013189931
-0.08482169 0.010941992 0.038646765 -0.111240104 -0.16074015 0.012638123 0.07496083 -0.023288423
-0.11850699 0.029967299 0.06964495 0.07196999 0.01556359 -0.13184722 0.081118524 0.015470311
-0.12919617 -0.07264948 0.10408399 0.027145296 -0.031973444 -0.045347285 -0.06630117 -0.062514104
0.012471378 0.04143967 0.015953217 -0.094750494 0.052002244 -0.058071706 -0.1407708 -0.093032554
0.038939465 -0.04946465 -0.009912205 -0.05818869 -0.15627196 0.054672543 -0.13405928 -0.1277816
0.016282743 -0.03147542 -0.065758415 0.020396238 -0.09666665 -0.112328365 -0.03686637 0.03481824
-0.05042265 -0.160215 -0.1364915 -0.09712895 -0.101744846 -0.050233092 -0.078395 -0.075773016
-0.03063905 -0.13010459 -0.03898837 -0.09082971 -0.017172923 -0.07602552 -0.045973856 -0.060681336
0.049208328 -0.013697369 -0.051642966 -0.053994823 0.023605164 -0.15513438 0.024599304 0.010371095
0.03267636 -0.16692476 0.012350869 0.050769657 0.06503771 -0.05281171 -0.051809963 -0.025022523
-0.119221896 -0.027160231 -0.059663314 -0.017136568 0.047856096 -0.13820872 -0.1407452 -0.025008477
0.020746522 -0.09041996 -0.048113707 -0.07576103 -0.18972452 -0.03955704 0.065560006 -0.011312479
0.017548148 -0.02855858 -0.024679901 -0.026251083 -0.10959016 -0.045147352 -0.07411599 0.045087967
0.049699325 -0.1658361 -0.02022705 -0.11717362 0.004670077 -0.06978331 0.05662555 -0.1486466
-0.08719732 -0.022498168 -0.08669538 0.078642204 -0.2238083 -0.056174397 -0.052142255 -0.06926217
-0.13241988 0.07290787 0.04076949 -0.066209435 -0.06528591 -0.030149145 -0.045899753 0.05612159
0.007828162 0.06719955 -0.10325947 -0.09859874 -0.10588164 -0.019567737 -0.08521305 -0.04084863
-0.030162502 -0.068001114 -0.04872132 0.0642308 -0.013603129 -0.10982443 0.045311213 -0.039771378
-0.1469971 -0.14740174 0.047409452 -0.011563785 -0.07195799 -0.11262907 -0.1446265 -0.0007756514
0.043253515 -0.07007002 -0.04508142 -0.059692375 -0.0132333 -0.0063319704 -0.10018414 -0.122427024
0.01634543 -0.06729902 -0.09033637 0.0022934005 0.0047253435 0.0034899553 0.029845878 -0.05820749
-0.10741256 -0.10832242 0.03628234 -0.10803108 0.0081794355 -0.024235068 -0.12658945 -0.10360388
-0.028276708 0.03398469 -0.13170403 -0.018307623 -0.099355176 0.06953443 -0.088178076 -0.08329826
