model/model_weights_PermeateFlow.pth (torch, 921301 bytes, 14 tensors)

lstm.weight_ih_l0 f4 [512, 10]
0	0x3d53ecfe	0.051739685
1	0x3e055990	0.13022447
2	0x3decb18a	0.115573004
3	0xbc1496cc	-0.009069156
4	0x3dedf545	0.11619047
5	0x3db81f53	0.089903496
6	0xbd944e75	-0.07241527
7	0xbbfa4941	-0.007638127
8	0xbaae5307	-0.001329989
9	0x3e0447aa	0.12917963
10	0x3e079542	0.13240531
11	0x3cf25eb1	0.029586168
12	0x3bbc4273	0.005745226
13	0x3c57ebe4	0.013178799
14	0xbc2c567b	-0.010518665
15	0x3b1368f8	0.0022492986
16	0x3d415e22	0.047208913
17	0x3d8a724b	0.06760081
18	0x3b38e299	0.0028211235
19	0x3a08aa4d	0.0005213365
20	0x3dcb1bc2	0.09917404
21	0xbd03c7b4	-0.032172874
22	0x3e21d867	0.15805207
23	0x3c6b33b1	0.014355586
24	0x3e1419c8	0.1446296
25	0xbd580ac2	-0.052744634
26	0xbdc8559f	-0.09781956
27	0xbcfeb39c	-0.031091504
28	0x3d47f1ee	0.048814707
29	0x3da94b5d	0.082663275
30	0x3d2e2409	0.042514835
31	0xbddddd5f	-0.10833239
32	0xbce54f6d	-0.027991975
33	0xbd92391f	-0.07139801
34	0xbcddffd9	-0.027099537
35	0xbd94b81a	-0.07261677
36	0x3dab1c8e	0.08355056
37	0x3d450a54	0.048105553
38	0xbe62ca73	-0.22147541
39	0xbcc21aa4	-0.023694344
40	0xbd9344ff	-0.07190894
41	0xbc445679	-0.011983507
42	0xbdb57d3e	-0.08861779
43	0x3d851fc2	0.06500198
44	0x3da044ec	0.07825646
45	0xbd8dd3ae	-0.0692514
46	0x3d28b547	0.041188505
47	0xbd89696b	-0.0670956
48	0xbd4afc72	-0.049557157
49	0x3d2f273a	0.04276202
50	0xbdae5979	-0.08513159
51	0xbe0eee3e	-0.1395807
52	0xbd86b4f5	-0.065774836
53	0x3d452b63	0.04813708
54	0x3d4ae229	0.04953209
55	0x3b021577	0.001984922
56	0x3c7ef919	0.015562319
57	0xbd371c48	-0.044704705
58	0xbdb3279f	-0.087477915
59	0x3db95ae8	0.09050542
60	0x3d7efc8c	0.062252566
61	0x3d1b89a2	0.037973054
62	0x3c92bb92	0.017911706
63	0x3da35add	0.07976315
64	0x3c944107	0.018097414
65	0xbc4dad9a	-0.012553597
66	0x3e00218c	0.12512797
67	0x3da5557a	0.08072944
68	0xbe1d3dfe	-0.1535568
69	0xbe1722ab	-0.14759319
70	0x3e4ac2ed	0.19800921
71	0xbdae52e2	-0.085119024
72	0xbd6e9aa8	-0.05825296
73	0xbc3a1d1b	-0.011359478
74	0x3ce41af2	0.02784488
75	0xbd7a5156	-0.061112724
76	0xbd3527a5	-0.04422726
77	0x3d84291d	0.06453154
78	0xbdd88c3a	-0.10573621
79	0x3d2c8641	0.042120222
80	0xbcf7845c	-0.030214481
81	0x3d8ddce6	0.06926899
82	0x3d573299	0.052538488
83	0x3caee216	0.02134804
84	0x3dcc2f52	0.09969963
85	0x3dd12a4a	0.10213144
86	0xbd5406f2	-0.051764436
87	0x3dbce507	0.09223371
88	0x3d1c84ec	0.0382127
89	0xbd1f46f0	-0.03888601
90	0xbd576d75	-0.05259462
91	0xbd8d8873	-0.06910791
92	0x3cd25555	0.025675455
93	0xbdbe66d2	-0.09296955
94	0xbcb3663b	-0.021899333
95	0x3c586b78	0.013209216
96	0x3c45f704	0.012082819
97	0x3d833866	0.064072415
98	0xbcd9e363	-0.026597684
99	0xbc577f62	-0.013152929
100	0xbd1fdc9d	-0.039028753
101	0xbdca3531	-0.09873427
102	0xbd0b6b2a	-0.034037746
103	0x3d3856f6	0.045004807
104	0xbdaf2a8f	-0.08553039
105	0xbd9c5f05	-0.07635311
106	0x3d134297	0.035952177
107	0xbc61f63a	-0.013791615
108	0x3d9ed296	0.0775501
109	0xbd0cbe12	-0.034360953
110	0x3d857775	0.06516925
111	0xbd146514	-0.036229208
112	0x3c6a0fda	0.014286006
113	0x3cf99b68	0.030469611
114	0xbd39583e	-0.04525017
115	0xbc58165a	-0.013188923
116	0x3d8a05cf	0.06739389
117	0x3d5be3cb	0.053684037
118	0x3de4c3b5	0.11170141
119	0xbcaad3a8	-0.020852879
120	0x3da84274	0.082158
121	0xbd0f2122	-0.034943707
122	0xbd47b9c5	-0.048761148
123	0xbcca9102	-0.024727348
124	0x3c6ecab5	0.014574696
125	0xbccb7aee	-0.02483889
126	0xbdc08cd6	-0.09401862
127	0x3dfdf367	0.12399941
128	0xbdc0c5a1	-0.09412695
129	0x3cc6f680	0.024287462
130	0x3db70c3b	0.0893788
131	0xbd3d26fb	-0.046179753
132	0xbdbf1c28	-0.09331542
133	0xbdba3788	-0.09092623
134	0xbd724957	-0.059151974
135	0x3ab04a18	0.0013449816
136	0x3c54d490	0.012990132
137	0xbd72a2f9	-0.059237454
138	0xbe737595	-0.23775323
139	0x3cd2198d	0.02564695
140	0xbc0d0fbe	-0.00860971
141	0x3df049e1	0.11732841
142	0xbd3b18af	-0.045677837
143	0x3c830cf6	0.015997391
144	0x3d361afd	0.04445933
145	0x3e1402ec	0.1445424
146	0x3e429295	0.19001229
147	0x3d71d9c1	0.059045557
148	0x3d330592	0.043706484
149	0x3d574925	0.05255999
150	0x3d841e44	0.06451085
151	0xbd953e8b	-0.0728732
152	0xbdc32e41	-0.095303066
153	0xbcb3cb3c	-0.021947496
154	0xbd591416	-0.05299767
155	0xbdc6084a	-0.0966955
156	0x3d7510f2	0.059830613
157	0x3dbcb718	0.0921461
158	0xbe3a0fbc	-0.18170065
159	0x3d23fcc4	0.040035978
160	0x3d884f49	0.066557474
161	0xbdcff04c	-0.10153255
162	0xbd1e9b47	-0.038722303
163	0xbd893591	-0.0669967
164	0x3d7bfaf2	0.061518617
165	0x3d88040f	0.06641399
166	0xbd89bb38	-0.06725162
167	0x3d11d262	0.035601027
168	0xbdcad31e	-0.09903549
169	0xbc946e26	-0.01811893
170	0xbb2c5c3f	-0.00263001
171	0x3e05bcd0	0.13060308
172	0x3c80258a	0.0156429
173	0x3e023719	0.1271633
174	0x3d885bce	0.06658135
175	0x3dc9f88c	0.0986186
176	0xbd9e95b1	-0.07743395
177	0xbd955374	-0.07291308
178	0x3cdc754e	0.026911404
179	0xbdfe5a82	-0.12419607
180	0x3e0197be	0.12655541
181	0x3d67f7f2	0.056632943
182	0x3dc74604	0.09730151
183	0x3b94d5f5	0.004542107
184	0x3da9d26e	0.082920894
185	0x3caac401	0.020845415
186	0x3c5ca62b	0.013467352
187	0xbd87f01c	-0.06637594
188	0xbd298a06	-0.041391395
189	0x3d70e67c	0.058813557
190	0x3de339b1	0.11094988
191	0xbd8a014a	-0.06738527
192	0xbc1cd836	-0.009573033
193	0x3de66b5c	0.11250946
194	0xbdd0127a	-0.10159774
195	0xbdb4fad7	-0.088369064
196	0x3cfc4693	0.030795371
197	0x3da2c0e2	0.07946946
198	0xbd9158b0	-0.07096994
199	0x3d473d6d	0.048642565
200	0x3d3b09cf	0.04566365
201	0xbd0036e2	-0.03130234
202	0xbcf65390	-0.030069143
203	0xbd9e23df	-0.077216856
204	0x3e183482	0.1486378
205	0x3d3fd2f7	0.04683205
206	0xbde598ab	-0.1121076
207	0xbdad27cc	-0.08454856
208	0xbe4313f4	-0.1905058
209	0xbd4359e5	-0.047693152
210	0x3e1f3d54	0.15550739
211	0xbda24d42	-0.07924892
212	0xbe0ba895	-0.13638528
213	0xbdee2c5a	-0.11629553
214	0x3baadee4	0.005214559
215	0x3d90054b	0.070322596
216	0xbd5fe907	-0.05466559
217	0x3d54e4ce	0.051976018
218	0xbcb57cf5	-0.02215431
219	0x3d7be84b	0.06150083
220	0x3df1d0e8	0.11807424
221	0x3d49733a	0.049182154
222	0x3dbcfa18	0.09227389
223	0x3db46cfb	0.08809849
224	0xbd64bce7	-0.055844214
225	0x3d8f917f	0.07010173
226	0x3d3db336	0.046313487
227	0xbccf1ed9	-0.025283264
228	0xbe03417b	-0.12817948
229	0xbb617960	-0.003440462
230	0xbd6beda0	-0.057599664
231	0xbd14747a	-0.036243893
232	0xbd780c84	-0.06055881
233	0x3d417259	0.04722819
234	0xbc45e630	-0.012078807
235	0x3d46e5e8	0.0485591
236	0x3d8b1225	0.0679057
237	0x3daeae2a	0.08529313
238	0xbde35bd7	-0.111015014
239	0xbd44d9ae	-0.048059158
240	0x3e24a371	0.16077973
241	0x3e0105f9	0.12599935
242	0x3dea0b8e	0.11427985
243	0x3c0707a4	0.008241568
244	0xbd8db986	-0.069201514
245	0x3d656882	0.05600787
246	0xbd31a170	-0.04336685
247	0xbd192768	-0.037391096
248	0xbdaa8a55	-0.08327166
249	0xbd3c8f92	-0.046035357
250	0xbd3642ee	-0.044497423
251	0xbcf70512	-0.030153785
252	0xbe038feb	-0.12847869
253	0xbda4840d	-0.08032999
254	0xbca78c83	-0.020452743
255	0xbdc79291	-0.09744752

lstm.weight_hh_l0 f4 [512, 128]
0	0xbbb7129b	-0.0055869347
1	0xbd6ef0e8	-0.058335215
2	0xbdbf8b2f	-0.09352719
3	0x3e1567ef	0.14590429
4	0x3c2f156c	0.01068626
5	0x39d60a76	0.00040825055
6	0x3dc47cd4	0.095941216
7	0xbe1d7c28	-0.15379393
8	0xbde28171	-0.11059845
9	0x3da9e108	0.082948744
10	0x3da44c5b	0.08022376
11	0x3d388661	0.04505003
12	0x3d99ba1e	0.07506202
13	0x3d4d5bed	0.050136495
14	0xbcec8385	-0.028871307
15	0x3da87d98	0.0822708
16	0x3d3cf031	0.046127502
17	0x3cfdc953	0.030979788
18	0xbcbc44e5	-0.02298207
19	0xbdb6951b	-0.08915158
20	0x3d87d7ba	0.066329435
21	0x3c9862bb	0.018601766
22	0x3c08ede2	0.008357497
23	0xbca8dce5	-0.020613143
24	0x3d373ab4	0.044733718
25	0xbc99d4ce	-0.018778231
26	0xbdfa0017	-0.122070484
27	0x3d8117ec	0.06303391
28	0xbd6f7aa6	-0.058466576
29	0x3d3dbdf2	0.046323724
30	0x3dee961b	0.11649724
31	0x3d9452dc	0.07242367
32	0xbd8ebccb	-0.06969603
33	0xbd6ac466	-0.057316206
34	0x3d523410	0.051319182
35	0x3cde2ba5	0.02712042
36	0xbe417caa	-0.18895212
37	0x3de7713f	0.11300897
38	0xbdc8d0e9	-0.098054715
39	0xbe2b64c6	-0.16737661
40	0xbb4f4970	-0.0031629466
41	0xbdb2d385	-0.087317504
42	0xbe3347b3	-0.1750782
43	0x3e3ab79f	0.18234108
44	0xbcb4cc85	-0.022070179
45	0x3dc0760a	0.09397514
46	0x3a1e8438	0.0006046924
47	0xbcf44132	-0.029816244
48	0xbda30162	-0.07959248
49	0x3e2591f9	0.16168965
50	0xbe44dd36	-0.1922501
51	0xbe0e2a34	-0.13883287
52	0x3d0baf69	0.03410283
53	0x3c9944dd	0.018709594
54	0xbde0dd26	-0.10979681
55	0x3dd26d73	0.10274782
56	0xbe1c06c8	-0.15236962
57	0xbde4e2e4	-0.111760885
58	0xbcd691c0	-0.026192546
59	0x3db8cca7	0.09023409
60	0xbdd98d48	-0.106226504
61	0x3de2da94	0.11076847
62	0xbd5ce742	-0.053931482
63	0xbd8c94c8	-0.06864315
64	0x3cc37740	0.023860574
65	0x3d7c3f3d	0.061583746
66	0x3bb0d40f	0.005396373
67	0xbd875fd0	-0.06610072
68	0xbdcb7c80	-0.09935856
69	0x3d44b6e9	0.048026
70	0x3e21fe2d	0.15819617
71	0xbd28b458	-0.041187614
72	0xbca0b722	-0.019618575
73	0x3d512520	0.051060796
74	0x3e10e6b2	0.14150503
75	0xbd8846de	-0.06654142
76	0xbd358e1c	-0.04432498
77	0x3dc2a01d	0.095031954
78	0x3dfbf202	0.12302019
79	0x3d33153a	0.043721415
80	0xbbc82979	-0.0061084596
81	0x3c8b7b66	0.017026614
82	0x3b88245c	0.004154725
83	0xbde36617	-0.111034565
84	0xbdb5d319	-0.08878154
85	0xbdcf0fa4	-0.10110405
86	0xbe33918e	-0.17535993
87	0xbdb1b7da	-0.08677645
88	0x3c75af5f	0.014995425
89	0x3dafd2db	0.08585139
90	0xbdddc114	-0.10827842
91	0x3d595e69	0.053068552
92	0x3cce29d0	0.025166422
93	0x3e643cf1	0.22288872
94	0xbc94a0d1	-0.01814309
95	0x3d126bc7	0.035747316
96	0xbd16e61b	-0.03684054
97	0x3d1aa1bc	0.0377519
98	0x3bf76f93	0.0075511425
99	0x3da1f3f8	0.079078615
100	0x3cf62110	0.030045062
101	0xbdff253d	-0.124582745
102	0xbd1cdf2e	-0.03829878
103	0xbc952639	-0.018206703
104	0xbd62d811	-0.05538184
105	0x3963d9d0	0.00021729548
106	0x3dfcc206	0.123416945
107	0xbdf91125	-0.12161473
108	0x3ca5e68f	0.02025154
109	0xbdf98b79	-0.121848054
110	0x3e477bae	0.19480774
111	0x3d159dfd	0.036527622
112	0xbe2f10d6	-0.17096266
113	0xbd905d6a	-0.07049067
114	0xbd871b3b	-0.06596991
115	0xbd885dd3	-0.066585205
116	0x3d96aa06	0.07356648
117	0x3da25f61	0.07928348
118	0xbc94b318	-0.018151805
119	0x3c5bd7a0	0.013418108
120	0xbd5bd2fa	-0.053668
121	0xbd6ce15b	-0.057832103
122	0xbca961b3	-0.02067647
123	0x3e1ebf7d	0.15502734
124	0x3d6339ef	0.05547517
125	0xbd5ad0eb	-0.053421896
126	0xbe299e2d	-0.16564246
127	0x3d3c8010	0.046020567
128	0x3c34536b	0.0110062165
129	0xbdaa8ba0	-0.083274126
130	0x3d6f116e	0.05836623
131	0xbdcc7c4f	-0.099846475
132	0x3c9bc69f	0.019015608
133	0x3d091de9	0.03347579
134	0x3c176730	0.00924091
135	0x3e168716	0.14699969
136	0xbd8dc62e	-0.069225654
137	0xbb5eacd7	-0.0033977532
138	0x3e67a4f6	0.22621521
139	0x3d05283a	0.032509066
140	0xbda7ddf4	-0.08196631
141	0xbcc390bd	-0.023872728
142	0x3d12181b	0.03566752
143	0x3c3fb4bf	0.011700808
144	0x3c99dcc8	0.018782035
145	0xbc20bc11	-0.0098104635
146	0x3d3ddccd	0.04635315
147	0x3dd4a200	0.103824615
148	0xbe441e8f	-0.19152282
149	0xbce117b8	-0.02747713
150	0x3d7bae91	0.061445776
151	0x3d0e39bb	0.034723025
152	0xbd8436ba	-0.06455751
153	0xbd68512e	-0.056718044
154	0xbd161b0a	-0.03664688
155	0x3e0b2a79	0.13590421
156	0xbc9e288f	-0.01930645
157	0xbd4f6f4f	-0.05064326
158	0xbdd9782e	-0.106186256
159	0x3c46cbb6	0.012133529
160	0x3d0602a3	0.03271736
161	0xbd1af88b	-0.037834685
162	0x3e0687ff	0.13137816
163	0xbe33f5d3	-0.17574243
164	0x3dc74d7f	0.09731578
165	0xbdc24437	-0.09485667
166	0x3dc962df	0.09833311
167	0x3dc32401	0.095283516
168	0x3d0f60c2	0.035004385
169	0xbcf6ba92	-0.03011826
170	0x3de4a086	0.1116343
171	0x3e0e2c33	0.13884048
172	0x3d9c0066	0.076172635
173	0x3d742dbe	0.059613936
174	0x3d09d9d9	0.03365502
175	0xbdc70885	-0.09718422
176	0xbd413221	-0.047166947
177	0x3be73c3c	0.007056741
178	0xbe1abee5	-0.15111883
179	0xbe303231	-0.17206647
180	0x3dad1b2a	0.08452447
181	0x3cd7b052	0.026329193
182	0x3db50477	0.08838742
183	0x3cfd7482	0.030939344
184	0x3d93e0dc	0.07220623
185	0x3d674a3f	0.05646729
186	0xbdd30b4c	-0.10304889
187	0xbe32aabd	-0.17447944
188	0xbd495ca8	-0.04916063
189	0x3dd7c42d	0.105354644
190	0x3c5e7bdd	0.013579336
191	0xbe123375	-0.14277442
192	0xbaa27059	-0.0012393101
193	0x3cbb4f71	0.022865029
194	0x3d51fe09	0.051267657
195	0xbd1dc356	-0.038516365
196	0xbd11b5a4	-0.035573617
197	0xbcf24ffc	-0.029579155
198	0xbc75dbca	-0.015006015
199	0x3de85bd0	0.11345637
200	0x3d70e3a3	0.05881084
201	0x3d33bc78	0.04388091
202	0xbd862b4c	-0.06551227
203	0x3d0992ff	0.033587452
204	0x3e450624	0.19240624
205	0xbe10f1e4	-0.14154774
206	0xbdc2312e	-0.094820365
207	0x3d9c7c41	0.07640887
208	0xbd810d01	-0.063013084
209	0x3d8e8b71	0.0696019
210	0x3cd775be	0.026301261
211	0x3d341a8f	0.04397064
212	0x3dcbadfa	0.09945293
213	0x3d19df8e	0.037566714
214	0xbc1d9cac	-0.009619873
215	0x3c9f88e8	0.019474462
216	0xbdff8d3d	-0.12478111
217	0xbda6e8ce	-0.08149873
218	0x3d845d8f	0.064631574
219	0xbd347176	-0.044053517
220	0xbcfc487f	-0.030796288
221	0x3d69fb43	0.057124387
222	0xbba2fc8a	-0.0049739527
223	0x3de2be81	0.11071492
224	0xbd15155b	-0.03639732
225	0x3ddaf550	0.10691321
226	0x3e001502	0.12508014
227	0xbd958dae	-0.07302414
228	0x3e17ba74	0.1481722
229	0x3d84c585	0.06482986
230	0xbdf75868	-0.12077409
231	0x3d3f4f24	0.046706334
232	0x3d4728e6	0.04862299
233	0x3dac0f94	0.08401409
234	0x3ce16dd8	0.027518198
235	0x3df8cfa5	0.1214898
236	0x3c3d7a44	0.011564795
237	0x3cd0ba86	0.025479566
238	0xbae90dcb	-0.00177806
239	0xbdbb3f37	-0.09142917
240	0xbd3f059f	-0.04663622
241	0x3b497d26	0.003074476
242	0x3dbb608b	0.091492735
243	0x3e4c5031	0.19952466
244	0xbcae2e9d	-0.021262461
245	0xbcf08584	-0.02936054
246	0x3da01c07	0.07817846
247	0xbdcecbb3	-0.10097446
248	0x3bcb24ec	0.00619947
249	0x3db9fb9e	0.09081195
250	0x3c1b44cf	0.0094768545
251	0x3c48b5d7	0.012250385
252	0x3c0e1a69	0.008673289
253	0x3dd3a24f	0.10333692
254	0xbbf57332	-0.007490539
255	0x3db0e0fe	0.08636664

lstm.bias_ih_l0 f4 [512]
0	0xbcc2b8aa	-0.023769695
1	0xbddc561a	-0.1075861
2	0x3d1f2b13	0.03885944
3	0xbe221a86	-0.1583043
4	0xbd954179	-0.072878785
5	0xbdb4e6b7	-0.08833068
6	0xbde51dbd	-0.11187313
7	0xbde393b4	-0.111121565
8	0x3d320e83	0.04347087
9	0xbd182f15	-0.037154276
10	0x3c1d0975	0.009584774
11	0x3d009ad8	0.03139767
12	0xbd34baae	-0.044123344
13	0x3bd3a598	0.0064589493
14	0xbe707998	-0.23483884
15	0xbc801fd7	-0.015640182
16	0xbd9a22bd	-0.07526157
17	0x3c62e595	0.013848682
18	0xbd298df7	-0.041395154
19	0xbe0ede2e	-0.13951942
20	0xbd9f57bf	-0.07780408
21	0xbdaba92c	-0.08381876
22	0xbda4bbd6	-0.08043639
23	0xbe106a0e	-0.14102957
24	0xbdd109b6	-0.1020693
25	0xba9c3c5a	-0.0011919842
26	0x3dc199cb	0.09453162
27	0xbde5b372	-0.11215867
28	0xbd88b9e3	-0.0667608
29	0xbe09e3fc	-0.13465875
30	0xbe0f23ae	-0.13978454
31	0xbd42ef4e	-0.0475915
32	0xbd87e252	-0.06634964
33	0xbe333adb	-0.1750292
34	0x3d11370b	0.035452884
35	0xbda99204	-0.082798034
36	0xbd606b9c	-0.054790124
37	0x3ddcdd5d	0.10784409
38	0x3e1612ff	0.14655684
39	0x3cc4bb24	0.024015017
40	0xbdae7d6a	-0.085200146
41	0xbdd323c3	-0.103095554
42	0xbdc1dc61	-0.09465862
43	0xbde1b70d	-0.11021242
44	0xbe166cb6	-0.14689907
45	0xbe0a9c50	-0.13536191
46	0xbd81e7a4	-0.0634301
47	0xbe226ef3	-0.15862636
48	0xbdc59c99	-0.09649009
49	0x3d30caf3	0.043162297
50	0xbe41bdbb	-0.18920033
51	0xbd1be956	-0.038064323
52	0xbc901577	-0.01758836
53	0xbe0b6f75	-0.13616736
54	0xbdf3d289	-0.11905391
55	0xbd80905b	-0.062775336
56	0xbdef1093	-0.11673083
57	0xbde6cde2	-0.11269738
58	0xbdffed16	-0.124963924
59	0xbddadc8d	-0.10686598
60	0xbdcfe133	-0.10150375
61	0xbb8d477d	-0.0043115006
62	0xbcb5eeba	-0.02220856
63	0x3e095cda	0.13414326
64	0xbdf95607	-0.121746115
65	0xbd751aa0	-0.059839845
66	0x3da07d73	0.078364275
67	0xbdea9795	-0.11454693
68	0x3b630fd1	0.0034646878
69	0xbd562b6b	-0.0522875
70	0xbd9ba44a	-0.07599695
71	0xbe2c16dc	-0.16805595
72	0xbe079d64	-0.13243634
73	0xbc999939	-0.01874982
74	0xbdff5327	-0.12467032
75	0xbc9cc755	-0.019138018
76	0xbd880695	-0.066418804
77	0x3ddde919	0.108354755
78	0xbe256885	-0.16153152
79	0xbd8b669f	-0.06806683
80	0xbd14eeeb	-0.036360662
81	0xbd871639	-0.065960355
82	0xbb2722c6	-0.0025502904
83	0xbe3b8ec2	-0.18316177
84	0xbdd2df01	-0.10296441
85	0x3d16216d	0.03665297
86	0xbdbb2715	-0.09138314
87	0xbd00877e	-0.031379215
88	0xbdcca26d	-0.09991918
89	0x3d10ce1d	0.035352815
90	0xbcd01d6f	-0.02540466
91	0x3d34e51b	0.044163805
92	0xbdb4cba3	-0.08827903
93	0xbe4182bd	-0.18897529
94	0xbe9d8182	-0.3076287
95	0xba7a63fe	-0.0009551643
96	0x3d9fc20c	0.078006834
97	0xbdffbb9e	-0.12486957
98	0xbd858ee6	-0.06521396
99	0x3c077a67	0.008268929
100	0xbe1800a6	-0.14843997
101	0xbd7f54a1	-0.062336568
102	0xbd7bdf17	-0.061492052
103	0x3d602d32	0.0547306
104	0xbe0f3656	-0.13985571
105	0xbe176383	-0.14784054
106	0xbc812e69	-0.0157692
107	0xbd053d8c	-0.0325294
108	0xbdf4e8cf	-0.11958467
109	0xbda1a0b8	-0.07891983
110	0xbda4862c	-0.08033404
111	0xbdd24f0b	-0.102689825
112	0xbde558b6	-0.11198561
113	0xbd1d47b2	-0.038398452
114	0xbdafbbc3	-0.085807346
115	0xbda77915	-0.081773914
116	0x3e5d2bc9	0.21598734
117	0xbd3bdd3a	-0.045865275
118	0xbd398196	-0.0452896
119	0xbe4e4baa	-0.20146051
120	0xbde1c41c	-0.11023733
121	0x3cde410c	0.027130626
122	0xbd9966d5	-0.07490317
123	0xba23ae44	-0.0006243924
124	0xbd3db195	-0.046311934
125	0xbe4d2e7d	-0.20037265
126	0xbe37d2e0	-0.17951536
127	0xbdd05904	-0.101732284
128	0xbe3bb3db	-0.18330328
129	0xbd2c48df	-0.042061683
130	0xbdb47f46	-0.08813338
131	0xbdfb1674	-0.12260142
132	0xbd454e7f	-0.048170563
133	0xbe0b38f7	-0.13595949
134	0xbde72c41	-0.11287738
135	0xbe5d4853	-0.21609621
136	0xbd55ff33	-0.05224533
137	0xbe17a83a	-0.14810267
138	0xbd80f2e5	-0.062963285
139	0xbe0d16aa	-0.13778177
140	0xbdfa5a7c	-0.1222429
141	0xbdda046e	-0.10645376
142	0xbe3e78fa	-0.18600836
143	0xbddee4df	-0.108834974
144	0xbd03f683	-0.032217514
145	0xbd934757	-0.07191341
146	0xbca5c920	-0.020237505
147	0xbe674aa5	-0.22587068
148	0xbd6b4959	-0.057442997
149	0xbe7795d2	-0.24178246
150	0xbd3f5e85	-0.046721
151	0xbd901f0f	-0.07037174
152	0xbe156574	-0.14589483
153	0xbe07896f	-0.1323602
154	0xbe316329	-0.17322983
155	0xbdcf0711	-0.1010877
156	0xbdfab3aa	-0.122412995
157	0xbe162a3f	-0.14664553
158	0xbe308d8d	-0.17241497
159	0xbd4fcd7e	-0.050733082
160	0xbdc8bb2b	-0.098013245
161	0xbd1b5ee5	-0.037932295
162	0xbe1feb79	-0.1561717
163	0xbe173656	-0.14766821
164	0xbe37b24b	-0.17939107
165	0xbe0b6354	-0.1361211
166	0xbeaf0cf3	-0.34189567
167	0xbdfc9326	-0.12332754
168	0xbdff4979	-0.12465186
169	0xbd0b3e9e	-0.033995263
170	0xbe2f1fd7	-0.1710199
171	0xbcc9cafe	-0.024632927
172	0xbe4d2020	-0.20031786
173	0xbdd5cb49	-0.10439164
174	0xbe3313c8	-0.17488015
175	0xbdfd162b	-0.12357744
176	0xbe313a2d	-0.17307349
177	0xbd94e284	-0.07269767
178	0xbdc377be	-0.095443234
179	0xbe1e58b7	-0.1546353
180	0xbd9e5059	-0.07730169
181	0xbe039876	-0.12851128
182	0xbd5e5848	-0.05428341
183	0xbe0726d1	-0.13198401
184	0xbdf62d9e	-0.120204195
185	0xbe0722e1	-0.13196899
186	0xbd7b6c0a	-0.06138233
187	0xbd812902	-0.0630665
188	0xbe18cd21	-0.14922
189	0xbe2f75f2	-0.17134836
190	0xbd8b0458	-0.06787938
191	0xbe097f84	-0.1342755
192	0xbe0f4f23	-0.13995032
193	0xbd8e119e	-0.06936954
194	0xbe0ac717	-0.13552509
195	0xbe10a545	-0.14125545
196	0xbe5d7127	-0.21625195
197	0xbde41e55	-0.11138598
198	0xbe319c8f	-0.17344879
199	0xbe6f6abd	-0.23380561
200	0xbe46e3d1	-0.19422843
201	0xbdb3de71	-0.08782662
202	0xbd8007a4	-0.06251457
203	0xbd7e5b42	-0.06209875
204	0xbcf7114c	-0.030159615
205	0xbdca1280	-0.0986681
206	0xbde38f31	-0.11111296
207	0xbdb97fc5	-0.09057573
208	0xbe0e8543	-0.13918023
209	0xbe7aae94	-0.24480659
210	0xbdb48762	-0.08814885
211	0xbe6cc1b3	-0.23120765
212	0xbe0cc3ac	-0.13746518
213	0xbd64505a	-0.05574069
214	0xbe51332b	-0.20429675
215	0xbd16425e	-0.036684386
216	0xbdff201e	-0.12457298
217	0xbe026108	-0.12732327
218	0xbd839ad5	-0.06426016
219	0xbe4dd493	-0.20100622
220	0xbe6774ff	-0.22603224
221	0xbda62686	-0.081128165
222	0xbd2c25b5	-0.042028148
223	0xbe851934	-0.2599579
224	0xbe296ca2	-0.16545346
225	0xbd036496	-0.032078348
226	0xbd919de3	-0.071101926
227	0x3cbc97b8	0.023021564
228	0xbe25a591	-0.1617644
229	0xbe135abc	-0.14390081
230	0xbdf397d6	-0.11894195
231	0xbd2beea5	-0.041975636
232	0xbd9687e6	-0.07350139
233	0xbd940cd8	-0.07229012
234	0xbe0d7381	-0.13813592
235	0xbde17cbe	-0.11010121
236	0xbde5da71	-0.11223305
237	0x3c6bb433	0.014386225
238	0xbe56c340	-0.2097292
239	0xbdcaabbf	-0.09896039
240	0xbd473a1b	-0.048639398
241	0xbd937394	-0.07199779
242	0xbd34a0ae	-0.04409855
243	0xbd009fe9	-0.031402502
244	0xbe40d537	-0.18831335
245	0x3ca1659e	0.019701775
246	0xbdf3e6af	-0.11909234
247	0xbcbf43ce	-0.023347761
248	0xbe18c5f7	-0.14919268
249	0xbe234da3	-0.15947585
250	0xbda60cd4	-0.081079155
251	0xbe12fc57	-0.14354073
252	0xbe425cbe	-0.18980691
253	0x3c9a1928	0.018810824
254	0xbe8e1643	-0.2775136
255	0xbd15949b	-0.036518674

lstm.bias_hh_l0 f4 [512]
0	0xbe2e95b0	-0.17049289
1	0xbde91b52	-0.11382164
2	0xbd967efe	-0.073484406
3	0xbde47258	-0.11154622
4	0x3d5e475c	0.054267272
5	0x3c13d75b	0.009023513
6	0xbe357213	-0.17719297
7	0xbd977d44	-0.073969394
8	0x3c116b12	0.008875625
9	0xbcb2d56b	-0.021830281
10	0xbcdcc455	-0.026949087
11	0x3cb59d03	0.022169596
12	0x3b603f00	0.0034217238
13	0xbe1c81c1	-0.15283872
14	0xbe001b90	-0.12510514
15	0xbdd72e2b	-0.10506853
16	0xbdff6dc6	-0.124721095
17	0xbcdb1ba3	-0.026746577
18	0xbdb8dcbc	-0.09026477
19	0xbdac5717	-0.084150486
20	0xbe1755e8	-0.14778864
21	0xbd9f681f	-0.077835314
22	0xbdc7c864	-0.09755018
23	0xbd9bc35d	-0.07605622
24	0xbe46e9b9	-0.19425096
25	0xbca73b29	-0.020413952
26	0x3cce6a88	0.025197282
27	0xbe5886dd	-0.21145196
28	0xbd3aed12	-0.045636244
29	0xbc40688a	-0.011743674
30	0xbdfc2c93	-0.12313189
31	0xbe43a1f9	-0.19104756
32	0xbe2d02d1	-0.16895606
33	0xbd204e08	-0.039136916
34	0xbc88cbe1	-0.01669878
35	0xbbb4b8c0	-0.005515188
36	0xbe21a4be	-0.157855
37	0x3d0ead9c	0.034833536
38	0x3dcdca58	0.1004836
39	0x3d99fef9	0.07519335
40	0xbba76a2f	-0.0051090936
41	0xbe239860	-0.15976095
42	0xbd2494f1	-0.040181104
43	0xbda19b1f	-0.07890915
44	0xbd44d2d9	-0.048052642
45	0xbce4938a	-0.027902383
46	0xbe4c9dfe	-0.19982144
47	0xbe331701	-0.17489244
48	0xbe078e89	-0.13237967
49	0x3cb86f96	0.022514146
50	0xbe2f3d93	-0.17113332
51	0xbcd2209c	-0.025650315
52	0xbcd19fdf	-0.025588928
53	0xbe250971	-0.16116883
54	0xbe362853	-0.1778882
55	0xbd289d3c	-0.041165575
56	0xbd8787ec	-0.06617722
57	0xbe04b2dc	-0.12958854
58	0xbe1b96af	-0.151942
59	0xbdcf7e4a	-0.101315096
60	0xbe506aab	-0.2035319
61	0xbd8d1f83	-0.06890776
62	0xbd6fe571	-0.05856842
63	0x3cb5d7b5	0.022197584
64	0x3c2c5de3	0.010520431
65	0xbe17ed40	-0.14836597
66	0xbd0eec43	-0.034893285
67	0xbcc59f47	-0.0241238
68	0xbd0b2d60	-0.03397882
69	0xbdfbe3fd	-0.12299345
70	0xbd82aacd	-0.06380234
71	0xbe035129	-0.12823929
72	0xbd839970	-0.0642575
73	0x3d4d9958	0.050195068
74	0xbdf89fa8	-0.12139827
75	0xbd441e4d	-0.04788046
76	0xbdf05ec0	-0.11736822
77	0x3e0edc07	0.13951121
78	0xbd6c8ef3	-0.057753514
79	0xbd926dac	-0.071498245
80	0xbe12e50b	-0.14345185
81	0xbdcad1e2	-0.09903313
82	0xbd68e285	-0.05685665
83	0xbda3359d	-0.0796921
84	0xbdc688b8	-0.09694046
85	0xbbce6cca	-0.0062995898
86	0xbd300a3f	-0.04297852
87	0x3c5d9704	0.013524774
88	0xbd2bef5d	-0.04197632
89	0x3d24cc32	0.0402338
90	0xbcd6a0db	-0.026199749
91	0xbd9cf54c	-0.07663974
92	0xbe2e5a26	-0.17026576
93	0xbdbb17cf	-0.091354005
94	0xbe9339a7	-0.28754923
95	0xbd2cbac6	-0.04217031
96	0x3da7c1de	0.08191274
97	0xba2c3b51	-0.0006570118
98	0xbc015446	-0.0078936275
99	0xbe13265e	-0.14370105
100	0xbe4f4e58	-0.2024473
101	0xbca6069a	-0.02026682
102	0x3b6e0688	0.003631981
103	0x3dcafe1f	0.09911751
104	0xbd8f9eec	-0.07012734
105	0xbdb359f2	-0.0875739
106	0x3cfa14d9	0.030527519
107	0x3ca1a8a4	0.019733734
108	0xbe11be84	-0.14232832
109	0x3d0efaa1	0.034906987
110	0xbd8c7a88	-0.068593085
111	0xbe1c9968	-0.15292895
112	0xbe0caded	-0.13738222
113	0xbdb16cf3	-0.086633585
114	0xbe105414	-0.14094573
115	0xbd8df425	-0.069313325
116	0x3e5d4f09	0.21612181
117	0x3cb77956	0.022396725
118	0xbd8141ce	-0.063113794
119	0xbe2ec9df	-0.17069195
120	0xbe14afdb	-0.14520209
121	0xbd70a956	-0.05875524
122	0xbd5a20b0	-0.05325383
123	0xbdaffb05	-0.085928
124	0x3d6789e3	0.056527983
125	0xbdb46d4a	-0.08809908
126	0xbdf09959	-0.11747999
127	0xbcf58ac7	-0.0299734
128	0xbda808fc	-0.08204839
129	0xbe20c83c	-0.15701383
130	0xbe170be9	-0.14750637
131	0xbd93a496	-0.07209127
132	0xbdbc8cd2	-0.09206547
133	0xbdbbf4b6	-0.09177534
134	0xbe0b95d5	-0.13631375
135	0xbe41b199	-0.18915404
136	0xbe006a31	-0.12540509
137	0xbdc52c3f	-0.0962758
138	0xbe0611c1	-0.1309271
139	0xbdeab426	-0.11460142
140	0xbe20bc5a	-0.1569685
141	0xbe2c7726	-0.16842327
142	0xbe1f7222	-0.15570882
143	0xbe11fabd	-0.14255805
144	0xbdfcf7ee	-0.12351976
145	0xbd291273	-0.04127736
146	0xbd4eebfd	-0.050518025
147	0xbe87c64c	-0.26518476
148	0xbe6102f3	-0.21973781
149	0xbe25dadd	-0.16196771
150	0xbc26d738	-0.010183148
151	0xbbc6331d	-0.0060485736
152	0xbd95c98b	-0.07313832
153	0xbdbb59ac	-0.09147963
154	0xbe1e251b	-0.15443842
155	0xbdaa7b0c	-0.083242506
156	0xbd82218c	-0.06354055
157	0xbe4b75e8	-0.19869196
158	0xbd847015	-0.064666905
159	0xbddf6d8f	-0.109095685
160	0xbe111b1c	-0.14170498
161	0xbd9ce343	-0.07660534
162	0xbe1261c7	-0.14295112
163	0xbe2c52a4	-0.168284
164	0xbe58b66b	-0.21163337
165	0xbe3f4a38	-0.18680656
166	0xbec32ac2	-0.3811856
167	0xbde540fc	-0.111940354
168	0xbd29af83	-0.041427147
169	0xbe2b5407	-0.16731273
170	0xbe1f096b	-0.15530936
171	0xbd267cd3	-0.040646385
172	0xbe0038ac	-0.12521619
173	0xbe003836	-0.12521443
174	0xbe50c372	-0.20387056
175	0xbe4ae5fc	-0.19814295
176	0xbd9d9e54	-0.07696214
177	0xbe09d625	-0.13460596
178	0xbe3f5e8f	-0.18688415
179	0xbe64ee2c	-0.2235648
180	0xbd72621b	-0.059175592
181	0xbe799cab	-0.2437617
182	0xbc22833e	-0.009918986
183	0xbdbebf99	-0.09313888
184	0xbe684127	-0.22681104
185	0xbe5ca29e	-0.21546409
186	0xbe0fbc6a	-0.14036718
187	0x3b1b21ac	0.0023671193
188	0xbe118465	-0.14210661
189	0xbd3940d4	-0.04522784
190	0x3cac0a53	0.021001017
191	0xbdb06637	-0.08613246
192	0xbe042a01	-0.12906648
193	0xbddd78df	-0.1081407
194	0xbe1d1634	-0.15340501
195	0xbe3fde0e	-0.18737051
196	0xbe473c5c	-0.19456619
197	0xbd3c7191	-0.046006743
198	0xbe51ed34	-0.20500642
199	0xbe53c179	-0.20679273
200	0xbd7086e5	-0.058722395
201	0xbda0a626	-0.0784419
202	0xbd925e61	-0.071469076
203	0xbdbdfaa8	-0.092763245
204	0xbd0d5fab	-0.034515064
205	0xbe51c377	-0.2048472
206	0xbd691310	-0.056902945
207	0xbc91c3d4	-0.017793573
208	0xbe12e35f	-0.14344548
209	0xbe31f9cc	-0.17380446
210	0xbe50e3d1	-0.20399405
211	0xbe14fbc9	-0.14549173
212	0xbdf7f098	-0.121064365
213	0xbe21dcdc	-0.15806907
214	0xbd5f2375	-0.054477174
215	0xbe003918	-0.1252178
216	0xbd73b6b3	-0.059500407
217	0xbddfcfd1	-0.1092831
218	0xbcaa3d0d	-0.020781064
219	0xbe237f35	-0.15966494
220	0xbe88083a	-0.26568776
221	0xbe3bafe1	-0.18328811
222	0xbde420d9	-0.11139078
223	0xbe6a2050	-0.22863889
224	0xbe388e2e	-0.18022987
225	0xbd5b6007	-0.053558376
226	0xbe106cb8	-0.14103973
227	0xbcc222d4	-0.023698248
228	0xbe21ba4c	-0.15793723
229	0xbe2d87ca	-0.1694633
230	0xbdc601bf	-0.09668302
231	0xbe368d49	-0.17827334
232	0xbd5be869	-0.05368844
233	0xbe77cc9b	-0.24199145
234	0xbdfb0389	-0.12256534
235	0xba0126e9	-0.00049267575
236	0xbdc1ea30	-0.09468496
237	0xbd19176a	-0.037375845
238	0xbd377ac4	-0.044794813
239	0xbe1a1077	-0.15045343
240	0xbd751be7	-0.059841063
241	0xbe245931	-0.16049649
242	0xbdfb376a	-0.12266429
243	0x3c6ab323	0.014324936
244	0xbe595c03	-0.21226506
245	0xbdf6bcb9	-0.12047715
246	0x3c65b78e	0.014020814
247	0xbe2acfb9	-0.16680802
248	0xbdb15bfd	-0.086601235
249	0xbdc120b4	-0.09430066
250	0xbc74571b	-0.014913346
251	0xbd0b0b95	-0.033946592
252	0xbdf119dc	-0.117725104
253	0xbdf0efb1	-0.117644675
254	0xbe12d99b	-0.14340822
255	0xbd03945b	-0.032123905

lstm.weight_ih_l1 f4 [512, 128]
0	0xbb58ceec	-0.003308232
1	0xbb957f2d	-0.0045622797
2	0xbd0a58fa	-0.03377626
3	0x3e377771	0.17916657
4	0x3d9a81fc	0.07544324
5	0x3df35573	0.118815325
6	0xbb7dba1e	-0.003871567
7	0xbddd5419	-0.10807056
8	0x3cdc26a1	0.026873888
9	0x3dbcfc2c	0.092277855
10	0x3d0f8733	0.035041045
11	0xbd60aa89	-0.054850135
12	0x3dfe42df	0.124150984
13	0x3e164458	0.14674509
14	0xbd4ce289	-0.05002073
15	0xba1d3a8f	-0.00059978006
16	0x3b91c616	0.0044486625
17	0x3c800a2e	0.015629854
18	0x3d87c195	0.0662872
19	0xbd473822	-0.048637517
20	0x3e51aa89	0.2047521
21	0x3da855e7	0.082195096
22	0x3c6e27b6	0.014535835
23	0x3da6dae8	0.08147222
24	0x3de95d28	0.11394721
25	0xbde7ebb0	-0.11324251
26	0x3d79e50c	0.06100945
27	0x3babfd3d	0.005248694
28	0x3d40b0fd	0.04704379
29	0x3d0a9180	0.033830166
30	0x3d5c7207	0.053819682
31	0x3b97cd11	0.0046326
32	0xbce58d72	-0.028021548
33	0x3d059869	0.032616053
34	0x3c99cc2e	0.018774118
35	0xbbe03c38	-0.006843116
36	0xbe896687	-0.26836035
37	0xbd7596a4	-0.059958115
38	0x3df7c9f6	0.12099068
39	0xbc3f4610	-0.011674419
40	0x3affc004	0.0019512181
41	0x3da2825c	0.0793502
42	0xbdfeb59a	-0.124369815
43	0xbc3b3d71	-0.011428223
44	0xbdd2132a	-0.102575615
45	0xbd667c17	-0.056270685
46	0x3cc20d5b	0.023688009
47	0xbdbb719b	-0.09152528
48	0xbd91ef98	-0.07125777
49	0xbd8068e6	-0.06270008
50	0x3c2d8bf6	0.010592451
51	0xbd8ab6df	-0.06773161
52	0x3d815c82	0.063164726
53	0x3dd0ace4	0.10189226
54	0x3ccb4665	0.02481384
55	0x3bec5a64	0.007212924
56	0x3ce98e9b	0.028510382
57	0xbdf31a4d	-0.11870251
58	0x3e11cb9b	0.14237826
59	0xbc843285	-0.01613737
60	0x3d66bd45	0.056332845
61	0x3b2107ba	0.0024571256
62	0xbdbf19fb	-0.09331127
63	0x3dc468ec	0.09590325
64	0x3cb94762	0.022617046
65	0x3d4b7094	0.04966791
66	0x3d4df990	0.05028683
67	0xbdab25b1	-0.083567984
68	0x3da54051	0.08068908
69	0xbd443680	-0.047903538
70	0x3df2253a	0.11823507
71	0xbe5222f6	-0.20521149
72	0x3d806652	0.06269516
73	0x3cfd1bb8	0.030897006
74	0xbd920472	-0.07129754
75	0xbdbd5408	-0.09244543
76	0xbe496b2b	-0.19669788
77	0xbdd429fa	-0.10359569
78	0x3c8b655b	0.017016103
79	0xbd5d3032	-0.05400104
80	0x3ddd70fe	0.10812567
81	0x3e03f73e	0.12887284
82	0xbe11bbe6	-0.14231834
83	0xbd23cde9	-0.039991293
84	0x3d12a891	0.03580529
85	0xbcb28ce5	-0.0217957
86	0x3cfaeba2	0.030629937
87	0x3e1d51b5	0.153632
88	0xbd380a6a	-0.044931807
89	0xbca564fb	-0.020189753
90	0x3da75e21	0.081722505
91	0x3df673eb	0.12033828
92	0x3e617d17	0.22020374
93	0xbdce616c	-0.100771755
94	0x3db735c6	0.08945803
95	0xbd89026c	-0.06689915
96	0x3c5a6c53	0.013331491
97	0xbd30879c	-0.043098077
98	0x3d689328	0.056780964
99	0xbdefda24	-0.11711529
100	0x3d1ed066	0.038772963
101	0x3d8517b6	0.06498663
102	0x3d49eec9	0.04929999
103	0xbce48016	-0.027893107
104	0x3e29a986	0.16568574
105	0xbe0397ab	-0.12850825
106	0x3dca8ea3	0.09890487
107	0xbd755df8	-0.05990407
108	0x3d7336af	0.059378322
109	0x3d8cb3d4	0.06870237
110	0x3bb81d1e	0.0056187054
111	0xbd482231	-0.048860732
112	0xbe09b10b	-0.13446443
113	0xbd99fa65	-0.07518462
114	0xbe3f6ebb	-0.18694584
115	0xbd5cc408	-0.053897887
116	0xbe0f23aa	-0.13978449
117	0xbcd6d1c3	-0.026223069
118	0xbd8d3889	-0.06895549
119	0x3d20df92	0.039275713
120	0xbdbf06e8	-0.09327489
121	0xbdce893d	-0.1008477
122	0x3ccdd788	0.025127187
123	0x3d5201e3	0.05127133
124	0xbb9d239d	-0.004795505
125	0xbc6fc3e0	-0.014634103
126	0xbdf44159	-0.119265266
127	0x3c324b88	0.010882266
128	0x3e4d0f8c	0.20025462
129	0xbd7a3140	-0.061082125
130	0x3cbc2420	0.022966444
131	0x3d4b892c	0.049691364
132	0xbd22f61f	-0.0397855
133	0xbd60d322	-0.054888852
134	0x3d83c614	0.06434265
135	0xbc164ea1	-0.00917402
136	0xbb9e24fa	-0.0048261853
137	0xbdde47ac	-0.10853514
138	0xbe022ae7	-0.12711678
139	0xbdbbaca8	-0.09163791
140	0xbdf0adca	-0.11751898
141	0x3de6502c	0.1124576
142	0x3d73e2d9	0.05954251
143	0xbdede5c9	-0.11616094
144	0x3d64c195	0.055848677
145	0xbe17bbd6	-0.14817747
146	0x3dae2659	0.08503408
147	0x3e353456	0.17695746
148	0xbe95ce59	-0.29258993
149	0x3d741e8e	0.05959945
150	0x3bec4125	0.0072099143
151	0x3d36c6a1	0.04462302
152	0xbdad8250	-0.08472121
153	0x3c0dd22b	0.008656065
154	0x3d4291cf	0.047502335
155	0xbdce90dc	-0.100862235
156	0x3cac3f2b	0.021026215
157	0xbd4b8f38	-0.04969713
158	0xbd744ded	-0.05964463
159	0xbbbc193e	-0.005740314
160	0xbcbb9832	-0.02289972
161	0xbc252d98	-0.010081671
162	0x3e234e23	0.15947776
163	0x3bebe914	0.007199416
164	0x3d575ac2	0.052576788
165	0xbe2f43a0	-0.1711564
166	0x3e19c7e5	0.1501766
167	0x3de75945	0.11296324
168	0xbdddffe8	-0.10839826
169	0x3d551f7b	0.052031975
170	0x3d9dbc7f	0.077019684
171	0xbdb585e2	-0.08863427
172	0x3cb09f8b	0.021560451
173	0x3dfb30cc	0.12265167
174	0x3cd53fd6	0.026031416
175	0x3ba09b33	0.0049013137
176	0xbd429af9	-0.047511075
177	0x3d2c2877	0.042030778
178	0xbe1fcf88	-0.1560651
179	0xbd88ac65	-0.06673507
180	0x3e0938b8	0.13400543
181	0xbe69b770	-0.22823882
182	0x3d8da192	0.06915583
183	0xbcf09766	-0.029369067
184	0x3d0b6fce	0.034042172
185	0x3e32134c	0.17390174
186	0xbcbb00ff	-0.022827623
187	0x3d060510	0.03271967
188	0x3d865ffa	0.06561275
189	0xbd883540	-0.06650782
190	0x3d875cca	0.06609495
191	0xbe3b06ee	-0.18264362
192	0x3bb21b9d	0.0054354207
193	0x3b7f2037	0.0038929114
194	0xbd50bd02	-0.050961502
195	0xbcb21487	-0.021738304
196	0xbdc798e6	-0.0974596
197	0x3cb2cf97	0.021827502
198	0xbba39794	-0.0049924348
199	0x3d97c997	0.07411497
200	0x3ceeade7	0.029135657
201	0xbe1cfddb	-0.15331213
202	0xbd44e902	-0.048073776
203	0x3cc7c5ae	0.024386253
204	0x3decf689	0.1157046
205	0xbe3bc8c3	-0.18338303
206	0x3d110e77	0.035414185
207	0xbdfb0a33	-0.12257805
208	0x3dca67a8	0.09883052
209	0x3e1fdd5b	0.15611784
210	0x3d964227	0.07336836
211	0xbdac4696	-0.08411901
212	0xbbec431d	-0.007210149
213	0x3d3d6ccf	0.046246346
214	0x3d83f8a7	0.06443911
215	0xbd98baa0	-0.07457471
216	0xbca3265b	-0.01991575
217	0x3db65890	0.08903611
218	0x3e15c777	0.14626871
219	0xbe649e67	-0.2232605
220	0xbe270edf	-0.16314267
221	0x3e13fe6c	0.14452523
222	0xbcc70a8e	-0.024297025
223	0x3b1c9407	0.0023891942
224	0xbe8ea9bb	-0.2786387
225	0x3e3bb968	0.18332446
226	0xbe007e69	-0.12548222
227	0xbd9bd448	-0.07608849
228	0x3d98e6b1	0.07465876
229	0x3dcfdad3	0.10149159
230	0xbdc19843	-0.0945287
231	0x3e8d72a6	0.27626532
232	0xbd748f87	-0.05970719
233	0xb938c032	-0.00017619206
234	0x3d7f0cb6	0.06226798
235	0x3dcb52cc	0.099279016
236	0x3ddb2785	0.10700897
237	0x3dcdb472	0.10044183
238	0xbd6ae426	-0.057346486
239	0x3d8a8207	0.06763082
240	0x3d04e03b	0.032440405
241	0xbd948bef	-0.07253253
242	0xbe150dad	-0.14555998
243	0xbdd436b0	-0.10361993
244	0xbcd7eae4	-0.026357122
245	0x3bc36ffb	0.005964277
246	0x3e057b43	0.13035302
247	0xbdd8db14	-0.10588661
248	0xbe27bc3a	-0.16380396
249	0x3dcd2195	0.10016171
250	0x3ae57fa7	0.0017509357
251	0x3d070ff6	0.032974206
252	0x3cfba2e0	0.030717313
253	0x3c14b7f7	0.009077064
254	0x3dfda94a	0.12385805
255	0x3d85a46b	0.06525501

lstm.weight_hh_l1 f4 [512, 128]
0	0x3d98752a	0.07444222
1	0x3d95cbf9	0.07314295
2	0xbc0cac67	-0.008586026
3	0xbd21fc0c	-0.03954701
4	0x3d23a00e	0.039947562
5	0x3d75597a	0.059899785
6	0xb9eed3ea	-0.00045552786
7	0x3ce71070	0.02820608
8	0xbdca06f4	-0.098646075
9	0x3d09e43c	0.033664927
10	0x3d062496	0.032749735
11	0xbcf533ea	-0.029931981
12	0x3cfe649d	0.031053836
13	0x3c650875	0.013979067
14	0xbce5f158	-0.028069183
15	0x3d087662	0.033316024
16	0x3bd04c7d	0.0063567744
17	0xbe122855	-0.14273198
18	0x3a782132	0.00094653957
19	0x3caa8c9b	0.020818999
20	0x3c186857	0.00930222
21	0x3a91bfbf	0.0011119767
22	0xbdaf0b35	-0.085470594
23	0xbd28678d	-0.04111438
24	0x3c97c7c7	0.018527878
25	0x3d87fdf2	0.06640233
26	0x3cff38ff	0.031155108
27	0x3d2f4bf7	0.042797055
28	0xbd46891b	-0.048470598
29	0x3d4b1733	0.04958267
30	0x3c53e69d	0.0129334
31	0xbd2bb319	-0.041918848
32	0x3cb6a6ce	0.022296336
33	0x3d038e07	0.03211787
34	0x3c36f5c8	0.011166997
35	0xbd46f43b	-0.04857276
36	0x3d2fe31c	0.042941198
37	0xbd036d79	-0.032086823
38	0x3e0107ee	0.12600681
39	0xbdacdc22	-0.084404245
40	0x3dc28512	0.094980374
41	0x3bd2fb5d	0.0064386562
42	0xbcdde3b0	-0.027086109
43	0xbdb2318a	-0.08700855
44	0x3d734469	0.059391413
45	0xbcff979e	-0.031200226
46	0xbcf9996c	-0.030468665
47	0xbde6e87f	-0.11274814
48	0x3cf2f05d	0.02965563
49	0x3be87cdb	0.007094962
50	0xbd8955f9	-0.06705851
51	0xbb3727f4	-0.0027947398
52	0x3c710823	0.014711413
53	0x3c7bbc3b	0.015364702
54	0xbc637ba6	-0.013884461
55	0xbc455e6c	-0.012046438
56	0x3dacfe22	0.084469095
57	0xbcc74ce4	-0.024328656
58	0xbdb93f67	-0.09045296
59	0xbe086210	-0.13318658
60	0xbda94fdd	-0.08267186
61	0xbd1cadb1	-0.038251583
62	0x3d512bb3	0.051067065
63	0xbd8541ae	-0.06506668
64	0x3d14ab70	0.036296308
65	0xbd9301e2	-0.071780935
66	0x3c875442	0.01651967
67	0x3c0d8247	0.008637018
68	0xbd14356f	-0.03618377
69	0xbc19ba37	-0.009382776
70	0x3c9f6170	0.019455642
71	0x3cdb546d	0.026773656
72	0x3d3c5cfe	0.04598712
73	0xbc34e5f5	-0.011041154
74	0x3c461c6c	0.012091737
75	0x3d0718bd	0.032982577
76	0x3d4aa1d8	0.049470752
77	0xbb367d64	-0.0027845735
78	0x3d9b9d94	0.07598415
79	0xbd99c232	-0.07507743
80	0x3d91818c	0.07104787
81	0xbc1ff94c	-0.009764027
82	0xbb81815e	-0.0039521893
83	0xbdfeec00	-0.12447357
84	0xbd99f9f5	-0.07518379
85	0x3d6a1ad3	0.057154488
86	0xbd0f9b72	-0.035060354
87	0x3d2191b1	0.039445583
88	0xbdb3ec81	-0.08785344
89	0x3d7ff426	0.062488697
90	0x3c0ddcf2	0.0086586345
91	0x3cdf0065	0.027221868
92	0xbda41dfe	-0.08013533
93	0x396d0af3	0.0002260616
94	0x3c9caf46	0.019126546
95	0x3aa7d4cc	0.0012804507
96	0x3d05c8c0	0.032662153
97	0x3a9005be	0.001098804
98	0x3c799b23	0.015234741
99	0xbb8f5680	-0.0043743253
100	0xbc3de32d	-0.011589807
101	0xbd840cc2	-0.06447746
102	0xbd89404d	-0.067017175
103	0xbd7cc6a5	-0.06171288
104	0x3d338214	0.043825224
105	0xbd03e05f	-0.0321964
106	0xbc17a23b	-0.009254987
107	0xbd4f7785	-0.050651092
108	0xbbfe44f3	-0.007759684
109	0x3c332f04	0.010936502
110	0xbd9500a1	-0.072755106
111	0x3cbbdf36	0.022933584
112	0x3a9cff45	0.0011977932
113	0x3d378408	0.04480365
114	0x3d984c7c	0.07436463
115	0xbce9f6ae	-0.028560009
116	0xbd2027df	-0.039100524
117	0x3cb350bf	0.021889089
118	0xbcd40a3a	-0.025883783
119	0x3d2cd457	0.04219469
120	0x3d00ee5e	0.031477325
121	0x3d58fac6	0.05297353
122	0xbda8e0b9	-0.082459874
123	0x3dfca9e8	0.123370945
124	0x3da8fb7d	0.082510926
125	0x3db25ada	0.08708735
126	0xbd382b4a	-0.04496316
127	0x3b0ed02e	0.0021791565
128	0xbdf1c5c9	-0.11805303
129	0xbdba6881	-0.09101964
130	0xbc7a6373	-0.0152825
131	0x3d6cb2e2	0.057787783
132	0x3e0e3824	0.13888603
133	0xbd8dcf1d	-0.06924269
134	0x3e4a9d40	0.19786549
135	0xbd5d001a	-0.053955175
136	0x3dee540b	0.11637124
137	0xbdc1c672	-0.094616786
138	0xbd98b044	-0.07455495
139	0xbd46c0fa	-0.04852388
140	0x3d32b06e	0.043625288
141	0x3c8fb506	0.017542373
142	0xbe368d89	-0.17827429
143	0xbda0180e	-0.07817088
144	0x3dfc04cc	0.123056024
145	0x3c0b2558	0.00849279
146	0xbd60a10b	-0.054841083
147	0xbdc5b8ad	-0.09654365
148	0xbe28ee60	-0.16497183
149	0xbd9218b3	-0.07133617
150	0xbe5be201	-0.21472932
151	0xbd990fdb	-0.07473727
152	0x3df7a487	0.12091928
153	0xbe1c40ed	-0.15259142
154	0xbe1337fd	-0.14376827
155	0xbc5193af	-0.012791558
156	0xbdbb53d8	-0.09146851
157	0x3d290335	0.041262824
158	0x3db291de	0.08719228
159	0xbcc2cef9	-0.023780333
160	0x3d8b68f4	0.068071276
161	0x3cea0d2b	0.028570732
162	0xbc761ed6	-0.015022
163	0xbcdaa0e8	-0.026688054
164	0x3d6764ce	0.05649262
165	0xbe1d58d8	-0.15365922
166	0xbd6d5851	-0.057945553
167	0xbdf90029	-0.12158234
168	0xbe2b1f29	-0.16711105
169	0x3d198f7a	0.037490346
170	0xbd809c36	-0.06279795
171	0x3de7a255	0.11310259
172	0xbd085dff	-0.033292767
173	0x3da787bd	0.08180187
174	0xbdc3752d	-0.09543834
175	0xbd0b9c83	-0.034084808
176	0xbe7322df	-0.23743771
177	0x3da859f2	0.08220281
178	0xbe1c82fe	-0.15284345
179	0xbda5958e	-0.08085166
180	0x3d92a463	0.071602605
181	0xbd9ddc35	-0.07708017
182	0xbdab9556	-0.08378093
183	0x3d90d11e	0.07071136
184	0x3e590088	0.21191609
185	0x3e3be055	0.18347295
186	0x3d5b12cc	0.053484723
187	0xbca9106e	-0.020637717
188	0xbe454695	-0.19265206
189	0x3daa763c	0.08323333
190	0xbe2832d4	-0.1642564
191	0x3dd840d3	0.10559239
192	0x3e1c94e4	0.15291172
193	0xbe19f9c2	-0.15036681
194	0x3db50052	0.08837952
195	0xbdff2888	-0.124589026
196	0xbd20c91b	-0.03925429
197	0x3d702f33	0.058638763
198	0xbda8e89c	-0.08247492
199	0x3da21322	0.079138055
200	0x3e2a7499	0.16646041
201	0xbdba42ea	-0.09094794
202	0xbd34bf6f	-0.044127878
203	0x3dcc505a	0.09976263
204	0x3d8fb508	0.07016951
205	0x3e19f249	0.1503383
206	0xbd56b0e1	-0.05241478
207	0xbdb5aef7	-0.088712625
208	0x3e25983a	0.16171351
209	0xbd212a9e	-0.039347284
210	0xbe14dfd0	-0.14538503
211	0xbd3beaf6	-0.045878373
212	0xbdee1cf9	-0.1162662
213	0x3c90293d	0.017597789
214	0x3d0df65d	0.03465878
215	0xbdb512b4	-0.08841458
216	0x3e2c037f	0.16798209
217	0x3d4b0164	0.049561873
218	0xbdc38a14	-0.09547821
219	0x3e1c3abe	0.15256783
220	0x3c223669	0.009900668
221	0xbc33d742	-0.010976614
222	0x3d042118	0.032258123
223	0x3d67abfe	0.05656051
224	0x3da7a263	0.0818527
225	0x3d3017c6	0.042991422
226	0xbd082802	-0.03324128
227	0x3d94eada	0.07271357
228	0x3e0b6596	0.1361297
229	0xbe37f07c	-0.17962831
230	0xbdc4b7d1	-0.09605373
231	0xbd9caff1	-0.07650746
232	0xbd9274d1	-0.07151187
233	0xbcef19ba	-0.029187072
234	0xbddd3f74	-0.10803118
235	0x3dc2f7c7	0.09519916
236	0xbde9fc33	-0.11425056
237	0x3de216d8	0.11039513
238	0xbccd8fea	-0.025093038
239	0xbdcfa3ee	-0.10138689
240	0x3df5c95c	0.12001297
241	0xbe019b6a	-0.12656942
242	0x3def1a37	0.11674922
243	0x3e019dd1	0.12657858
244	0xbdbcab52	-0.09212364
245	0xbd53f1f9	-0.051744435
246	0xbd610dd4	-0.05494483
247	0xbd4dbab5	-0.050226886
248	0xbdb5a2be	-0.08868931
249	0xbe46646d	-0.19374247
250	0x3de7a1ac	0.11310133
251	0xbe486a86	-0.19571885
252	0x3cb9bb5a	0.022672344
253	0x3c6322e2	0.013863297
254	0xbd6b21af	-0.05740517
255	0x3df83af4	0.121206194

lstm.bias_ih_l1 f4 [512]
0	0xbdc6d348	-0.097082675
1	0xbd537512	-0.05162532
2	0xbda25fed	-0.07928453
3	0xbdb669a5	-0.08906869
4	0xbddcb16e	-0.107760295
5	0xbdde243c	-0.10846755
6	0xbd927fe4	-0.071532995
7	0xbd42f331	-0.047595207
8	0xbc3066b3	-0.010766673
9	0xbc17756e	-0.009244306
10	0xbd89684f	-0.067093484
11	0x3bb95d8f	0.005656905
12	0xbd9b63b9	-0.0758738
13	0x3d5e87e0	0.0543288
14	0xbd3a412d	-0.045472313
15	0xbde3ce2e	-0.1112331
16	0x3c9be6de	0.019030984
17	0xbca9581b	-0.020671895
18	0xbda318b3	-0.079636954
19	0xbd156716	-0.036475264
20	0xbdb9c9a8	-0.09071666
21	0xbe144b2e	-0.14481804
22	0xbcc858b6	-0.024456363
23	0xbc9aad1f	-0.018881379
24	0xbe035c25	-0.12828119
25	0xbe110d5a	-0.1416525
26	0xbe1b9966	-0.15195236
27	0xbdeddac2	-0.1161399
28	0xbe53114e	-0.2061207
29	0xbe15852e	-0.14601585
30	0xbe0f55f3	-0.13997631
31	0xbddfaec1	-0.109220035
32	0xbcfa28ae	-0.030536976
33	0xbd7b2faf	-0.06132477
34	0xbda355d8	-0.07975358
35	0xbd2664ab	-0.04062335
36	0xbd9177e5	-0.07102946
37	0x3d80947a	0.0627832
38	0xbc8af391	-0.016961845
39	0xbe2c4907	-0.16824733
40	0xbd5ed980	-0.054406643
41	0xbd3a5800	-0.04549408
42	0xbd8d3807	-0.06895452
43	0x3aee0964	0.0018160758
44	0xbe0e1b7e	-0.13877675
45	0xbe060fba	-0.13091937
46	0x3cc80361	0.024415674
47	0xbe1d1f49	-0.15343966
48	0xbe04686a	-0.12930456
49	0xbdfb9030	-0.12283361
50	0xbe05a34b	-0.13050573
51	0xbd05b83a	-0.032646395
52	0xbdedb25d	-0.11606286
53	0xbd99db71	-0.07512558
54	0x3d2979c6	0.041375898
55	0xbd2a652e	-0.0416004
56	0xbd9123a3	-0.07086875
57	0xbe5dd73c	-0.21664137
58	0xbe262d05	-0.16228111
59	0xbdd74ba7	-0.105124764
60	0xbd5787dc	-0.0526198
61	0x3bedd6a1	0.007258252
62	0xbdecf36d	-0.11569867
63	0xbdb826af	-0.08991753
64	0xbd5e8113	-0.054322314
65	0x3d570d9f	0.052503224
66	0xbe2c8968	-0.16849291
67	0xbe12ed8f	-0.14348434
68	0xbdca59c6	-0.09880404
69	0xbd0a62c4	-0.033785596
70	0xbe475ddf	-0.19469403
71	0xbc5c807e	-0.013458369
72	0xbcf95579	-0.030436264
73	0x3cd626f6	0.026141625
74	0xbd90711d	-0.07052825
75	0xbe056195	-0.13025506
76	0xbe22e4bb	-0.15907566
77	0xbdc3967b	-0.09550186
78	0xbd5f7185	-0.05455162
79	0xbd9bdfe3	-0.076110624
80	0xbdae0b9d	-0.08498309
81	0x3dc8df1b	0.09808179
82	0xbde8623d	-0.113468625
83	0xbe28bd98	-0.16478574
84	0xbd9bb1a6	-0.07602243
85	0xbe1bbf17	-0.15209614
86	0xbd846292	-0.06464113
87	0xbdddbcf3	-0.10827055
88	0xbd517e91	-0.051146094
89	0x3b27ca3f	0.0025602726
90	0xbdb61d23	-0.08892276
91	0xbd8c7c21	-0.06859613
92	0xbe2efb92	-0.17088154
93	0xbdb25993	-0.08708491
94	0xbd2adc09	-0.041713748
95	0xbd8abbdb	-0.06774112
96	0xbe1182d1	-0.14210059
97	0x3c560e23	0.013064894
98	0xbda27e75	-0.07934276
99	0xbe088aff	-0.13334273
100	0xbcd4ddc7	-0.025984658
101	0xbe0470ed	-0.12933703
102	0xbc2c6450	-0.010521963
103	0x3d8a6304	0.06757167
104	0xbe2ddd4e	-0.16978952
105	0xbd5aa326	-0.053378247
106	0xbd18caa7	-0.03730264
107	0xbba03035	-0.004888559
108	0xbdaa8186	-0.08325486
109	0xbe534fed	-0.20635958
110	0xbcdec25b	-0.027192285
111	0xbe8f6513	-0.280068
112	0xbd15b47f	-0.036549088
113	0xbdd8656a	-0.10566218
114	0xbde7b74b	-0.11314257
115	0xbdedc7fe	-0.11610411
116	0xbe0ff18f	-0.14056991
117	0xbcbe05ba	-0.02319609
118	0x3ca61f55	0.020278612
119	0x3ce1c2dc	0.027558737
120	0xbd80610a	-0.06268509
121	0xbcdc7162	-0.026909534
122	0xbe2bfd6b	-0.1679589
123	0xbba071d1	-0.0048963805
124	0xbe5810a4	-0.21100098
125	0xbd367119	-0.044541452
126	0xbdf76051	-0.12078918
127	0xbe035348	-0.12824738
128	0xbd3ecb72	-0.04658074
129	0xbc422a95	-0.011850973
130	0x3e46f6cf	0.19430088
131	0x3c88f980	0.016720533
132	0x3cc6ec4c	0.024282597
133	0xbdf3b5f9	-0.11899943
134	0xbde8d4d4	-0.11368719
135	0xbde30ef8	-0.110868394
136	0xbc33c55a	-0.010972345
137	0xbdb569ad	-0.08858047
138	0x3d955736	0.07292025
139	0xbd0567cd	-0.032569695
140	0xbcc159c0	-0.023602366
141	0x3de4edef	0.11178195
142	0xbd90fb49	-0.07079179
143	0x3d13c6c6	0.036078237
144	0xbd25fd1a	-0.04052458
145	0x3d43d449	0.047809873
146	0x3ce68352	0.02813879
147	0xbdc4d248	-0.096104205
148	0xbdd27827	-0.102768235
149	0xbd7fa587	-0.06241372
150	0xbe224e86	-0.15850267
151	0xbd3e6d08	-0.0464907
152	0xbe0f592a	-0.13998857
153	0xbdf3b54f	-0.11899816
154	0x3d0b22ce	0.03396874
155	0xbdcce744	-0.10005048
156	0xbe44db1f	-0.19224213
157	0x3c8ac908	0.016941562
158	0xbd8d2db0	-0.0689348
159	0xbddfc6d6	-0.10926597
160	0xbd03e09d	-0.03219663
161	0xbd457e63	-0.048216235
162	0xbd167354	-0.03673108
163	0xbd56603f	-0.05233788
164	0xbcd8bb57	-0.026456518
165	0xbd96e2b5	-0.0736746
166	0xbb25dd5a	-0.0025308938
167	0xbe1f6f28	-0.15569746
168	0xbe0f8de5	-0.14018972
169	0xbc888d07	-0.01666881
170	0xbcd0b1d4	-0.02547542
171	0xbddcda7b	-0.10783859
172	0x3dc5fca9	0.09667332
173	0xbd82b5cd	-0.06382332
174	0xbda6be9f	-0.08141827
175	0xbe0f3a4c	-0.13987082
176	0xbc1423ab	-0.009041707
177	0xbd050f0a	-0.032485045
178	0x3ba219ca	0.004946922
179	0x3e192f77	0.14959513
180	0xbdacf482	-0.08445074
181	0xbdd28115	-0.10278527
182	0xbd2da9aa	-0.042398132
183	0xbd2e0fe4	-0.042495623
184	0xbe14d520	-0.14534426
185	0xbdb6deda	-0.08929224
186	0xbdd0e496	-0.10199849
187	0xbd33abe3	-0.043865096
188	0xbdbadf74	-0.091246516
189	0xbd8373cf	-0.06418573
190	0x3da508bb	0.08058306
191	0xbcd72a58	-0.026265308
192	0xbb187984	-0.0023265788
193	0x3d0c17dc	0.03420244
194	0xbd207002	-0.03916932
195	0xbdef2efe	-0.11678885
196	0xbdd22a7b	-0.10262009
197	0xbdafe955	-0.085894264
198	0xbe03f37d	-0.12885852
199	0xbda000a9	-0.07812626
200	0x3be5983f	0.0070066745
201	0xbd87e52f	-0.0663551
202	0xbddb2020	-0.10699487
203	0xbdb0e2f9	-0.086370416
204	0xbdc3f397	-0.095679455
205	0xbd884547	-0.066538386
206	0xbc588b25	-0.013216768
207	0xbdc0634e	-0.09393941
208	0xbd9a9cad	-0.07549415
209	0xbde2408c	-0.110474676
210	0x3c788158	0.015167557
211	0xbd8ae2d0	-0.06781542
212	0xbdcc3ccf	-0.09972536
213	0x3d89bf2e	0.06725918
214	0xbd8b215a	-0.06793471
215	0x3d555867	0.05208626
216	0x3cf3d370	0.029763907
217	0xbd416191	-0.047212187
218	0x3d1fa177	0.038972344
219	0xbda7751e	-0.08176635
220	0xbdacfa88	-0.084462225
221	0xbc19e853	-0.009393769
222	0x3d01bb19	0.03167257
223	0xbbf65467	-0.0075173858
224	0xbda6b478	-0.081398904
225	0xbda7aceb	-0.08187278
226	0x3cf06f59	0.02934997
227	0xbe1d4f63	-0.15362315
228	0xbe0eeb62	-0.13956979
229	0xbd693a67	-0.056940462
230	0x3cad5b48	0.02116169
231	0x3e5ea1fe	0.21741483
232	0xbdd9873b	-0.10621496
233	0xbdf84dd7	-0.12124222
234	0x3e330707	0.1748315
235	0xbe0be0b8	-0.13659942
236	0xbdfed64a	-0.12443216
237	0xbd138db4	-0.03602381
238	0xbd94cbcd	-0.072654344
239	0xbe124579	-0.14284314
240	0xbcc59ca3	-0.024122542
241	0x3da31e61	0.07964779
242	0xbc429208	-0.011875637
243	0xbdd34ce5	-0.10317401
244	0xbac80ea1	-0.0015263149
245	0xbd918fce	-0.07107507
246	0x3cf32c72	0.02968428
247	0x3d5e53cb	0.05427913
248	0x39d2a0de	0.00040174177
249	0xbd1b2c92	-0.037884302
250	0xbdaf180c	-0.085495085
251	0x3c925ae8	0.017865613
252	0xbde011bd	-0.10940883
253	0xbd089b88	-0.03335145
254	0x3d3710cf	0.044693764
255	0xbe127eaf	-0.14306138
