model/model_weights_PermeatePressure.pth (torch, 921389 bytes, 14 tensors)

lstm.weight_ih_l0 f4 [512, 10]
-0.030520536 0.06319675 0.06423907 -0.012216915 -0.06914366 -0.16025664 0.08807922 0.0130057605
0.041034676 -0.10285011 -0.14472829 0.078062356 0.04051744 -0.1282794 -0.025605598 -0.03684484
0.014256071 -0.109558955 -0.016526299 -0.052357808 0.18985969 0.02734019 0.09549578 0.0032771549
0.026087254 -0.035206307 -0.019605784 -0.15912692 0.033710063 -0.16777341 0.028763995 -0.052248478
0.056284245 -0.027870921 0.09747318 0.08495695 0.07529084 0.0746099 -0.08355238 -0.14374842
-0.064473696 0.023338346 0.16478455 0.091782756 0.0679413 -0.11673992 -0.052208718 0.022381697
-0.0098950425 0.041330423 -0.008473139 0.040288683 -0.044718705 0.19465321 -0.064095475 -0.10314269
-0.118306756 0.063041195 0.030973222 0.09819679 -0.013645299 0.0871367 -0.159208 -0.06265977
-0.13842031 0.12068157 -0.024905344 0.013302003 0.30553678 0.06513345 0.07127577 0.048233237
-0.058215074 0.00046640792 0.09044281 -0.01756156 0.010485021 0.02899208 0.11196861 -0.025774602
0.013456188 -0.12269805 -0.034646086 -0.017841509 0.046640005 -0.014385001 0.03529656 -0.010852831
-0.13312925 0.04128012 -0.030954195 -0.020764688 -0.14002053 -0.071747676 -0.097764134 0.14016473
0.09049152 0.056456763 0.046660952 -0.081035055 -0.08385422 0.09096474 -0.118984215 -0.09708986
-0.09847182 0.086630635 -0.055448808 -0.017950842 0.02065707 -0.007710031 -0.14896727 -0.015907468
0.011696518 0.034032207 -0.097556144 0.028341327 0.14203206 0.09496049 0.07470528 0.13900886
-0.028274044 0.031802017 0.121966764 -0.02043563 0.03882092 -0.143989 -0.068750285 -0.11390001
0.007959414 -0.01907817 0.030949162 -0.010021461 0.059805647 0.114511125 0.09302661 0.025954008
0.058036946 0.10029836 -0.027810132 0.026797052 0.123751186 -0.03396556 0.01299534 -0.055358633
0.16213393 -0.13815463 0.01551336 0.06676707 -0.113412075 -0.23321785 -0.08676629 -0.03908418
0.10334231 0.010439406 0.023867901 0.012692697 -0.03199929 0.08655227 0.08219593 -0.071980655
0.16245784 -0.059395324 0.06556029 0.04491532 0.16673876 -0.1701871 -0.08248779 0.040513925
0.010017216 -0.013831094 -0.017139725 -0.008373055 -0.10055736 -0.11007618 0.05776893 -0.12659457
-0.023105733 -0.00035248138 0.12875912 0.083186254 -0.0050948337 -0.037907414 -0.10537864 -0.043927602
-0.039320882 -0.006363889 -0.14224027 0.051953144 0.098057225 0.04449688 -0.03208621 -0.106814675
-0.000145394 -0.19357434 -0.044693246 0.020865764 0.104148895 0.060697414 -0.1348785 -0.22876015
0.080493495 0.030214388 -0.14253794 -0.0024961878 -0.015438719 0.10677889 0.07131092 0.13653952
-0.03638519 0.05118151 -0.061132688 -0.058780074 -0.06652415 -0.10054357 0.054327615 -0.11867619
0.0789522 0.07283345 0.16655654 0.09345499 -0.123662785 0.0557997 0.050501537 -0.01663371
0.023722883 -0.03190496 0.015805837 0.10279387 0.05953535 -0.03340879 -0.13608074 -0.1138598
-0.0016723556 -0.07425677 0.0076259705 -0.04415375 0.18925689 0.131695 0.07353317 0.117313474
0.08179948 -0.12370951 -0.045787193 -0.05029711 0.038896553 -0.08909703 -0.005662983 0.09923016
-0.052869644 -0.106427446 -0.084865876 0.0779552 0.035226937 0.12681644 -0.060500875 -0.04667543
00000000: 3406 fabc 4c6d 813d c68f 833d 7529 48bc
00000010: 319b 8dbd 511a 24be e162 b43d 1d16 553c
00000020: fa13 283d 14a3 d2bd a733 14be 28df 9f3d
00000030: 9df5 253d ad5b 03be d5c2 d1bc 9dea 16bd
00000040: 4c92 693c 7260 e0bd 2962 87bc 2475 56bd
00000050: 946a 423e 89f8 df3c 4b93 c33d 89c5 563b
00000060: f0b4 d53c 7d34 10bd 4f9c a0bc 2bf2 22be
00000070: 9013 0a3d cbcc 2bbe 78a2 eb3c 8002 56bd
00000080: 4f8a 663d 8f51 e4bc 05a0 c73d e9fd ad3d
00000090: 1532 9a3d 13cd 983d 831d abbd c932 13be
000000a0: c90a 84bd 0f30 bf3c 48bd 283e 99f8 bb3d
000000b0: cf24 8b3d 5715 efbd cfd8 55bd d259 b73c
000000c0: d11e 22bc 174a 293d ecd2 0abc bf05 253d
000000d0: f62a 37bd 2c53 473e 7d44 83bd 7a3c d3bd
000000e0: d04a f2bd be1b 813d 8ebb fd3c 661b c93d
000000f0: 8890 5fbc ba74 b23d 6c07 23be c453 80bd
00000100: 0ebe 0dbe e627 f73d 4b06 ccbc a5f0 593c
00000110: 516f 9c3e b064 853d 08f9 913d 3790 453d
00000120: ee72 6ebd 3688 f439 143a b93d 43dd 8fbc
00000130: 5ec9 2b3c cc80 ed3c cc4f e53d 4225 d3bc
00000140: 5877 5c3c 1e49 fbbd 0ee9 0dbd 5b28 92bc
00000150: 9709 3f3d 11af 6bbc 2093 103d 13d0 31bc
00000160: 0953 08be 5815 293d a793 fdbc b51a aabc
00000170: 8b61 0fbe 72f0 92bd 9038 c8bd 5887 0f3e
00000180: 9e53 b93d 353f 673d 8e1f 3f3d b5f5 a5bd
00000190: c3bb abbd b94b ba3d ffad f3bd 0cd7 c6bd
000001a0: 98ab c9bd 676b b13d 4a1e 63bd a50d 93bc
000001b0: 0439 a93c 6da4 fcbb e08a 18be 6150 82bc
000001c0: c1a2 3f3c 5b65 0b3d 84cb c7bd 122c e83c
000001d0: da70 113e a57a c23d 15ff 983d 5758 0e3e
000001e0: f89e e7bc d542 023d b6c9 f93d 9f68 a7bc
000001f0: af02 1f3d da71 13be f3cc 8cbd 6944 e9bd
00000200: 3468 023c d349 9cbc 1989 fd3c 0e31 24bc
00000210: c4f6 743d cf84 ea3d bc84 be3d 809d d43c
00000220: 26b8 6d3d 3a69 cd3d 13d2 e3bc 7e85 db3c
00000230: 4371 fd3d 791f 0bbd 68ea 543c bcbf 62bd
00000240: 7006 263e 6878 0dbe bf2b 7e3c 2cbd 883d
00000250: 9744 e8bd a9d0 6ebe 86b2 b1bd bc16 20bd
00000260: 22a5 d33d 0b0a 2b3c 9e86 c33c 08f5 4f3c
00000270: b011 03bd 5142 b13d 5756 a83d 986a 93bd
00000280: 595b 263e 8348 73bd 7944 863d 20f9 373d
00000290: 91bd 2a3e 8745 2ebe 5cef a8bd eef1 253d
000002a0: 401f 243c d09b 62bc 9c68 8cbc 232f 09bc
000002b0: 04f1 cdbd 9f6f e1bd 1d9f 6c3d 02a2 01be
000002c0: 3c48 bdbc 40cd b8b9 6ed9 033e 8e5d aa3d
000002d0: 90f2 a6bb ce44 1bbd c2d0 d7bd 6eed 33bd
000002e0: ef0e 21bd 2c88 d0bb 6fa7 11be d2cc 543d
000002f0: 3ad2 c83d 5c42 363d d46c 03bd a7c1 dabd
00000300: e874 18b9 5a38 46be 4410 37bd aeee aa3c
00000310: 044c d53d da9d 783d 971d 0abe 1a40 6abe
00000320: c6d9 a43d 2a84 f73c 77f5 11be 1597 23bb
00000330: aef2 7cbc e4ae da3d 760b 923d 04d1 0b3e
00000340: a308 15bd b4a3 513d 4566 7abd 60c3 70bd
00000350: d03d 88bd cae9 cdbd a286 5e3d 810c f3bd
00000360: b1b1 a13d b429 953d cc8d 2a3e 5465 bf3d
00000370: ea42 fdbd 3a8e 643d b3da 4e3d 6b43 88bc
00000380: 7e56 c23c c6ae 02bd 3e7b 813c 9885 d23d
00000390: 57db 733d a8d7 08bd c058 0bbe 542f e9bd
000003a0: f132 dbba ef13 98bd 47e3 f93b 90da 34bd
000003b0: 8fcc 413e 0edb 063e 8f98 963d 0c42 f03d
000003c0: 7c86 a73d 695b fdbd 5a8b 3bbd 5804 4ebd
000003d0: fe51 1f3d 8178 b6bd 8b90 b9bb 2f39 cb3d
000003e0: d78d 58bd a2f6 d9bd 29ce adbd faa6 9f3d
000003f0: 1f4a 103d 2bdc 013e c4cf 77bd bc2e 3fbd

lstm.weight_hh_l0 f4 [512, 128]
0.034324344 -0.00210255 0.078948066 0.028052758 -0.13017577 0.059854265 0.045301616 0.11260494
0.05025595 0.18441828 0.050156873 -0.069582775 0.07781534 -0.046485886 0.041605633 -0.13079113
0.021775754 0.00043498492 0.06504245 0.050780147 -0.12685013 -0.025852907 0.11103637 -0.025732689
-0.030861573 -0.12263213 -0.03143035 -0.0765357 -0.018076044 0.07689927 -0.090659 0.011901568
-0.036974557 -0.047970086 0.0149987135 -0.011910394 -0.07779249 -0.053045243 0.044016566 0.060487874
0.0017791173 -0.06475558 0.0015929852 0.014158517 0.0047360407 -0.024848962 0.08003965 -0.16415125
-0.16994998 -0.016224753 -0.098226435 0.06898008 -0.11402881 -0.005492545 0.028240051 -0.11983935
-0.018157449 0.03630271 -0.006296448 0.0292849 -0.062596366 -0.00737534 -0.05110906 0.024546258
0.081379525 -0.08015016 -0.084611885 0.06712443 -0.054316327 -0.040658776 0.024136921 -0.13770185
0.083589725 -0.023539247 -0.1354888 0.09264258 0.027084079 -0.044499397 -0.04517418 -0.042747043
-0.019943466 0.14819261 0.055018555 -0.0051717223 -0.11685731 0.04431305 -0.15157476 0.07901807
0.0037794954 0.14594866 -0.04854557 -0.07673464 0.017254692 -0.18879028 -0.08649898 -0.07533309
0.039831676 0.15104811 -0.016915673 -0.02736572 -0.0015026414 0.04809067 0.05593652 0.0070648706
-0.055036098 -0.022940734 -0.060115933 0.059895657 0.19369647 -0.12614387 -0.09143646 -0.0035407348
0.0893048 -0.040816475 -0.049508933 0.006835488 -0.016056998 0.020642774 -0.020274684 0.03988557
-0.031411674 0.009183307 0.11800119 -0.107672684 0.041436672 -0.05488731 0.07105144 0.011984957
-0.0055975094 -0.026787005 0.20374595 -0.035921514 -0.21591108 0.09025246 0.037987262 -0.0689283
0.08662499 -0.043094236 0.033013236 -0.04743982 0.026680237 0.025689125 -0.0036330845 0.035472147
-0.0670421 -0.043100346 0.06694922 -0.035257913 0.05188719 -0.035710108 -0.01329347 -0.013299385
-0.020852836 -0.053097427 0.05778508 -0.1516175 0.04927655 0.08820269 -0.09688921 0.07286105
-0.06831216 0.05515827 0.026084052 0.05284214 0.061615948 -0.05251103 0.039096076 0.10394112
0.03906837 -0.047219962 0.006974595 -0.0019513284 -0.0895619 0.011224923 -0.00010541085 -0.019477982
0.021003064 0.06845947 0.097327985 -0.023402655 -0.013416479 0.039778054 0.038828757 -0.11275801
-0.11919231 -0.024501761 -0.0026816216 0.038287785 0.083827205 0.11416895 -0.019201988 -0.010580488
0.1046003 -0.057672735 -0.004576017 0.019081935 -0.10900288 0.021876318 -0.103449106 0.03400903
0.062086597 0.14348087 0.040969785 0.013893978 -0.10534678 0.07184131 0.09842404 -0.10547274
-0.033581454 0.013532466 -0.081965186 0.0075098607 0.04414155 -0.12533328 -0.0044974606 -0.14680982
-0.021071015 0.1188033 0.005530607 -0.09272618 -0.019676456 -0.0590161 -0.017620156 0.09208255
-0.061734553 -0.011137882 0.014722503 0.10383192 0.030401263 -0.064345665 -0.103116386 0.036454227
0.039007217 -0.0817178 0.03906831 -0.11316374 0.12155848 -0.12011391 -0.11739369 0.08210492
0.16912109 -0.05829464 0.07443239 0.056552287 -0.05608083 -0.051231004 0.10531948 -0.072805256
0.17596172 0.0497592 -0.048159134 -0.09596225 -0.061092205 -0.00066522456 0.038973644 -0.05226395
00000000: af97 0c3d efca 09bb 86af a13d e6ce e53c
00000010: cc4c 05be bf29 753d 308e 393d 6b9d e63d
00000020: 2fd9 4d3d 25d8 3c3e 4b71 4d3d 6a81 8ebd
00000030: a65d 9f3d fc67 3ebd ab6a 2a3d 1cee 05be
00000040: 1163 b23c b00e e439 fa34 853d d8fe 4f3d
00000050: 00e5 01be 7ac9 d3bc 0967 e33d 5ccd d2bc
00000060: 69d1 fcbc 8e26 fbbd 1cbd 00bd c0be 9cbd
00000070: 3614 94bc 5d7d 9d3d 6dab b9bd cbfe 423c
00000080: a272 17bd 487c 44bd 2abd 753c d023 43bc
00000090: ab51 9fbd f845 59bd b74a 343d 22c2 773d
000000a0: 4531 e93a 939e 84bd b7cb d03a 20f9 673c
000000b0: ca30 9b3b 0d90 cbbc d4eb a33d 4417 28be
000000c0: 5e07 2ebe c6e9 84bc f12a c9bd 6e45 8d3d
000000d0: f087 e9bd cffa b3bb ae57 e73c 556e f5bd
000000e0: eebe 94bc 27b2 143d 6f52 cebb e3e6 ef3c
000000f0: 8632 80bd d6ac f1bb bc57 51bd 3c15 c93c
00000100: 4faa a63d c425 a4bd ff48 adbd 8878 893d
00000110: cc7a 5ebd d189 26bd cbba c53c b701 0dbe
00000120: 1731 ab3d 61d5 c0bc 93bd 0abe 65bb bd3d
00000130: 6edf dd3c 0045 36bd 9008 39bd 8617 2fbd
00000140: 7b60 a3bc cebf 173e 235b 613d 8d77 a9bb
00000150: e352 efbd 9a81 353d 6a36 1bbe 3ad4 a13d
00000160: 69b1 773b 9173 153e b8d7 46bd 0d27 9dbd
00000170: b659 8d3c 3d52 41be 6126 b1bd 3c48 9abd
00000180: 8a26 233d 5bac 1a3e bd92 8abc 132e e0bc
00000190: 47f4 c4ba b9fa 443d b11d 653d 6e80 e73b
000001a0: 886d 61bd 35ee bbbc 203c 76bd 2655 753d
000001b0: 5e58 463e dc2b 01be 0a43 bbbd ac0b 68bb
000001c0: 6fe5 b63d 2d2f 27bd e1c9 4abd 3bfc df3b
000001d0: f789 83bc 091b a93c 1817 a6bc 0d5f 233d
000001e0: 87a9 00bd 9575 163c 9caa f13d 7f83 dcbd
000001f0: 80b9 293d 84d1 60bd 6b83 913d 8e5c 443c
00000200: 506b b7bb 6c70 dbbc c7a2 503e 7022 13bd
00000210: cb17 5dbe 48d6 b83d 8898 1b3d 482a 8dbd
00000220: 7168 b13d 9583 30bd e338 073d 4250 42bd
00000230: 8390 da3c 0072 d23c 0b19 6ebb 3e4b 113d
00000240: 5e4d 89bd fd89 30bd ac1c 893d 9a6a 10bd
00000250: aa87 543d c344 12bd dbcc 59bc aae5 59bc
00000260: 91d3 aabc b07c 59bd 0cb0 6c3d 9e41 1bbe
00000270: 35d6 493d 9da3 b43d da6d c6bd 2d38 953d
00000280: 3fe7 8bbd a3ed 613d 39ae d53c 0071 583d
00000290: 0161 7c3d ce15 57bd 3523 203d 15df d43d
000002a0: 2806 203d b869 41bd 258b e43b b7c3 ffba
000002b0: 3b6c b7bd bde8 373c 0510 ddb8 4a90 9fbc
000002c0: 9e0e ac3c 7b34 8c3d e553 c73d edb6 bfbc
000002d0: cbd0 5bbc 50ee 223d e70a 1f3d aced e6bd
000002e0: 191b f4bd ebb7 c8bc 25be 2fbb a7d3 1c3d
000002f0: 99ad ab3d 69d1 e93d 7d4d 9dbc c859 2dbc
00000300: af38 d63d 3f3a 6cbd 6af2 95bb b851 9c3c
00000310: e73c dfbd f735 b33c 20dd d3bd 0d4d 0b3d
00000320: 844e 7e3d a6ec 123e efcf 273d 91a3 633c
00000330: 0dc0 d7bd 8921 933d 8b92 c93d 1802 d8bd
00000340: b58c 09bd 47b7 5d3c 5ddd a7bd 4715 f63b
00000350: c5cd 343d 5e57 00be 6f5f 93bb 5055 16be
00000360: 1f9d acbc 254f f33d 183a b53b 39e7 bdbd
00000370: 8530 a1bc deba 71bd 2558 90bc c795 bc3d
00000380: 5fdd 7cbd aa7b 36bc a736 713c d4a5 d43d
00000390: 120c f93c a9c7 83bd af2e d3bd 0751 153d
000003a0: 08c6 1f3d a95b a7bd 1806 203d 64c2 e7bd
000003b0: a7f3 f83d 48fe f5bd 1a6c f0bd a026 a83d
000003c0: 142e 2d3e 5cc6 6ebd 0270 983d 5fa3 673d
000003d0: 03b5 65bd 9ad7 51bd bdb1 d73d ec1a 95bd
000003e0: 4f2f 343e 4ed0 4b3d 8342 45bd db87 c4bd
000003f0: d23b 7abd 7762 2eba d4a2 1f3d b912 56bd

lstm.bias_ih_l0 f4 [512]
-0.2421425 -0.19730003 -0.23596102 -0.17713691 -0.041177683 0.008389019 0.035992827 -0.27047533
0.01680021 -0.07829315 0.10580111 -0.1593966 -0.1731918 -0.06432795 -0.07073625 0.045799267
-0.08283899 0.012460514 -0.015597931 -0.21237971 -0.11059594 -0.15270963 -0.10551516 0.32095158
-0.025686316 -0.052049175 -0.05201288 -0.22682992 -0.2508752 0.061487887 0.014224751 -0.11035185
-0.09041589 0.112206966 -0.07593078 -0.073372155 0.0019125271 0.027592918 -0.17381808 0.083895564
-0.087874934 0.014948137 -0.06704337 -0.12894613 -0.2639133 -0.081123814 -0.059851937 0.026615232
-0.14946637 -0.04082705 0.08273982 0.09906365 -0.10838322 -0.23002964 -0.051817283 -0.21986347
-0.051697895 -0.10998282 -0.08177194 -0.07052231 -0.13269466 -0.012306268 -0.24176835 0.0003909248
0.019347036 -0.05002854 0.21605466 -0.10169069 0.04028847 -0.12766774 -0.12961958 0.069857545
-0.26835814 -0.23587841 0.077055275 -0.13583782 0.048867628 -0.10115777 -0.08694683 0.15095136
-0.060901534 -0.112045005 0.008852981 -0.11409859 -0.14342536 -0.06996603 0.02263412 -0.120650604
0.18557905 0.06986951 0.06480111 -0.12357706 -0.20247914 0.2886904 0.03297258 -0.030200323
-0.14289239 -0.037280437 -0.0032048665 0.20328505 0.039175864 0.18360248 -0.27609998 -0.080280185
-0.030057235 -0.045580037 -0.1306275 0.012525058 -0.06900717 -0.039987206 0.056486927 0.009166939
-0.0501829 -0.32393077 0.13184454 -0.24101023 -0.10068505 -0.056412797 -0.07281985 0.14088336
-0.2452859 -0.017844884 -0.032453295 -0.13494751 -0.27920106 -0.039192144 -0.26493847 -0.063828446
-0.16686282 -0.05783565 -0.057312284 -0.17696735 -0.024155393 -0.10301499 -0.22099188 -0.12150404
-0.034136176 0.14003876 -0.2678046 -0.2751426 -0.17124683 -0.123711236 -0.14603317 -0.10325707
-0.04068655 -0.05932087 -0.017365873 -0.25550956 -0.09021826 -0.13241267 -0.05103249 -0.25552148
-0.0031743771 -0.046718873 0.090693414 -0.23388559 -0.2449567 -0.146278 -0.15842253 -0.1644761
-0.114231914 -0.30863973 -0.07142505 -0.1875066 -0.03864109 -0.07229196 -0.12759823 -0.27996716
-0.029008921 0.053921986 -0.14232944 -0.16965327 -0.27641883 -0.06442823 0.0018875262 -0.037215345
-0.11042163 -0.067957245 -0.2178546 -0.11599915 -0.0696948 -0.15983176 -0.20722526 -0.15186265
-0.09105156 0.064583674 -0.10675428 -0.22251451 -0.097977705 -0.1956702 -0.2559326 -0.15205278
-0.11830844 -0.0876975 -0.2762917 -0.10336614 -0.03272399 0.049449675 -0.13471806 -0.17878479
-0.19978705 -0.29980114 -0.3329955 -0.00849357 -0.23538822 -0.15190075 -0.07075612 -0.18605666
-0.058849495 -0.087373756 -0.091075905 -0.032749325 -0.09687643 -0.040342454 -0.004579074 -0.12141274
-0.14577197 -0.19133405 -0.34939557 0.0071486835 -0.1989073 -0.20887916 -0.097897954 -0.025560137
-0.0747342 -0.10763163 0.07943913 -0.050404273 -0.030540615 -0.13359529 -0.23444244 -0.10518035
-0.094521 -0.039878085 -0.055590667 -0.048160676 -0.192431 -0.12164046 -0.2207477 -0.20569688
-0.17117941 -0.24427691 -0.34122658 -0.07714239 -0.068667576 -0.22021316 0.060825225 -0.2071314
-0.17132759 -0.050129056 -0.203612 -0.023643889 -0.07738994 -0.16228917 -0.14450401 -0.16751237
00000000: 34f4 77be 0509 4abe c49f 71be 6163 35be
00000010: eea9 28bd 1972 093c 376d 133d be7b 8abe
00000020: 98a0 893c 2958 a0bd 41ae d83d dd38 23be
00000030: 3159 31be 5fbe 83bd 2bde 90bd 0398 3b3d
00000040: 7da7 a9bd 2f27 4c3c 778e 7fbc 117a 59be
00000050: 2080 e2bd ea5f 1cbe 5518 d8bd c453 a43e
00000060: 1c6c d2bc 8431 55bd 750b 55bd 1a46 68be
00000070: b772 80be b9da 7b3d ee0e 693c 2700 e2bd
00000080: f72b b9bd c4cc e53d 9981 9bbd 2444 96bd
00000090: c3ad fa3a 8b0a e23c 5efd 31be 70d1 ab3d
000000a0: c6f7 b3bd 08e9 743c 094e 89bd 740a 04be
000000b0: a51f 87be 3e24 a6bd 4e27 75bd 3008 da3c
000000c0: b60d 19be 443a 27bd 7f73 a93d e2e1 ca3d
000000d0: 06f8 ddbd e48c 6bbe 5c3e 54bd e423 61be
000000e0: 2cc1 53bd ac3e e1bd 0c78 a7bd 006e 90bd
000000f0: 1ce1 07be 3ba0 49bc 1f92 77be 0af5 cc39
00000100: ad7d 9e3c baea 4cbd 6f3d 5d3e 3543 d0bd
00000110: 8605 253d 55bb 02be ffba 04be 7911 8f3d
00000120: 3d66 89be 1c8a 71be 28cf 9d3d 1219 0bbe
00000130: 6c29 483d ce2b cfbd 2e11 b2bd fe92 1a3e
00000140: e373 79bd da77 e5bd 180c 113c 86ac e9bd
00000150: 19de 12be 5a4a 8fbd 316b b93c aa17 f7bd
00000160: 6f08 3e3e bf17 8f3d 72b6 843d f815 fdbd
00000170: b156 4fbe 3acf 933e 420e 073d ab66 f7bc
00000180: 6252 12be 5fb3 18bd bd08 52bb f529 503e
00000190: df76 203d 4a02 3c3e fa5c 8dbe f069 a4bd
000001a0: 973a f6bc 22b2 3abd 37c3 05be e735 4d3c
000001b0: a253 8dbd a0c9 23bd d65e 673d ee30 163c
000001c0: 968c 4dbd 41da a5be 4102 073e 63cb 76be
000001d0: f733 cebd 1b11 67bd 9322 95bd ba43 103e
000001e0: 3a2c 7bbe 6f2f 92bc bfed 04bd ae2f 0abe
000001f0: 71f3 8ebe f187 20bd 04a6 87be 7db8 82bd
00000200: 16de 2abe 13e5 6cbd 49c0 6abd ee36 35be
00000210: 88e1 c5bc 86f9 d2bd b24b 62be 1cd7 f8bd
00000220: 60d2 0bbd 5266 0f3e af1d 89be 7edf 8cbe
00000230: 545b 2fbe 515c fdbd b889 15be 7178 d3bd
00000240: f1a6 26bd 71fa 72bd e042 8ebc 26d2 82be
00000250: 5ac4 b8bd 3097 07be 7207 51bd b6d3 82be
00000260: 3609 50bb 4a5c 3fbd 78bd b93d b47f 6fbe
00000270: eed5 7abe e6c9 15be 8439 22be 6c6c 28be
00000280: 6cf2 e9bd 0706 9ebe 4c47 92bd bb01 40be
00000290: 1f46 1ebd cf0d 94bd 1ca9 02be db57 8fbe
000002a0: 1ea4 edbc 4ddd 5c3d cfbe 11be 96b9 2dbe
000002b0: c586 8dbe f3f2 83bd df66 f73a 1e6f 18bd
000002c0: bc24 e2bd 2b2d 8bbd 4715 5fbe f690 edbd
000002d0: 26bc 8ebd f0aa 23be dc32 54be e281 1bbe
000002e0: 3e79 babd 7244 843d fda1 dabd d8da 63be
000002f0: 89a8 c8bd c55d 48be 9909 83be b9b3 1bbe
00000300: b24b f2bd bf9a b3bd 1b76 8dbe a0b1 d3bd
00000310: 9709 06bd be8b 4a3d 88f3 09be 5c13 37be
00000320: fa94 4cbe 897f 99be 637e aabe 9d28 0bbc
00000330: 9c09 71be df8b 1bbe 96e8 90bd a385 3ebe
00000340: 2b0c 71bd 03f1 b2bd 0186 babd 2824 06bd
00000350: 2667 c6bd 213e 25bd 0f0c 96bb 3ea7 f8bd
00000360: 3f45 15be 13ed 43be fae3 b2be 813f ea3b
00000370: 5bae 4bbe 6be4 55be b97e c8bd 7e63 d1bc
00000380: 3f0e 99bd f96d dcbd fcb0 a23d b674 4ebd
00000390: 5030 fabc 34cd 08be ae11 70be cc68 d7bd
000003a0: 3a94 c1bd 3457 23bd 0ab3 63bd 2144 45bd
000003b0: a20c 45be a21e f9bd af0b 62be 34a2 52be
000003c0: a849 2fbe ba23 7abe 40b5 aebe d4fc 9dbd
000003d0: 96a1 8cbd 8f7f 61be df23 793d 411a 54be
000003e0: 8070 2fbe 2054 4dbd aa7f 50be d4b0 c1bc
000003f0: 9e7e 9ebd 222f 26be dcf8 13be 5d88 2bbe

lstm.bias_hh_l0 f4 [512]
-0.21596432 -0.19528455 -0.12517616 -0.17552379 -0.12799697 0.056648236 0.09938124 -0.15359384
-0.06780265 -0.017104788 0.08113781 -0.09812334 -0.16104794 -0.028345598 -0.19887443 0.14512162
-0.013996785 -0.12343071 -0.08773371 -0.17737065 0.023107892 -0.0068664025 0.002845187 0.37823525
-0.117438324 -0.042301945 -0.003962825 -0.12712699 -0.28610376 0.08261506 0.017282195 -0.052289907
0.008922691 0.11556769 -0.016917434 -0.20203863 0.0012851025 0.017842688 -0.10768092 -0.032679997
-0.036972776 -0.04715281 -0.14091292 -0.01877104 -0.26184192 -0.1153496 -0.12725124 0.089004554
-0.091129035 0.008596356 0.07673923 0.021392876 -0.21678522 -0.21936536 -0.024974259 -0.21974248
-0.008091837 -0.010265986 0.000713815 -0.1950731 -0.15390748 0.090139925 -0.14623198 -0.08061785
-0.07764006 -0.024993809 0.13314389 0.019730989 0.1850574 -0.1344453 -0.048921805 -0.059704486
-0.24649362 -0.25483894 -0.015449677 -0.006735326 0.05716659 -0.04398252 -0.15817256 0.23704
-0.13207662 -0.15242988 -0.007956702 -0.010880255 -0.052407287 -0.008693178 -0.035763215 -0.024810275
0.2547062 0.029900692 0.020236598 -0.1531966 -0.122858465 0.40126425 0.006526868 -0.017155586
-0.04114145 -0.14609177 -0.013772369 0.16018336 -0.1142646 0.18399975 -0.26341334 -0.13409692
-0.10061584 -0.050523587 -0.15834951 -0.0837073 0.007912577 -0.04871858 -0.05305718 -0.006172308
-0.022276383 -0.32816336 0.1406481 -0.280314 0.01631058 -0.09093123 0.0131884115 0.14390136
-0.10129023 -0.15344176 -0.1015023 -0.074310556 -0.28560585 0.0172976 -0.22205676 -0.22753832
-0.071334824 -0.17918605 -0.104837574 -0.16003987 -0.13195369 -0.092797585 -0.23283225 -0.23847406
-0.045991227 0.14804879 -0.2616918 -0.21764722 -0.2313576 -0.043778837 -0.25547472 -0.25980356
0.02939979 -0.054119892 -0.010801862 -0.2879887 -0.070998244 -0.13599071 -0.045167554 -0.19725649
0.04840013 -0.088334054 -0.032405943 -0.16848975 -0.08920132 -0.2223433 -0.083308354 -0.21637225
-0.05027973 -0.23546597 -0.024960991 -0.035366084 -0.10460259 -0.070735276 -0.17377177 -0.27712813
-0.09202121 -0.017307537 -0.004347397 -0.11543521 -0.31348088 0.079821356 0.018475337 -0.13295308
-0.21900351 -0.021905832 -0.17441513 -0.16465047 -0.081745185 -0.3074331 -0.16988249 -0.2133775
-0.01683322 -0.01145736 -0.13792944 -0.21670114 -0.14583893 -0.29504797 -0.20242292 -0.0165989
-0.14646797 -0.17834355 -0.22645052 -0.056391086 -0.20591359 -0.11295604 -0.028241016 -0.106495805
-0.17496283 -0.28140545 -0.28806856 0.03799546 -0.13661602 -0.11419983 -0.17868795 -0.16025527
-0.13007078 -0.20523341 0.011640733 -0.08073729 -0.02346381 -0.17519894 0.005788396 -0.21260047
-0.22620636 -0.23300754 -0.26207858 -0.09729853 -0.20874871 -0.33485615 -0.13239585 -0.0007302374
-0.07597681 -0.029921094 0.029383065 -0.022096312 -0.08542928 -0.2235727 -0.15085897 -0.083203025
-0.029272763 -0.14040919 -0.050652005 -0.054645076 -0.16322735 -0.019427575 -0.074196845 -0.21508098
-0.068451256 -0.2163162 -0.20982306 -0.10479609 -0.0833246 -0.13580833 -0.0982228 -0.10807287
-0.19872065 -0.12489204 -0.12816454 -0.17724352 -0.12736169 -0.19776422 -0.0916883 -0.20927212
00000000: c025 5dbe acf8 47be 2e2e 00be 82bc 33be
00000010: a311 03be fb07 683d 6488 cb3d b447 1dbe
00000020: 1edc 8abd 571f 8cbc 952b a63d e4f4 c8bd
00000030: c0e9 24be 0735 e8bc bda5 4bbe c39a 143e
00000040: c552 65bc 3dc9 fcbd bbad b3bd a7a0 35be
00000050: c34c bd3c 8fff e0bb 5176 3a3b 0da8 c13e
00000060: 8183 f0bd ce44 2dbd 96da 81bb 942d 02be
00000070: 317c 92be 1632 a93d 6493 8d3c f12d 56bd
00000080: 7b30 123c c1ae ec3d 6e96 8abc 37e3 4ebe
00000090: e270 a83a d42a 923c d087 dcbd 76db 05bd
000000a0: c470 17bd 4e23 41bd 7a4b 10be b9c5 99bc
000000b0: 2510 86be 693c ecbd 264e 02be 0548 b63d
000000c0: dca1 babd bbd7 0c3c 7529 9d3d 1d40 af3c
000000d0: f2fc 5dbe 50a1 60be d196 ccbc 2c04 61be
000000e0: a093 04bc ab32 28bc 501f 3b3a 3ec1 47be
000000f0: ec99 1dbe 489b b83d d6bd 15be f91a a5bd
00000100: c001 9fbd d1bf ccbc df56 083e e2a2 a13c
00000110: b07f 3d3e 07ac 09be 3b62 48bd b18c 74bd
00000120: d368 7cbe 407a 82be a420 7dbc 02b4 dcbb
00000130: 8427 6a3d 0427 34bd fdf7 21be 9dba 723e
00000140: 183f 07be 9416 1cbe d45c 02bc 1943 32bc
00000150: 06a9 56bd d56d 0ebc 737c 12bd eb3e cbbc
00000160: da68 823e 4cf2 f43c 39c7 a53c 92df 1cbe
00000170: 389d fbbd 8272 cd3e 56df d53b df89 8cbc
00000180: f083 28bd 1599 15be 81a5 61bc 1b07 243e
00000190: 8f03 eabd 6e6a 3c3e 1dde 86be b450 09be
000001a0: ad0f cebd d2f1 4ebd 6026 22be bc6e abbd
000001b0: c1a3 013c 228d 47bd 7c52 59bd 1341 cabb
000001c0: f67c b6bc 0705 a8be 0e06 103e 5185 8fbe
000001d0: c49d 853c 273a babd 3514 583c e15a 133e
000001e0: 4171 cfbd d61f 1dbe 70e0 cfbd 2230 98bd
000001f0: ee3a 92be b2b3 8d3c d962 63be ceff 68be
00000200: fe17 92bd 8c7c 37be 15b5 d6bd 7ee1 23be
00000210: de1e 07be a90c bebd 946b 6ebe 8b32 74be
00000220: 4c61 3cbd 1a9a 173e 78fc 85be eade 5ebe
00000230: 02e9 6cbe 7051 33bd 95cd 82be f904 85be
00000240: d4d7 f03c d2ac 5dbd 4bfa 30bc 4173 93be
00000250: 8767 91bd 2641 0bbe 9d01 39bd 9bfd 49be
00000260: 373f 463d 7ce8 b4bd 18bc 04bd 9488 2cbe
00000270: 2faf b6bd f6ad 63be 929d aabd b090 5dbe
00000280: 1ef2 4dbd fe1d 71be fe7a ccbc 07dc 10bd
00000290: e239 d6bd a8dd 90bd 3af1 31be bde3 8dbe
000002a0: 9e75 bcbd 89c8 8dbc 9c74 8ebb 4c69 ecbd
000002b0: 9180 a0be 6179 a33d 9759 973c da24 08be
000002c0: 7542 60be dc73 b3bc e199 32be 229a 28be
000002d0: 056a a7bd df67 9dbe adf5 2dbe a27f 5abe
000002e0: d2e5 89bc a7b7 3bbc 603d 0dbe e7e6 5dbe
000002f0: cd56 15be 8710 97be f447 4fbe 6bfa 87bc
00000300: b3fb 15be b19f 36be a5e2 67be 57fa 66bd
00000310: 03db 52be 7f55 e7bd b459 e7bc 791a dabd
00000320: 7529 33be 6014 90be b97d 93be 21a1 1b3d
00000330: 12e5 0bbe 9ae1 e9bd f9f9 36be f519 24be
00000340: 4631 05be b528 52be c6b8 3e3c 9859 a5bd
00000350: 2d37 c0bc 5a67 33be 96ac bd3b f0b3 59be
00000360: a4a2 67be 8799 6ebe 2a2f 86be 7444 c7bd
00000370: 39c2 55be 4472 abbe c792 07be 676d 3fba
00000380: bb99 9bbd 151d f5bc c1b4 f03c 5303 b5bc
00000390: 8cf5 aebd 3ef0 64be c67a 1abe 5966 aabd
000003a0: 6fcd efbc 6dc7 0fbe 7a78 4fbd 84d3 5fbd
000003b0: 1225 27be 9426 9fbc 84f4 97bd 303e 5cbe
000003c0: 2c30 8cbd fe81 5dbe dbdb 56be 559f d6bd
000003d0: 16a6 aabd 5711 0bbe 0929 c9bd 4f55 ddbd
000003e0: 6d7d 4bbe 66c7 ffbd 913d 03be 537f 35be
000003f0: 1a6b 02be b482 4abe 13c7 bbbd 6e4b 56be

lstm.weight_ih_l1 f4 [512, 128]
0.14797232 0.03700594 0.09781607 0.03216414 0.04561248 -0.076964214 0.11639767 0.071159124
-0.07039638 -0.005283581 -0.11402277 0.030417103 0.1925333 -0.03175862 -0.043893516 -0.013832094
0.009078455 -0.07673103 0.021238593 -0.043228973 -0.086081415 0.0041309656 0.052158326 -0.1688016
0.061843637 0.06564099 -0.092525885 0.14732544 0.15159112 0.061997693 0.027984064 0.0071779448
-0.05472532 -0.008085375 -0.076803654 -0.09765523 0.11240227 0.010223199 -0.040321507 -0.030965386
-0.05157183 -0.010116986 -0.025115725 0.041892204 -0.086744815 0.019467652 -0.013305467 0.10739321
-0.024842381 0.07260768 0.14118713 -0.011077678 0.13519894 0.1250379 -0.03675117 0.0024788035
-0.029957026 -0.035666484 0.07242477 0.020747941 -0.04460945 0.032926105 0.032812532 0.015331121
0.04883296 0.01865656 0.045939784 -0.09040627 0.041304335 0.09112265 0.033094216 -0.05326539
-0.039530337 0.04215934 -0.049457457 -0.06751401 0.01651795 0.044562966 -0.109869525 0.031828433
-0.09632525 -0.01992573 0.010121701 -0.06870264 -0.12655742 0.07258789 0.0541933 -0.06769132
-0.08602193 0.0057754684 -0.0964301 0.0073131076 0.13793427 -0.0037537455 0.069474146 -0.009797099
0.02299457 0.013565886 -0.033659782 -0.06743734 0.026069203 -0.015374267 0.022925975 -0.04402505
-0.077597484 -0.07139227 0.020281976 -0.087006465 -0.07877484 0.05675252 0.09905042 -0.10445431
0.12673919 0.1505209 -0.10320858 0.05174666 -0.19898029 0.13528275 0.07895575 0.05941074
0.042434912 -0.04062131 -0.08495935 0.06205374 -0.04437474 0.17170021 0.08563228 0.010485242
0.10244003 -0.13371934 0.00083288073 0.080352835 -0.031481445 -0.04946941 -0.03964021 -0.025897466
0.09578643 -0.009053829 0.041138615 0.066153735 -0.096191205 -0.07979026 -0.12660187 -0.059243403
-0.17055778 0.056679044 0.13123277 0.008939908 -0.13063468 0.09343408 0.13233964 -0.010466776
0.03035676 -0.1734663 0.040304035 0.019307924 0.11189359 0.022654658 0.024049364 -0.003852817
0.013143046 0.18040536 -0.0016031888 0.10891342 -0.07506733 0.19096176 0.025075335 0.035456475
0.1304077 -0.0919231 -0.15303524 0.0084563 0.012987097 -0.05562237 -0.042278998 0.05565195
-0.005428358 0.024374075 0.1142056 0.04118456 0.036622893 0.15356945 -0.028541343 0.096632935
0.006138006 -0.07656419 0.01086946 -0.015011721 -0.06303335 0.16847372 -0.043372184 -0.079333164
-0.042179454 0.03257814 0.07643417 0.059461933 0.035081174 0.05172227 0.060703117 -0.15151885
-0.14982602 0.049969967 -0.09403741 0.022805844 0.07848405 0.03351881 -0.051350173 0.0033667553
-0.12851113 0.16030891 0.07403899 0.09797052 -0.046635326 -0.013518481 0.0351562 -0.07663226
-0.057347342 0.11213644 -0.043680415 0.078962445 0.0478724 -0.02998734 -0.054031752 0.062463507
-0.021141043 0.07351036 0.06723104 0.011092484 -0.06952398 -0.09463281 0.0339191 -0.030830909
0.12829493 -0.15003936 -0.06780495 -0.008400452 0.029362278 -0.044918038 -0.09930788 -0.10489109
0.05584877 0.019864248 0.11206013 0.004743881 -0.0919283 0.03786148 -0.022451244 -0.02820695
0.0614385 -0.09514038 0.105970815 0.014670262 -0.03222498 0.041093104 0.04248137 -0.08477512
00000000: 0e86 173e 8a93 173d cb53 c83d 8cbe 033d
00000010: 27d4 3a3d 6a9f 9dbd e761 ee3d e0bb 913d
00000020: fa2b 90bd e421 adbb c584 e9bd 4a2d f93c
00000030: 7327 453e 5415 02bd b0c9 33bd 02a0 62bc
00000040: cdbd 143c 2925 9dbd 8ffc ad3c dd10 31bd
00000050: 744b b0bd 0d5d 873b f8a3 553d 54da 2cbe
00000060: c14f 7d3d c96e 863d 367e bdbd 7bdc 163e
00000070: b43a 1b3e 4bf1 7d3d d63e e53c f734 eb3b
00000080: a827 60bd 8578 04bc 3c4b 9dbd 77ff c7bd
00000090: 2933 e63d 347f 273c 2a28 25bd 1fab fdbc
000000a0: fc3c 53bd b7c1 25bc 7ebf cdbc 2997 2b3d
000000b0: 44a7 b1bd a07a 9f3c 2cff 59bc f9f0 db3d
000000c0: 4082 cbbc 56b3 943d 5c93 103e 267f 35bc
000000d0: 9771 0a3e ef09 003e 6588 16bd 6c73 223b
000000e0: 7068 f5bc 0517 12bd 7053 943d 96f7 a93c
000000f0: 66b8 36bd 86dd 063d 6f66 063d 622f 7b3c
00000100: 1205 483d a4d5 983c 5b2b 3c3d ec26 b9bd
00000110: bc2e 293d 839e ba3d cd8d 073d cf2c 5abd
00000120: 90ea 21bd 46af 2c3d e793 4abd c944 8abd
00000130: a750 873c a887 363d 4603 e1bd 885e 023d
00000140: 2c46 c5bd 493b a3bc 7ed5 253c f8b3 8cbd
00000150: 4598 01be f6a8 943d cbf9 5d3d bfa1 8abd
00000160: 442c b0bd 2440 bd3b 257d c5bd cba2 ef3b
00000170: a43e 0d3e 6601 76bb 7648 8e3d 0384 20bc
00000180: 1c5f bc3c 7343 5e3c d7de 09bd 971c 8abd
00000190: 158f d53c 59e4 7bbc 41cf bb3c 9c53 34bd
000001a0: 6eeb 9ebd 1c36 92bd 6326 a63c 7230 b2bd
000001b0: b454 a1bd 5575 683d f2da ca3d 24ec d5bd
000001c0: ebc7 013e 2722 1a3e 055f d3bd 4ef4 533d
000001d0: 7dc1 4bbe 9087 0a3e 8db3 a13d ad58 733d
000001e0: 3bd0 2d3d 8862 26bd 2bff adbd 102c 7e3d
000001f0: 4ac2 35bd 2ed2 2f3e fa5f af3d 4bca 2b3c
00000200: 14cc d13d b9ed 08be ae55 5a3a 0790 a43d
00000210: b0f2 00bd 70a0 4abd c65d 22bd ec26 d4bc
00000220: ad2b c43d 8356 14bc f780 283d 9c7b 873d
00000230: e5ff c4bd 1369 a3bd eca3 01be 36a9 72bd
00000240: b3a6 2ebe 4928 683d e261 063e b178 123c
00000250: 19c5 05be 5e5a bf3d 0b84 073e d77c 2bbc
00000260: bdae f83c 26a1 31be d815 253d a72b 9e3c
00000270: 7728 e53d 4396 b93c 2c03 c53c 8b7f 7cbb
00000280: ee55 573c 2fbc 383e 1722 d2ba 000e df3d
00000290: e6bc 99bd 7b8b 433e ca6a cd3c cf3a 113d
000002a0: 9989 053e 2e42 bcbd 45b5 1cbe 4b8c 0a3c
000002b0: d5c7 543c 48d4 63bd be2c 2dbd 4df3 633d
000002c0: 5ee0 b1bb 24ac c73c a0e4 e93d 24b1 283d
000002d0: e301 163d 4f41 1d3e 89cf e9bc 7de7 c53d
000002e0: 5421 c93b b0cd 9cbd d215 323c b9f3 75bc
000002f0: a117 81bd 6084 2c3e 08a7 31bd 6d79 a2bd
00000300: 5dc4 2cbd a870 053d 8589 9c3d 5b8e 733d
00000310: 47b1 0f3d bbda 533d d5a3 783d c227 1bbe
00000320: fe6b 19be 4fad 4c3d b096 c0bd 52d3 ba3c
00000330: 3fbc a03d 054b 093d 8f54 52bd c8a4 5c3b
00000340: 6c98 03be 0528 243e c1a1 973d c5a4 c83d
00000350: af04 3fbd 9e7c 5dbc f3ff 0f3d 60f1 9cbd
00000360: 0ce5 6abd caa7 e53d 3cea 32bd 10b7 a13d
00000370: da15 443d 03a8 f5bc 6650 5dbd bcd9 7f3d
00000380: fb2f adbc 9a8c 963d 6db0 893d 40bd 353c
00000390: 9762 8ebd d9ce c1bd c1ee 0a3d 1a91 fcbc
000003a0: bf5f 033e eba3 19be 52dd 8abd 0da2 09bc
000003b0: 2989 f03c fafb 37bd ee61 cbbd 24d1 d6bd
000003c0: aec1 643d 59ba a23c c87f e53d 8f72 9b3b
000003d0: e844 bcbd a414 1b3d aceb b7bc 4312 e7bc
000003e0: f0a6 7b3d f6d8 c2bd 3a07 d93d 8a5b 703c
000003f0: 57fe 03bd 3e51 283d f200 2e3d 949e adbd

lstm.weight_hh_l1 f4 [512, 128]
-0.06341546 -0.03856142 -0.08128161 -0.13006224 0.01736966 -0.1320745 -0.08318215 -0.08388152
-0.03115066 -0.09151808 0.11325244 0.059613016 0.09280597 -0.019829368 0.05894176 -0.030492501
0.012946323 0.08706589 0.057748705 0.09361327 -0.025371443 -0.090785444 -0.04800415 0.029995857
-0.0892548 0.049349755 0.04696899 -0.04912469 0.092402756 0.008552618 0.018851101 0.099842414
-0.06737384 0.03847625 0.035926007 -0.057094596 0.06589438 0.1670439 -0.040681764 0.005514661
0.033055123 0.013620055 0.01893702 0.04080319 0.036960825 0.032753125 0.17459273 0.070868075
0.0038402325 0.0782276 -0.035109438 -0.03699786 -0.04627513 -0.055258054 0.11681746 -0.13065651
-0.079267666 -0.012239362 -0.12261258 0.12868918 0.059887387 0.055581037 -0.074242406 0.033650596
-0.13517801 -0.06473976 0.062264636 0.058241073 0.06654242 -0.024273442 -0.0046602087 -0.106331214
-0.015678486 -0.037887733 0.040870495 -0.10385261 -0.11564753 0.05021312 0.076404914 0.026926102
-0.055903513 -0.002040727 -0.08023274 -0.08413804 0.033790853 0.0071804496 -0.092922166 0.13583964
-0.05236247 0.0769855 0.057216577 0.091882505 0.026570925 0.070903555 0.026672693 0.08602558
-0.08168355 -0.08947178 -0.005065022 -0.017990218 0.0011656934 -0.012490872 -0.032341518 0.0687871
0.010973915 0.024167225 0.015416284 -0.01440438 -0.16089344 -0.03430006 -0.19601226 0.04880484
-0.06803887 -0.03930292 0.017038358 0.045934826 0.027466077 0.11114049 0.07412085 -0.056468412
-0.11606134 0.07363531 -0.0011476462 0.21625587 -0.010819496 0.06652465 -0.03848844 0.038617294
-0.015097082 -0.004178459 -0.117659286 0.033586938 -0.105345234 -0.0041905153 0.07618616 -0.030878225
0.119097486 -0.052768163 0.13337658 -0.038556263 -0.030780254 -0.019137478 0.118695214 -0.10652336
-0.08912617 0.09784371 0.051686317 0.06237846 -0.07141645 -0.16966684 -0.008186796 0.08290607
-0.17356269 -0.17776348 -0.12150093 0.053923637 0.094394766 0.048040602 0.18288207 0.005388859
0.05441574 0.036829036 -0.054933213 -0.028666815 0.17102107 0.12082271 -0.16201726 0.17013387
0.12159123 0.111846 0.031377994 0.03209059 -0.08184488 -0.02729029 0.106042966 0.047933944
-0.104867905 -0.012881234 -0.07085075 0.061302103 0.004382575 -0.1081693 -0.0013767978 -0.11965305
-0.023620516 -0.07478246 -0.16759156 0.14854631 0.13179177 0.07058821 -0.14529854 -0.07808938
-0.038040984 -0.08344748 0.115898065 -0.040505793 0.19754104 0.07409134 0.09571811 0.0064908
-0.0064689163 -0.038199585 -0.057789285 -0.0023435913 -0.05043424 -0.10281214 0.121216215 0.022687547
0.056793302 0.05072426 -0.056750942 -0.028685214 0.028587736 0.054572858 -0.0978734 0.05751268
-0.071263835 0.02469086 0.033034496 0.09593783 0.025971144 -0.021496776 0.16486633 0.16201234
0.014920447 -0.032930773 -0.0003764243 -0.025490291 -0.028434807 -0.028737362 -0.11362299 0.19566683
-0.0657941 0.03885985 0.046175357 0.029392308 -0.09797169 -0.039918065 -0.13504282 0.063203804
0.009391349 -0.13952012 0.08221775 0.0396548 0.0013608749 0.10336592 0.0033516595 -0.077979304
0.04189248 0.02901284 -0.046379764 0.05630861 0.11077726 0.1513258 -0.078890316 -0.02297554
00000000: f7df 81bd 94f2 1dbd f976 a6bd 092f 05be
00000010: d14a 8e3c 8a3e 07be 675b aabd 13ca abbd
00000020: ab2f ffbc d56d bbbd e5f0 e73d c72c 743d
00000030: 0e11 be3d 3371 a2bc ea6c 713d 69cb f9bc
00000040: d01c 543c 9a4f b23d e889 6c3d 50b8 bf3d
00000050: c6d7 cfbc b8ed b9bd 00a0 44bd dfb9 f53c
00000060: 38cb b6bd f822 4a3d 8e62 403d f936 49bd
00000070: a83d bd3d 4820 0c3c a06d 9a3c 2e7a cc3d
00000080: 4cfb 89bd 4699 1d3d 2627 133d 06dc 69bd
00000090: a2f3 863d 8e0d 2b3e eca1 26bd 54b4 b43b
000000a0: cf64 073d a726 5f3c cf21 9b3c 3f21 273d
000000b0: 3c64 173d 2428 063d 70c8 323e 4823 913d
000000c0: 69ac 7b3b cb35 a03d eace 0fbd 118b 17bd
000000d0: fe8a 3dbd 4556 62bd fe3d ef3d d2ca 05be
000000e0: 1657 a2bd 9b87 48bc 4e1c fbbd 19c7 033e
000000f0: 7a4c 753d f1a8 633d 670c 98bd 35d5 093d
00000100: 1b6c 0abe 4796 84bd 3409 7f3d 318e 6e3d
00000110: 6447 883d 19d9 c6bc aab4 98bb 2ec4 d9bd
00000120: 2b70 80bc 2b30 1bbd d267 273d adb0 d4bd
00000130: 9dd8 ecbd 46ac 4d3d 2e7a 9c3d 2194 dc3c
00000140: 15fb 64bd b8bd 05bb 1051 a4bd 9150 acbd
00000150: 4768 0a3d fa49 eb3b fa4d bebd 8c19 0b3e
00000160: 087a 56bd 93aa 9d3d ee5b 6a3d e52c bc3d
00000170: 45ab d93c e235 913d b180 da3c 2e2e b03d
00000180: b449 a7bd fb3c b7bd 7cf8 a5bb 3960 93bc
00000190: 2eca 983a 84a6 4cbc 8a78 04bd 40e0 8c3d
000001a0: f0cb 333c 58fa c53c 9594 7c3c 5900 6cbc
000001b0: 40c1 24be 387e 0cbd 70b7 48be 95e7 473d
000001c0: f757 8bbd 19fc 20bd 0794 8b3c 2826 3c3d
000001d0: 8a00 e13c a09d e33d accc 973d 6c4b 67bd
000001e0: 91b1 edbd 1cce 963d 9e6c 96ba 2e72 5d3e
000001f0: 4144 31bc 133e 883d 0ea6 1dbd 2b2d 1e3d
00000200: c059 77bc 74eb 88bb 5af7 f0bd 7592 093d
00000210: 3ebf d7bd 9750 89bb 7d07 9c3d 55f4 fcbc
00000220: 62e9 f33d 6e23 58bd df93 083e 2ced 1dbd
00000230: df26 fcbc 33c6 9cbc 7a16 f33d eb28 dabd
00000240: c887 b6bd 4862 c83d 08b5 533d 8e80 7f3d
00000250: ca42 92bd 25bd 2dbe e921 06bc a8ca a93d
00000260: 6bba 31be a107 36be 7bd5 f8bd 08df 5c3d
00000270: 0b52 c13d 39c6 443d 7045 3b3e 0795 b03b
00000280: 0ae3 5e3d 0bda 163d a601 61bd abd6 eabc
00000290: 2620 2f3e e671 f73d dae7 25be 9337 2e3e
000002a0: d304 f93d 840f e53d 3686 003d 6c71 033d
000002b0: 4a9e a7bd e38f dfbc 0e2d d93d 6256 443d
000002c0: fcc4 d6bd d00b 53bc 331a 91bd ea17 7b3d
000002d0: b49b 8f3b de87 ddbd ab75 b4ba a90c f5bd
000002e0: d07f c1bc 8c27 99bd 1f9d 2bbe 861c 183e
000002f0: 6cf4 063e 8d90 903d 24c9 14be 53ed 9fbd
00000300: ddd0 1bbd 83e6 aabd f75b ed3d 67e9 25bd
00000310: 3348 4a3e 33bd 973d db07 c43d c7b0 d43b
00000320: 34f9 d3bb 2b77 1cbd 75b4 6cbd f096 19bb
00000330: 2294 4ebd 2c8f d2bd 3540 f83d 3cdb b93c
00000340: 18a0 683d 3ec4 4f3d ad73 68bd 41fd eabc
00000350: d430 ea3c ca87 5f3d d971 c8bd 6a92 6b3d
00000360: c6f2 91bd 7d44 ca3c 2e4f 073d 0e7b c43d
00000370: 70c1 d43c 021a b0bc b8d2 283e 90e6 253e
00000380: e474 743c 6be2 06bd d05a c5b9 04d1 d0bc
00000390: 1df0 e8bc 9e6a ebbc 2cb3 e8bd e35c 483e
000003a0: 0fbf 86bd 822b 1f3d 5f22 3d3d 23c8 f03c
000003b0: 62a5 c8bd 2081 23bd aa48 0abe ff70 813d
000003c0: 2cde 193c 5dde 0ebe c861 a83d 126d 223d
000003d0: 625f b23a 83b1 d33d 84a7 5b3b 9db3 9fbd
000003e0: 7397 2b3d 56ac ed3c b5f8 3dbd dba3 663d
000003f0: 30df e23d 27f5 1a3e 3f91 a1bd 3337 bcbc

lstm.bias_ih_l1 f4 [512]
-0.10952294 -0.14268658 -0.035698235 -0.14756034 -0.10938618 0.0150323 0.03829115 -0.16703369
-0.016076183 -0.100045525 -0.070102274 -0.20694862 -0.15936202 -0.05204623 -0.10791813 0.024360705
-0.06943042 0.0028305473 -0.15093811 0.018368723 -0.12156288 -0.12171041 -0.04930001 -0.0027828717
0.009973045 -0.12482837 -0.027036859 -0.051025905 -0.05494192 -0.11904909 0.016538717 -0.07344411
0.12623684 -0.051991697 -0.029176267 -0.11775919 -0.049691517 -0.0670999 -0.16122414 -0.08065682
-0.0030303241 0.07302161 -0.06067391 -0.06508715 -0.15064771 0.022964142 0.049814753 -0.046546027
-0.08249846 -0.04063011 0.021005625 -0.009809167 -0.10233284 -0.151581 -0.11991801 -0.16925707
-0.15998909 -0.0939514 -0.10965237 0.0042229 0.015034374 0.06177116 -0.017233755 -0.13942313
-0.11704641 -0.13973738 -0.058611266 -0.13831137 0.030285038 -0.24302523 -0.105529144 -0.07482372
-0.21770598 -0.086941436 -0.046166323 -0.069257855 -0.100227095 0.04035682 -0.103136204 -0.03613452
-0.01587501 -0.024727734 -0.005870553 -0.07424373 0.03063268 -0.014956361 0.034925405 -0.016313188
-0.1634611 0.026389036 -0.031830706 -0.07025849 -0.21861367 -0.025485685 0.010854904 -0.082288004
-0.09294532 -0.106070705 0.05384021 0.0964847 -0.2121153 -0.15935777 -0.031879857 -0.04140892
-0.060082927 -0.08104856 -0.028957248 -0.15420742 -0.16450457 0.043197796 -0.027406702 -0.12490173
-0.12322802 -0.12877908 -0.13676351 -0.048750486 -0.050351474 -0.06647306 0.054692112 -0.059741836
-0.09025373 -0.07424254 -0.21427344 -0.026402466 -0.02943914 -0.028931567 -0.11316047 0.0058633275
-0.12751701 -0.15082131 -0.06031786 -0.093771525 0.04155553 -0.15429568 -0.065040626 0.1250774
0.15858814 0.15451042 0.016734835 -0.1583502 -0.13594995 -0.12999855 -0.07145891 0.2563114
0.060014494 -0.08907162 -0.15171611 -0.1207691 0.016293015 -0.09856483 -0.11973462 0.07094426
0.0253649 -0.041231465 0.11054366 -0.017586045 0.0065522855 -0.033142578 0.046424303 -0.24749947
-0.050955866 -0.11090098 0.008469338 0.0071399407 0.09247389 -0.1512919 -0.17697984 -0.070607826
0.1865413 -0.043088377 0.0064838114 0.06422773 0.036981937 -0.064251065 0.073939964 -0.119734794
0.025303917 -0.1665751 -0.0956055 0.020496033 -0.09739466 -0.009387673 -0.095889136 0.098085515
-0.08926189 -0.07302594 0.04752696 0.078983024 -0.010718434 0.029068066 0.12033261 -0.026281346
-0.030644158 -0.09664475 0.033664804 -0.10515572 -0.11773717 -0.24311171 0.0077060685 -0.017208355
0.012156472 -0.0063380073 -0.016997386 -0.053511743 0.013888148 -0.052811082 -0.16263022 -0.039877694
-0.10077473 0.03863523 -0.080509156 -0.17829147 0.04443682 -0.007107898 -0.122185946 0.06782009
-0.061118644 0.17902276 -0.07364108 0.017834885 -0.055224128 -0.08716887 0.06652661 0.048373483
0.035268936 -0.082954064 -0.08175995 -0.090939745 -0.06274225 0.050477017 0.05779879 0.0732123
-0.040500946 -0.07905811 -0.012498439 -0.0053311856 -0.09293572 -0.0044119637 0.1628189 -0.19826315
-0.07890883 -0.12996887 -0.08692555 -0.021067899 -0.04586689 0.025261726 0.018872228 -0.06408408
-0.10455092 -0.14016001 -0.06637796 -0.06834104 -0.04998911 0.021029603 0.0035492782 0.02959362
00000000: 904d e0bd 6e1c 12be 5038 12bd 0f1a 17be
00000010: dd05 e0bd 094a 763c 2ed7 1c3d e10a 2bbe
00000020: 33b2 83bc abe4 ccbd c891 8fbd 57ea 53be
00000030: cc2f 23be 6d2e 55bd 2e04 ddbd 1a90 c73c
00000040: 8931 8ebd b480 393b 858f 1abe 017a 963c
00000050: f6f5 f8bd 4f43 f9bd cfee 49bd d760 36bb
00000060: fc65 233c 04a6 ffbd 677c ddbc 8a00 51bd
00000070: c70a 61bd 02d0 f3bd 347c 873c de69 96bd
00000080: 3b44 013e 3ff5 54bd 1103 efbc bb2b f1bd
00000090: 5589 4bbd ac6b 89bd f117 25be 672f a5bd
000000a0: 6798 46bb 5b8c 953d 3585 78bd 694c 85bd
000000b0: 6543 1abe 4c1f bc3c 8e0a 4c3d 0ca7 3ebd
000000c0: f4f4 a8bd c26b 26bd fd13 ac3c a1b6 20bc
000000d0: e193 d1bd 0d38 1bbe 9397 f5bd ba51 2dbe
000000e0: 2ed4 23be 9769 c0bd 6c91 e0bd 4160 8a3b
000000f0: bc52 763c c203 7d3d ce2d 8dbc f0c4 0ebe
00000100: 07b6 efbd 5117 0fbe 5e12 70bd 7fa1 0dbe
00000110: 5418 f83c 9bdb 78be aa1f d8bd 2e3d 99bd
00000120: 51ee 5ebe 5a0e b2bd e618 3dbd 10d7 8dbd
00000130: dd43 cdbd 314d 253d 1339 d3bd ca01 14bd
00000140: 4f0c 82bc d191 cabc c55d c0bb 190d 98bd
00000150: 63f1 fa3c 860b 75bc f10d 0f3d 3ca3 85bc
00000160: 5962 27be d22d d83c ea60 02bd afe3 8fbd
00000170: 43dc 5fbe 5bc7 d0bc c4d8 313c 9d86 a8bd
00000180: 1e5a bebd 993b d9bd 8d87 5c3d c599 c53d
00000190: c134 59be af2e 23be 7494 02bd 669c 29bd
000001a0: 8419 76bd cafc a5bd c037 edbc 8de8 1dbe
000001b0: e373 28be 2cf0 303d 0584 e0bc 7acc ffbd
000001c0: f95e fcbd aade 03be bc0b 0cbe 97ae 47bd
000001d0: 593d 4ebd 0723 88bd d604 603d dbb3 74bd
000001e0: f3d6 b8bd 790c 98bd 7f6a 5bbe fc49 d8bc
000001f0: 5a2a f1bc e501 edbc adc0 e7bd 2821 c03b
00000200: d293 02be e770 1abe dc0f 77bd 490b c0bd
00000210: 2236 2a3d b0ff 1dbe 0534 85bd 4a14 003e
00000220: ee64 223e fb37 1e3e 7e17 893c 8e26 22be
00000230: 7736 0bbe 571e 05be 0d59 92bd 3f3b 833e
00000240: c2d1 753d 2e6b b6bd 785b 1bbe ca55 f7bd
00000250: ee78 853c 5cdc c9bd 6d37 f5bd 394b 913d
00000260: 0dca cf3c 53e2 28bd b764 e23d 9c10 90bc
00000270: 8eb4 d63b 83c0 07bd 6927 3e3d 8070 7dbe
00000280: 19b7 50bd 0e20 e3bd fac2 0a3c 2af6 e93b
00000290: f362 bd3d 44ec 1abe 343a 35be d69a 90bd
000002a0: af04 3f3e 707d 30bd 2776 d43b d489 833d
000002b0: 5f7a 173d 1096 83bd d66d 973d 8437 f5bd
000002c0: 294a cf3c aa92 2abe d1cc c3bd 4ce7 a73c
000002d0: da76 c7bd c1ce 19bc 8661 c4bd 0fe1 c83d
000002e0: f0ce b6bd a08e 95bd a1ab 423d dac1 a13d
000002f0: 5f9c 2fbc 2720 ee3c f270 f63d fa4b d7bc
00000300: 7509 fbbc afed c5bd 1be4 093d e25b d7bd
00000310: 2f20 f1bd 47f2 78be 3083 fc3b 89f8 8cbc
00000320: f02b 473c 0faf cfbb 1a3e 8bbc 212f 5bbd
00000330: 1d8b 633c 6f50 58bd 8988 26be cb56 23bd
00000340: fb62 cebd fa3f 1e3d fce1 a4bd 0a92 36be
00000350: 6203 363d 5fe9 e8bb a03c fabd 42e5 8a3d
00000360: 8b57 7abd be51 373e 22d1 96bd 771a 923c
00000370: b232 62bd 9885 b2bd 1a3f 883d 4623 463d
00000380: 2976 103d d2e3 a9bd c371 a7bd 9e3e babd
00000390: 027f 80bd fdc0 4e3d 6dbe 6c3d 55f0 953d
000003a0: 52e4 25bd 38e9 a1bd 41c6 4cbc 3ab1 aebb
000003b0: 1555 bebd 3c92 90bb ffb9 263e 7f05 4bbe
000003c0: f49a a1bd 8f16 05be 0606 b2bd 9696 acbc
000003d0: ecde 3bbd aef1 ce3c ee99 9a3c 843e 83bd
000003e0: cb1e d6bd 1b86 0fbe 2bf1 87bd 63f6 8bbd
000003f0: 62c1 4cbd 4646 ac3c 029b 683b 526e f23c
